modelparameter/autoencoder_lognormal8_6.pth (torch, 826111 bytes, 36 tensors)

encoder.0.weight f4 [128, 72]
000000 93 2d 35 3d e9 bd 4d be 52 ac 84 be c0 aa 18 be
       0.044232916 -0.20091976 -0.2591272 -0.14908886
000010 8e 63 c0 3d e8 ec ba 3c 67 73 8a be c2 03 75 3e
       0.093939885 0.022818044 -0.2704117 0.23927215
000020 4e e8 e8 3e dc 77 96 3e 9d 4d ae bb ee 53 ff 3c
       0.45489734 0.2938832 -0.005319311 0.03116795
000030 92 d3 5f 3c 37 1a cc bd 93 29 36 be 21 77 34 be
       0.013661282 -0.099659376 -0.17789297 -0.17623569
000040 22 75 3a be ed 97 4d be fe 45 ba be 83 a6 d2 bb
       -0.18208745 -0.20077486 -0.36381525 -0.006428541
000050 72 c3 2f 3e ba 57 4e 3e 28 ab 10 be 47 bc 9e 3d
       0.171644 0.20150653 -0.14127791 0.07750755
000060 c6 0c 41 3c 77 9c cd bd 29 ad 43 be 15 ec 9a 3c
       0.011782831 -0.10039609 -0.19109024 0.0189114
000070 57 6d 69 be f8 e3 d1 bd 6d 40 27 3e 9a 5a 96 bd
       -0.22795616 -0.1024856 0.1633317 -0.073414996
000080 4f c1 90 3c 78 b6 1d be 6f 05 92 3d f0 d6 c0 3c
       0.017670302 -0.15401638 0.071299426 0.02353999
000090 f1 f8 6c be dc 1b 70 3d bc 87 09 be de f2 81 3e
       -0.23141839 0.05862032 -0.13430685 0.25380605
0000a0 0d cd 32 bd 54 b4 2d be 43 35 23 3d e0 ca 19 be
       -0.043652583 -0.16963321 0.039845716 -0.15018797
0000b0 18 94 c9 3c 6b 21 4b 3d 54 4e 77 3e 63 a6 bf 3e
       0.02460675 0.049592417 0.24150974 0.3743163
0000c0 f0 a8 b3 3e cc 73 49 be d7 f6 d9 bd 79 45 8e be
       0.35089827 -0.19673079 -0.10642784 -0.27787378
0000d0 2e e0 80 be e7 a6 a6 3d 74 c1 e5 bd 53 73 49 be
       -0.25171036 0.08137303 -0.11218539 -0.19672899
0000e0 73 89 e7 bd 4d 5f e8 3c 82 ec 08 be 29 51 74 3e
       -0.11305513 0.028365755 -0.1337147 0.23859085
0000f0 bd 7a 05 3e 11 25 07 3e 5e c4 47 3e 64 5f 14 bc
       0.13035102 0.13197733 0.19508502 -0.009055946
000100 c2 89 6c bc 3f d4 d2 3b 38 61 b7 bc 93 bc 05 bd
       -0.014437141 0.006433993 -0.022385225 -0.03265054
000110 01 b2 19 bd bb ac 5a 3d 24 7c c0 3c 00 50 f2 bc
       -0.037523273 0.053387385 0.023496695 -0.029579163
000120 df 2b 04 3e 2b 77 3b 3e e9 fc 94 3e 59 32 da bd
       0.1290736 0.18307178 0.29099205 -0.10654134
000130 90 9f 10 be d4 b9 94 3e 62 b2 0e 3e ec a3 4b bc
       -0.14123368 0.29048026 0.13935235 -0.012429219
000140 cf 09 a4 bc ab e8 60 bc f8 12 ab be 86 03 18 be
       -0.020024208 -0.013727347 -0.3341291 -0.14845094
000150 70 d3 b0 3d e5 22 7d be 32 27 43 3e dd 6d 4b be
       0.086340785 -0.24720342 0.1905792 -0.19866128
000160 9b c7 5c bd 5c ef 1b be db 71 e1 3c 78 76 5a bd
       -0.053901296 -0.15228027 0.02752011 -0.053335637
000170 8a f0 04 3b 40 68 74 be f7 31 8b 3d fa 30 a1 3e
       0.0020284974 -0.23867893 0.067966394 0.3148268
000180 77 d5 06 be cc e2 31 be 51 f7 14 be 6a d0 8c bd
       -0.13167368 -0.17371672 -0.14547469 -0.06875689
000190 38 d5 47 bd 6f 6d 4d 3d b0 7d 57 be 0a d3 44 be
       -0.048787326 0.050153192 -0.2104404 -0.1922113
0001a0 a6 99 59 be 09 2f c1 3e 25 11 b4 bd 69 ba da 3c
       -0.21250018 0.37731197 -0.087923326 0.026700215
0001b0 0c 9e e4 3d bd 85 08 3e a4 a7 0c 3e 4b 5a 22 be
       0.111629575 0.13332267 0.13735825 -0.15854757
0001c0 df 97 ba bc d7 38 e5 bd 40 2c 80 3d 89 50 5a be
       -0.022777496 -0.11192482 0.0625844 -0.21319784
0001d0 a6 99 ea bd c1 ad 7b bd aa be c4 bd fd a4 5e 3c
       -0.11455087 -0.061445 -0.09606679 0.013589141
0001e0 47 63 33 be d7 2e 8f 3e 15 6c 04 3e 69 55 e6 3d
       -0.1751834 0.27965423 0.12931855 0.112467594
0001f0 85 d2 bb bd ca 8e eb bd fa 89 a2 3d 5f eb 7b bd
       -0.09171013 -0.11501844 0.07936473 -0.061503764
000200 98 53 00 3e f2 99 2b bd 39 c3 fd bb e4 61 5c bd
       0.12531888 -0.04189486 -0.0077442196 -0.053804293
000210 c7 18 7f be f8 27 6c 3d 48 d4 5e 3e 9c 86 d0 3d
       -0.24911796 0.057655305 0.21760666 0.10181925
000220 6b 6d 34 3d 83 c5 16 3c 4f 34 c0 bc 20 97 79 bb
       0.04404966 0.009202364 -0.023462443 -0.0038084462
000230 02 ad 50 3d ab c6 9d 3c 9f 48 a4 bc 33 6b 4c bc
       0.050946243 0.019259771 -0.02005416 -0.01247673
000240 53 f2 98 3d df 8d 05 be 4e 7e cb 3d a6 d6 dd bb
       0.07468095 -0.13042401 0.099362 -0.006769973
000250 a2 7a 6c 3e 21 2e 50 be 0c 65 ce bb da 51 f6 bd
       0.23093656 -0.20330097 -0.006298667 -0.12027331
000260 08 cc 0e 3d 75 80 2b be a3 ac 36 3d f2 b1 82 3e
       0.034862548 -0.16748221 0.044598233 0.25526386
000270 9f e8 62 be f9 64 f4 3c a7 1d 12 be 61 52 2e be
       -0.2215905 0.029833304 -0.14269124 -0.17023613
000280 f4 d6 59 bb 3a e7 9a 3e 3b 8a 20 be b9 6d 06 be
       -0.0033239694 0.30254537 -0.1567773 -0.13127793
000290 ba c0 06 be 9f 6f b1 bd 57 36 71 be 88 53 0a be
       -0.13159457 -0.08663868 -0.23555885 -0.13508427
0002a0 b1 c2 b6 3d ed 04 1f be 48 d3 e1 bd 38 b6 0a be
       0.08923853 -0.15529223 -0.11026627 -0.13546073
0002b0 c4 c0 f9 3d fc d2 50 3e c3 a7 17 3e b7 f7 8f bd
       0.1219497 0.20392984 0.1481009 -0.0702967
0002c0 23 a7 28 be 5e 20 e6 bb 0b 67 4c bd e9 cc 23 be
       -0.16470008 -0.0070229014 -0.049902957 -0.15996136
0002d0 27 b8 20 3e 06 d3 4e be 14 dd 96 3d c4 0a 86 3e
       0.15695249 -0.20197687 0.07366386 0.2618009
0002e0 d4 b1 2e be 11 47 ad 3d f3 97 90 3e 49 16 65 bd
       -0.17060024 0.084608205 0.28240928 -0.055929456
0002f0 0f d2 cc 3d 1a e6 6b 3d 04 b8 40 be d4 82 01 be
       0.10001003 0.05759249 -0.18820196 -0.12647563
000300 a7 c2 b6 bc 16 42 3e be e2 3f aa bc c8 3c b8 3d
       -0.022309614 -0.18579897 -0.020782415 0.08995968
000310 14 2a 05 3e 71 5a 1d bc b6 83 67 bd dd 2b 85 3d
       0.13004333 -0.009604082 -0.056522094 0.06502507
000320 1d 6e 3e 3d c4 2d 3a 3e 4d 23 ff 3d 8e 92 0e 3e
       0.04649173 0.1818152 0.12457905 0.13923094
000330 29 42 81 3e 0f 7f 70 3d 34 a9 3c be b0 38 05 be
       0.2524579 0.058714923 -0.18423921 -0.13009906
000340 ab 41 f4 bc 6f 68 40 3c 05 4c 00 3d 1c c4 4b bd
       -0.02981647 0.011743649 0.031322498 -0.04974757
000350 e7 26 41 3c a8 13 72 3c 55 3a 4d 3d 1f f2 af bc
       0.01178906 0.014775194 0.050104458 -0.021477757
000360 84 b7 d7 bd 78 dd b2 bd 82 ee 42 be aa b9 f5 bd
       -0.1053305 -0.08733648 -0.19036296 -0.11998303
000370 f7 01 5c bd 05 6c 89 be 7e 11 2f 3e 6e 81 3e be
       -0.05371281 -0.26840225 0.17096516 -0.18604061
000380 96 1a 19 be 70 7a 2e 3b 8a e2 ae bc e3 09 2f 3c
       -0.14951548 0.0026623271 -0.021348257 0.0106835095
000390 ab 37 16 3e 21 fa 45 3d 12 cd 2d be 67 2c 73 3d
       0.14669673 0.048334245 -0.1697276 0.059368517
0003a0 b3 60 97 bd d7 cb 16 be d3 1a 9d 3e 1c ae 2b 3e
       -0.07391491 -0.14726196 0.30684528 0.16765636
0003b0 dc 76 a6 bd e0 ed 9e 3e 24 e9 aa bd 06 58 39 3d
       -0.081281394 0.3104086 -0.08345249 0.04524996
0003c0 f6 a9 94 bd 65 9b 82 bd 12 ac 48 3d 03 6e 9c bd
       -0.0725898 -0.063772954 0.048992224 -0.076381706
0003d0 f7 98 c8 bd c5 e4 13 3e 80 77 2b 3d 2c 65 8a 3e
       -0.09794801 0.14442737 0.04186201 0.27030313
0003e0 80 03 52 3e 88 51 20 3e 9a b2 47 3e e4 d5 28 be
       0.20509148 0.15656102 0.19501725 -0.16487843
0003f0 c5 34 4e bd 46 cb 59 be 4c bc 93 be 97 85 e7 bd
       -0.050343294 -0.21268949 -0.28854597 -0.11304777

encoder.0.bias f4 [128]
000000 47 e7 38 3b 51 c7 b9 3b a7 74 f1 bb 2a 8f 03 3c
       0.0028214024 0.0056695123 -0.0073686424 0.008029738
000010 d7 84 85 3b 08 4d 4e bc 47 ec 2a bc 02 d7 0e 3c
       0.0040746736 -0.012591608 -0.0104323095 0.008718254
000020 91 37 0a 3c 56 77 10 bc 17 cb 9c bb 54 9b 77 bc
       0.0084361 -0.008817514 -0.0047849524 -0.015112717
000030 e5 40 11 bc d2 f6 42 3c 0f 77 a5 3b c4 b1 a2 b9
       -0.00886557 0.011899667 0.0050495933 -0.00031031494
000040 e4 c0 17 3c c8 b0 cd 3b 92 2d a7 3b b4 c0 8b bb
       0.009262297 0.0062771775 0.005101868 -0.0042649154
000050 d2 df 5e 3b c4 2f a5 bb 0b be 8c 3b b1 9d b5 3b
       0.003400792 -0.0050410945 0.004295116 0.00554248
000060 e6 23 8c bc b0 bd 3d bc 7b 04 19 bc 2a 7d da ba
       -0.017106961 -0.01158087 -0.009339447 -0.0016669382
000070 6e c1 f0 bb 19 ec 0f bc a5 e9 d9 bb 60 0b 64 3b
       -0.0073472774 -0.008784317 -0.006650167 0.003479682
000080 d4 03 09 bc 3b 1a 1c 3c 30 07 73 bc 47 2c 20 3c
       -0.008362729 0.009527738 -0.014833257 0.009776182
000090 8b ec dd ba de a9 48 3c b5 a8 dc 3b fc 03 a8 bb
       -0.0016931457 0.012247531 0.0067339786 -0.005127428
0000a0 cf 5e 52 3c 5b fb 62 3c ad f9 c2 3b 60 40 5a bc
       0.012839987 0.013853873 0.005950174 -0.013321012
0000b0 b6 b0 38 3b 06 47 cf bb ee e0 09 bc 94 1d b5 bb
       0.00281815 -0.0063256053 -0.008415444 -0.0055272076
0000c0 51 5d 04 b8 b6 31 5f bc 8a 63 2f bb fd a4 75 bb
       -3.155816e-05 -0.013622692 -0.002676221 -0.0037482374
0000d0 19 9f f2 3b 4c 13 9b bb de 38 03 3c 87 33 95 bb
       0.00740422 -0.004732525 0.008009164 -0.0045532617
0000e0 88 4b 7e bb 84 61 28 bb 84 eb 56 bb 22 b2 71 3b
       -0.0038802344 -0.002569289 -0.0032794187 0.0036879857
0000f0 81 d8 4b ba 4b ab 22 bb b4 c4 87 3c d8 33 c8 bb
       -0.0007776097 -0.0024821337 0.016573288 -0.006109696
000100 ce 64 e8 bb e0 94 a4 3b 00 40 96 bb 58 36 47 bc
       -0.007092095 0.00502263 -0.004585266 -0.012158953
000110 4e 5c 59 3b 8c 79 8d 38 2c 88 a4 bc ae 82 51 3c
       0.003316659 6.746044e-05 -0.020084463 0.012787504
000120 5a 0b 4b bc cf 98 0d bc 38 88 44 bc b4 bc 19 3b
       -0.012392843 -0.008642389 -0.011995368 0.0023458423
000130 ab bd 3d bc ac 26 7c 3b 22 2c 4a 3c 3f 76 2f 3b
       -0.011580865 0.0038475199 0.012339624 0.002677336
000140 6c bd ff bb d3 35 79 bb 66 9a 0d 3c 92 95 5e ba
       -0.0078045633 -0.0038026467 0.0086427685 -0.00084909156
000150 1e 5c d5 3b 58 22 48 bb 9d 5b 01 bc fb 9f 6e bc
       0.0065112254 -0.0030538049 -0.007895377 -0.0145645095
000160 a3 26 5f 3a 45 88 1e bb 70 e5 4b 3b 6a e1 bd 3a
       0.0008512532 -0.002419011 0.0031112097 0.0014486734
000170 74 a5 63 3b b2 b0 57 bb 70 bc 0c 3c 42 96 e4 3b
       0.003473607 -0.0032911715 0.008589849 0.00697592
000180 80 01 54 3b 50 d7 0e bc db 53 f2 39 c3 dc 20 bc
       0.0032349527 -0.008718327 0.00046220314 -0.009818259
000190 df e2 a3 3a e8 5a 6f 3c 46 8d 22 3c 1e ab 01 ba
       0.0012503526 0.014609076 0.0099213775 -0.0004946458
0001a0 92 16 4f bb 81 b8 6d 3c 8c a4 d8 bb 25 fa 38 3c
       -0.0031599146 0.014509321 -0.0066114124 0.011290108
0001b0 68 f8 2f bc 57 c8 0f 3b 54 79 a1 3b 3b 1c 22 bc
       -0.010740377 0.002193948 0.0049277935 -0.009894426
0001c0 07 41 1f bc 89 33 61 3c 7c 94 95 b9 e5 cb 17 3b
       -0.009720094 0.013745197 -0.00028530124 0.0023162302
0001d0 e0 3f 89 ba 57 73 52 bc 10 a7 f9 bb 90 96 d2 bb
       -0.0010471307 -0.012844882 -0.0076187924 -0.00642664
0001e0 c3 b7 31 3b 80 71 a3 3b 65 97 51 bc 03 55 2e bb
       0.0027117587 0.0049878955 -0.012792443 -0.0026600964
0001f0 4e 78 9c bb 03 e8 d1 3a 72 eb 27 3b 64 12 bb 3b
       -0.0047750836 0.001601458 0.0025622514 0.0057089794

encoder.1.weight f4 [128]
000000 cd c3 85 3f d3 ef 82 3f e4 05 7e 3f 43 3b 83 3f
       1.0450379 1.0229439 0.9922774 1.025246
000010 1c e4 83 3f 37 c2 79 3f fb a3 7d 3f 47 a7 81 3f
       1.0303988 0.97561973 0.9907834 1.0129174
000020 c6 86 83 3f 3d 5b 7d 3f e2 27 7b 3f 1d e7 77 3f
       1.0275505 0.98967344 0.9810773 0.96837026
000030 24 e8 7a 3f 4a 64 82 3f f4 49 85 3f 6d 58 80 3f
       0.9801047 1.0186856 1.0413194 1.0026985
000040 57 cd 80 3f 79 69 81 3f 58 56 84 3f 9c 4a 80 3f
       1.0062665 1.0110313 1.033885 1.0022769
000050 ac c9 89 3f 43 af 80 3f 3d 22 82 3f e8 d2 83 3f
       1.076467 1.0053486 1.0166699 1.0298738
000060 7c b5 76 3f bb 8f 7d 3f b5 74 78 3f b7 69 7c 3f
       0.96370673 0.9904744 0.9705308 0.9859881
000070 a6 cd 80 3f 62 cd 78 3f 33 ee 79 3f ea 8f 80 3f
       1.0062759 0.9718839 0.9762909 1.0043919
000080 a2 e5 7d 3f 4f 5c 84 3f 2e 34 77 3f 4b 4f 84 3f
       0.99178517 1.034067 0.96563995 1.0336698
000090 60 3a 7f 3f fa 01 86 3f ce 11 80 3f 91 2f 7e 3f
       0.9969845 1.0469353 1.0005434 0.9929133
0000a0 cd 57 88 3f 78 5c 86 3f f9 49 82 3f f3 e9 78 3f
       1.0651795 1.0496969 1.0178825 0.9723198
0000b0 89 7b 80 3f 47 83 7c 3f 01 43 76 3f 89 18 7b 3f
       1.00377 0.98637813 0.9619599 0.9808431
0000c0 60 33 7f 3f 89 56 79 3f 30 5a 7b 3f 8b cb 7d 3f
       0.9968777 0.9739767 0.9818449 0.99138707
0000d0 b0 bb 81 3f 58 ed 7e 3f 0e 30 83 3f 47 e4 7a 3f
       1.0135403 0.9958091 1.024904 0.98004574
0000e0 c5 55 7e 3f 6b e0 81 3f cb 9c 81 3f bf 64 80 3f
       0.99349624 1.0146612 1.0125974 1.0030745
0000f0 99 36 7e 3f 0b 07 81 3f 6e d9 83 3f b1 ca 7c 3f
       0.9930206 1.0080274 1.0300729 0.9874678
000100 dd ee 7c 3f 49 63 81 3f 5e 12 7f 3f 6c 62 7e 3f
       0.98801976 1.0108424 0.996374 0.9936893
000110 21 e9 82 3f a9 c4 7e 3f f3 3e 75 3f f0 75 85 3f
       1.0227395 0.9951883 0.9579918 1.0426617
000120 9c 46 7d 3f b1 87 7c 3f c7 56 77 3f dc 2a 80 3f
       0.98935866 0.9864455 0.96616787 1.001308
000130 b7 d0 77 3f 95 39 7d 3f f9 e4 84 3f 3e 66 84 3f
       0.9680285 0.9891599 1.0382377 1.0343702
000140 76 a6 7a 3f 0a 33 7c 3f 25 9b 83 3f c9 8e 80 3f
       0.9791025 0.9851538 1.0281721 1.0043575
000150 65 40 86 3f f5 ab 7f 3f 80 14 7e 3f 07 8c 74 3f
       1.0488402 0.9987176 0.9925003 0.95526165
000160 e5 3b 7c 3f 61 81 7d 3f cf ac 80 3f e7 32 80 3f
       0.9852889 0.9902554 1.0052737 1.0015534
000170 42 50 82 3f da 4f 7d 3f 54 fc 83 3f 89 4d 88 3f
       1.0180743 0.9894997 1.031138 1.0648662
000180 69 a4 80 3f c1 7e 7b 3f df 4f 7e 3f 90 0e 7d 3f
       1.0050174 0.98240286 0.99340624 0.98850346
000190 54 2f 7c 3f bb c7 85 3f 47 bb 83 3f 67 3e 7d 3f
       0.98509717 1.0451578 1.0291528 0.98923343
0001a0 5d ea 83 3f 65 70 82 3f 58 62 77 3f db 26 85 3f
       1.0305897 1.019055 0.96634436 1.0402483
0001b0 5c fd 79 3f 48 88 80 3f f1 cd 81 3f 86 58 7b 3f
       0.9765222 1.004159 1.0140973 0.9818195
0001c0 d3 90 79 3f a2 c2 86 3f 76 fb 7a 3f 07 5a 80 3f
       0.9748661 1.0528147 0.9803995 1.0027474
0001d0 c3 f5 7d 3f e4 b6 7c 3f 07 09 7c 3f 4e d6 7c 3f
       0.9920313 0.9871657 0.98451275 0.98764503
0001e0 b6 7a 7b 3f d7 c8 80 3f f4 f0 7a 3f 7d 19 81 3f
       0.9823412 1.0061291 0.98023915 1.0085903
0001f0 58 26 7a 3f 95 e8 80 3f 73 d0 81 3f dc 81 85 3f
       0.9771476 1.0070978 1.0141739 1.0430255

encoder.1.bias f4 [128]
000000 13 96 44 bc a9 65 32 bc 58 08 c4 bc f1 45 fa ba
       -0.011998671 -0.0108884955 -0.02392976 -0.001909433
000010 21 71 09 bc 32 32 b1 bc 0f 37 9b bc 85 79 9a 3a
       -0.008388788 -0.02163038 -0.018947152 0.0011785483
000020 92 22 4a ba 8d 1c ca bc c0 28 be bc 8c 63 ca bc
       -0.000771084 -0.024671817 -0.02321279 -0.02470567
000030 37 bb 73 bc 4d a2 15 bc 40 00 50 bb f4 a2 57 bc
       -0.0148761785 -0.009132934 -0.003173843 -0.01316141
000040 d8 18 2a bc a1 de 16 bb c8 92 ab bb 9e 2c 95 bc
       -0.0103819 -0.002302088 -0.0052360035 -0.018209752
000050 41 ad 4b bc d0 20 54 bc f6 1e bf bb 59 45 9a ba
       -0.012431444 -0.012947276 -0.0058325483 -0.0011769935
000060 f0 c2 d6 bc e6 6f ed bc 74 72 9b bc 54 f5 99 bc
       -0.026216 -0.028984021 -0.018975474 -0.01879374
000070 f2 17 9e bc ae cd e2 bc 1b e7 84 bc 96 89 b1 bb
       -0.019298527 -0.027685966 -0.01622348 -0.005418013
000080 3f dc a7 bc 4d 27 b5 ba c4 aa 19 bd 8b 18 f9 3a
       -0.020490764 -0.0013820917 -0.03751637 0.0019004507
000090 c5 9e 3e bc c6 35 45 3b 8b 85 ba bb 5f d3 97 bc
       -0.011634533 0.0030091866 -0.005692189 -0.018533407
0000a0 40 4d e1 ba 35 b8 08 3b 82 a2 41 bb 01 1d 00 bd
       -0.001718916 0.002086175 -0.0029546325 -0.03127766
0000b0 8c 22 67 bc 4a b0 a7 bc cc be ce bc 22 d5 9a bc
       -0.014107358 -0.020469803 -0.025237463 -0.018900458
0000c0 1f d1 2d bc 9e 66 c7 bc 4f 24 8a bc 71 f1 86 bc
       -0.01060894 -0.024340924 -0.016863016 -0.01647255
0000d0 e1 78 11 bc 3e ad 45 bc 65 45 a5 bb e6 40 67 bc
       -0.008878917 -0.01206523 -0.005043673 -0.014114594
0000e0 f3 78 9a bc 21 06 93 bc 01 37 97 bc 04 b7 0e bc
       -0.018856501 -0.017947258 -0.018458845 -0.0087106265
0000f0 4f 5d 55 bc a7 3e 19 bc 68 86 1d 3b 2d 09 98 bc
       -0.013022735 -0.009353316 0.0024036411 -0.018559063
000100 65 fd 90 bc 4a 91 c8 bb 47 4c 7e bc 6d 3a 98 bc
       -0.017698953 -0.0061208354 -0.015521116 -0.018582547
000110 b9 17 ba bb 5b af 2d bc b3 4e f7 bc 18 4e 67 bb
       -0.0056790975 -0.01060089 -0.030188894 -0.003529435
000120 d3 3d be bc 33 fd ba bc 7f e1 a3 bc 09 09 50 bc
       -0.02322284 -0.022825813 -0.020004986 -0.012697467
000130 d0 eb c4 bc d1 cd 04 bc 98 b8 df 3a 38 d6 f1 bb
       -0.024038225 -0.008105711 0.0017068563 -0.007380273
000140 38 0a be bc 55 49 24 bc 82 a6 25 ba ac 5a 61 bc
       -0.023198232 -0.010027249 -0.0006319062 -0.013754528
000150 94 9a 59 ba 4f 95 4c bc 83 3f 90 bc 92 a2 09 bd
       -0.0008300927 -0.01248677 -0.01760841 -0.033602305
000160 fc 75 58 bc bb c1 18 bc 6c e8 b4 bb ac 0d 4c bc
       -0.013211723 -0.009323533 -0.005520871 -0.0124544315
000170 29 37 c7 bb 4a dc 8f bc 53 2b 57 bc 1e 73 b0 bb
       -0.0060795736 -0.017561097 -0.013132888 -0.005384817
000180 b9 f0 cb bb 18 21 8c bc 7c 1c d6 bb 46 d7 9e bc
       -0.0062237647 -0.017105624 -0.0065341573 -0.01938976
000190 10 e5 82 bc aa 78 be ba dd 8d 3c bb 78 90 8f bc
       -0.015978366 -0.001453181 -0.002877108 -0.017524943
0001a0 27 d9 12 bc 8d 0c 93 3b d0 f5 b6 bc ef 7d a1 bb
       -0.008962906 0.00448758 -0.02233401 -0.0049283425
0001b0 71 7d 92 bc 0f 3a 49 bc 8e d6 92 b8 15 4b b1 bc
       -0.01788208 -0.012281909 -7.0017864e-05 -0.021642247
0001c0 57 65 99 bc a9 da f5 bb 85 7b 67 bc 28 c1 39 bc
       -0.01872508 -0.007502873 -0.01412857 -0.011337556
0001d0 85 de 33 bc 1b d5 14 bd 2a d9 b4 bc 91 32 9a bc
       -0.010978346 -0.036336046 -0.022076208 -0.01882294
0001e0 98 90 04 bc f6 4a 03 bc 51 fb ae bc bb 71 39 bc
       -0.008091114 -0.008013478 -0.021360071 -0.011318619
0001f0 14 27 8e bc c8 ee 02 bc 84 7f 00 bc f2 66 92 ba
       -0.017352618 -0.0079915 -0.007842902 -0.0011169596

encoder.3.weight f4 [256, 128]
000000 3d bb 14 3d cc fc 63 3d ca 72 aa bd a5 a8 f0 3d
       0.036311377 0.055661008 -0.083226755 0.117509164
000010 5a 60 01 be dd ad b4 bd fd 27 da bd 30 6f b8 bd
       -0.12634411 -0.08822224 -0.106521584 -0.09005582
000020 57 57 1f ba f8 05 f6 3d 66 f9 70 bd c8 8a 92 3d
       -0.00060783833 0.12012857 -0.058831595 0.07155377
000030 7e 4f e6 bc 0a 6c e2 bc 8e 70 f1 bc a5 3c c8 bd
       -0.028114077 -0.027639408 -0.029472616 -0.09777192
000040 f8 48 b6 bd a8 35 eb 3d 9d 35 57 bc e5 9c 96 bc
       -0.089006364 0.114848435 -0.013135341 -0.01838536
000050 83 25 85 3d e9 13 33 b9 e9 16 e6 bd a5 34 1f bd
       0.065012954 -0.00017078187 -0.112348385 -0.038868565
000060 57 a6 d3 bc 85 28 11 3d 35 0f ff 3d 0c cb 2b 3e
       -0.025836153 0.035439033 0.124540724 0.16776675
000070 ef 20 dd 3d 72 24 16 3c 7d 03 82 bd 4b 48 cc bd
       0.10797297 0.009163963 -0.063483216 -0.09974726
000080 36 ac 3b 3d d9 29 9f bc 88 03 0c be 30 47 da 3c
       0.04581853 -0.019429134 -0.13673222 0.026645273
000090 4e 6c 8c bb b4 c5 c7 3c 54 f9 45 3d 51 28 3b bd
       -0.004285372 0.024386264 0.04833348 -0.045692746
0000a0 ce 7a d4 bd f7 e0 26 3d 25 36 20 3c 8f 16 fe bc
       -0.10374986 0.040741887 0.009778534 -0.031016616
0000b0 93 5b 08 3d 48 8d 00 ba a6 ad ef bc a8 d0 33 bd
       0.033290457 -0.0004903865 -0.029257607 -0.043900162
0000c0 19 38 ca 3c 68 c5 35 bd b1 22 93 bd 37 5c 1a 3d
       0.024684953 -0.044377714 -0.07184351 0.0376856
0000d0 82 ff 10 bc 52 2c 7f bd 0d 27 e3 bc 1a 11 c6 3d
       -0.00884998 -0.062298127 -0.027728582 0.096712306
0000e0 9e 38 b8 3d b9 0e 99 3b f8 62 93 3d a1 d1 74 bc
       0.08995174 0.0046709445 0.07196611 -0.014942558
0000f0 76 74 fd bc 15 8e 9f 3d c7 22 c6 bd bd c6 be 3d
       -0.030939322 0.07790772 -0.09674602 0.0931525
000100 7b 35 01 3d 4e 4a 48 bd 16 e1 b7 3c fd 55 4b bd
       0.031545144 -0.048898987 0.022446197 -0.04964255
000110 fa 06 9b bc d6 42 ec 3d dc eb aa 3d f0 e4 e3 3d
       -0.018924225 0.115361854 0.08345768 0.11127651
000120 1d 8a ce 3d ea 0b b6 3d 28 25 a1 3c ae f5 c0 bd
       0.10084937 0.08888991 0.019671038 -0.0942186
000130 20 0a b8 bc 6d 06 d8 bc ce 3a cd 3d c9 79 f3 3d
       -0.022465765 -0.026370252 0.10020982 0.11888463
000140 33 07 ae bd 46 8f af bc 49 32 9b 3b 72 8f b4 bd
       -0.08497467 -0.021430623 0.004736219 -0.088164225
000150 f1 12 bf bc 12 0b 41 3d 59 41 3c 3e 01 11 6a 3d
       -0.023324462 0.047129698 0.18384303 0.057145122
000160 5f 83 5d bc d7 e4 32 bd a1 f1 df bd 88 4a 1a 3d
       -0.013520091 -0.04367527 -0.10934759 0.037668735
000170 a7 b9 5a 3d 20 f2 dc 3c 20 ed 1a bd f7 f8 06 3e
       0.053399708 0.026970923 -0.037823796 0.1318091
000180 0e c3 f8 3d 62 96 ae 3d 12 b2 d4 3d 51 96 37 bc
       0.12146579 0.08524777 0.10385527 -0.011205272
000190 53 e7 59 bd 77 37 6a bd b8 89 49 bc bf 03 78 3d
       -0.053199124 -0.0571818 -0.012300901 0.060550448
0001a0 ba c8 b2 3d 49 5c 02 be 14 d3 ce 3c 74 10 a3 bd
       0.08729692 -0.12730516 0.025247134 -0.079621226
0001b0 ef 4f d0 3d 9e b1 0f bd 19 21 25 3d ac 07 dd 3d
       0.10171496 -0.0350815 0.040314768 0.10792479
0001c0 e1 3d 4f bd 54 f7 bc bd 20 cd 6b 3d 29 4d fd ba
       -0.05059612 -0.092268616 0.05756867 -0.0019325364
0001d0 4b d6 8f 3d 76 26 82 3c 04 9e c9 bb 7f 40 0e be
       0.07023295 0.01588748 -0.00615287 -0.13891791
0001e0 ee d0 ae bb 8e 19 32 bd 02 c2 1d 3c 26 03 82 bd
       -0.005334965 -0.043481402 0.009628775 -0.06348257
0001f0 23 0e e7 3c dd 63 5d bd 8b 5c f6 bd e6 e8 74 bd
       0.028204983 -0.054050315 -0.1202937 -0.05979242
000200 63 4d e1 bd fc 75 f3 3c 14 ac 20 bd 72 d0 c1 bd
       -0.110010885 0.029719345 -0.039226606 -0.09463586
000210 01 c8 5b 3d 08 7c 60 3d f2 4d d1 3d 86 6b be bd
       0.053657535 0.054805785 0.10219945 -0.09297852
000220 25 91 ae bd d4 1e ed 3d 78 0d bc 3c 2e e1 58 3c
       -0.08523778 0.115781456 0.022955641 0.013237281
000230 b8 4e 5b 3d a1 2c c0 3b 49 65 4f 3b dd 91 19 3d
       0.05354187 0.005864695 0.0031646064 0.03749262
000240 68 f5 7e 3d e6 df 58 3d 82 40 aa 3d 20 1a 9a 3d
       0.062245756 0.0529479 0.08313085 0.07524514
000250 c9 62 a5 3d ed 2a 20 bd 3a aa fa 3d c7 cd be 3d
       0.080754824 -0.039103437 0.122394994 0.09316593
000260 1c 69 c6 3d 1b 4d 94 bd 7b bc ae bc 09 73 7a bd
       0.09688017 -0.07241269 -0.021330109 -0.061144862
000270 4f eb f4 3c 5c dd ef 3d e9 3e 8b 3d d1 f9 f4 bd
       0.02989736 0.11712143 0.067991085 -0.11961711
000280 31 67 83 bd f4 ab 8d bc 9e 0b 8c 3d b5 02 a2 3b
       -0.064161666 -0.017293908 0.06838153 0.0049441704
000290 d8 38 d7 3d 0e 67 16 3c d0 86 01 be a6 4e ef bb
       0.10508889 0.009179844 -0.12649083 -0.007303077
0002a0 4e cf a3 bb c1 ca 09 be e1 01 2e 3d 38 3e f5 bd
       -0.004999078 -0.1345625 0.04248226 -0.11974758
0002b0 c3 b1 40 bd 40 b3 73 bd 64 b5 71 3d 58 90 ad 3d
       -0.047044527 -0.059497118 0.05901088 0.08474797
0002c0 49 be 55 3d 01 c1 88 3d 13 cc f2 3d ea 47 4b 3d
       0.052183423 0.066774376 0.1185533 0.04962913
0002d0 0e 51 85 3d 4d 01 a2 bd 6f f5 b4 3d 3f 2a 7e 3c
       0.065096006 -0.07910404 0.08835875 0.015513002
0002e0 a0 16 a1 3d 7c ff b9 bd a5 0c 1b bc 25 59 15 bd
       0.078656435 -0.09081933 -0.009463464 -0.036461968
0002f0 e1 c3 2c bd bf 8d 39 3d d5 7e a0 bd 91 04 8e bc
       -0.042178992 0.045301195 -0.07836691 -0.017336162
000300 be 5d 29 3d 4c 67 99 3d 26 93 79 3d d5 61 de 3b
       0.041349165 0.074904054 0.060931347 0.006786565
000310 5b 6c d7 3c ae 81 c9 bd 28 44 2a 3b 98 98 f2 3b
       0.026296785 -0.098391876 0.0025980566 0.0074034445
000320 a6 5b 8b bd f3 68 ab 3d 1c 1b 2e 3d ae 04 b7 bd
       -0.0680459 0.08369627 0.042506322 -0.089364395
000330 53 44 82 3d f2 20 c2 bd 37 95 2b bd ac 71 d2 bd
       0.06360688 -0.0947894 -0.04189035 -0.102755874
000340 6c 5e 0e 3d 20 19 b5 3d 3f 10 ba 3d 20 bf b8 3c
       0.034758016 0.08842683 0.0908513 0.022552073
000350 de 5d ef 3c b2 57 94 3d 9f 02 ab 3d 5f fe 30 bd
       0.029219564 0.07243289 0.08350109 -0.043211337
000360 a8 f1 d3 bd ba e4 5b 3c 0a 52 ae 3a 2c 06 e5 bd
       -0.10348827 0.013421232 0.0013299596 -0.11182818
000370 e3 df 3a bd 1f 93 b2 3b a5 54 bb 3d db 0e 7e bd
       -0.04562367 0.005449667 0.09147004 -0.062025886
000380 e8 68 d4 3d 43 0a 6c 3d ff 53 14 3d a3 27 cc bd
       0.10371572 0.057626974 0.036212917 -0.099684976
000390 48 2c b5 3d d7 e0 0f 3d 4d 40 f4 bc a3 c0 aa bd
       0.088463366 0.035126533 -0.029815817 -0.08337524
0003a0 3c 67 c2 3d de 77 e9 3d 60 6b 58 bd b0 0c 84 bc
       0.09492347 0.11399816 -0.052836776 -0.016119331
0003b0 9b c9 83 3d 17 0d cb bc e9 18 c3 3d 96 47 27 3c
       0.064349376 -0.024786515 0.095262356 0.0102099385
0003c0 40 fa e8 3c 72 5a e3 bc 98 a9 e3 bd 89 ad 04 be
       0.028439641 -0.027753089 -0.11116332 -0.12956823
0003d0 3a be 24 bd 79 f0 01 bc 20 c1 96 bc f4 45 bf bd
       -0.040220477 -0.007930868 -0.018402636 -0.093395144
0003e0 49 18 09 3d 2c 90 fa bc 53 aa 02 3e 2f 92 a5 bd
       0.033470426 -0.030586325 0.12760286 -0.08084523
0003f0 6f e8 ac bd 7c fc ce bd 42 de 01 bd 53 e4 de bd
       -0.08442771 -0.10106751 -0.031706102 -0.10883393

encoder.3.bias f4 [256]
000000 a4 56 2d bb b2 43 8b bb 67 a8 f4 ba a3 13 5d bb
       -0.0026449347 -0.0042500133 -0.001866591 -0.0033733628
000010 7d 77 b5 ba 29 ca b1 3b 35 71 44 bc 0a 3b f7 39
       -0.0013844814 0.0054257107 -0.011989881 0.000471555
000020 10 b4 b9 b9 d6 3c 66 3b de 87 94 3b 93 da 3a bb
       -0.00035420107 0.0035131476 0.004532798 -0.0028511628
000030 e0 8f 31 bb e8 df 1e 3c a0 07 c0 ba 9b 44 75 bb
       -0.0027093813 0.009696938 -0.001465071 -0.0037424925
000040 38 e6 43 3c 0a 5b 0a 3c 69 98 a0 3b 81 21 2e 3c
       0.011956744 0.008444557 0.004900981 0.010628105
000050 02 23 7f 3b 52 f2 1f 3b c9 06 2c 3b 5b f2 01 b8
       0.0038930778 0.0024405909 0.0026249161 -3.0981708e-05
000060 a9 c4 5c 3a 9b 8b 22 3b 4c 36 f8 ba c5 8b 9e 3b
       0.00084216386 0.002480245 -0.001893708 0.004838439
000070 37 31 dd 3b ee 6c 1f bb 8c 6d 4f bb c9 2e 37 3c
       0.0067502516 -0.0024326402 -0.0031650988 0.011180588
000080 47 f7 69 bb b8 0e 25 bb 42 03 e1 3a 01 9d 5a 3b
       -0.0035700367 -0.0025185775 0.0017167109 0.0033357742
000090 76 e2 dc 3b 3e 77 b1 ba ab 40 6b bb 20 40 a8 bb
       0.0067408634 -0.0013539565 -0.00358967 -0.0051345974
0000a0 7d 68 fa ba 53 ce c7 3a 16 6c 30 3b f3 e3 3f 3a
       -0.0019104626 0.0015243985 0.0026919893 0.0007320039
0000b0 1d e4 22 3b 19 2e 72 3b a8 0c 72 3a 7b b3 49 bb
       0.0024855204 0.0036953746 0.00092334533 -0.0030777145
0000c0 93 f2 4b 3c 19 ee 38 3b 87 6f 06 bc fb 5e c6 3b
       0.012447971 0.002821809 -0.008205301 0.006053803
0000d0 14 51 e2 b8 51 7d cb 3b 08 16 b2 3a 61 3c f4 bb
       -0.00010791622 0.0062100072 0.0013586888 -0.007453487
0000e0 b3 f7 f6 3b ca 84 87 3b bd e0 19 3a b9 40 37 39
       0.0075368523 0.0041357027 0.00058699754 0.00017476351
0000f0 a5 dc bd bb 62 b6 9d b8 64 d4 dc ba cf 16 2d 3b
       -0.005794125 -7.520315e-05 -0.0016847965 0.00264113
000100 35 92 0b 3b b5 21 7d bb 6b f7 9a 3b 8b 01 93 3a
       0.0021296863 -0.0038624827 0.0047292016 0.001121567
000110 28 e5 f6 bb ee ae 06 bc 69 e6 98 3b fd a0 ca b9
       -0.007534642 -0.008220417 0.004666139 -0.00038648388
000120 fa 62 dc 3b c8 90 84 3b 1e 3d fc 39 0a a7 a0 bb
       0.006725666 0.0040455796 0.0004811072 -0.004902725
000130 54 17 3c 3b f0 b2 32 ba e0 d8 d1 3b 63 8e 82 bb
       0.0028700428 -0.0006816825 0.0064040273 -0.003984259
000140 62 fc 9d bb bf ab 3d 3b c5 47 e4 3b 65 5d 52 3b
       -0.004821346 0.002894148 0.0069665634 0.0032099125
000150 8a 16 8b 3b 69 b6 ff 3b cb 9b 76 3b 91 65 3f bc
       0.00424463 0.0078037274 0.003762948 -0.01168193
000160 43 23 a8 ba 48 87 a2 bb c3 a9 c3 38 c6 fd b5 bb
       -0.0012827892 -0.0049599744 9.329945e-05 -0.005553934
000170 3b 2f 64 bb bd de 98 bb 3d b9 28 bb 58 f4 1d bc
       -0.003481819 -0.0046652243 -0.0025745176 -0.009640776
000180 f2 ab fa bb 9b 4c c0 bb 8f 9c c6 bb 41 9a 4c b7
       -0.007649892 -0.005868507 -0.0060611437 -1.2195263e-05
000190 e1 69 72 3a 41 f4 1d 3b c8 24 f2 3b b0 d0 3d ba
       0.00092473446 0.0024101886 0.0073896386 -0.00072408747
0001a0 6b f2 a9 3a 7d 09 88 bb 56 aa 95 bb 53 a6 05 3b
       0.0012965923 -0.0041515217 -0.0045674248 0.0020393326
0001b0 34 90 c2 3a 63 78 00 b9 13 3e b7 3a 22 80 5d bb
       0.0014844001 -0.00012251879 0.0013980292 -0.0033798297
0001c0 ed e5 ba 3a 4f cd 34 bb 3f 83 1d 39 9f f5 9f 3b
       0.0014259197 -0.0027588194 0.0001502158 0.0048815752
0001d0 3b b4 c4 bb c1 c0 a2 3b 51 fa 9f 3b d3 43 12 bc
       -0.0060029305 0.0049668257 0.004882135 -0.008927303
0001e0 de d2 ac 3b 40 17 83 3b 70 df ec 3b 12 12 2f bb
       0.0052741608 0.0040005744 0.0072287843 -0.0026713652
0001f0 3a 03 b7 bb ef 16 db 3a 5e 32 e9 3b a1 fb 27 3b
       -0.0055851014 0.0016715209 0.0071166 0.002563216
000200 6a 58 56 bc b1 1d 43 3b 3f 56 d9 ba b8 fd ae bb
       -0.013082603 0.0029772336 -0.001658149 -0.005340304
000210 a7 b5 3e 3c d1 44 23 bc aa 74 f0 ba 8f 1a c3 ba
       0.011639989 -0.009965138 -0.0018345315 -0.0014885234
000220 fa ad c1 ba 9a 9d 38 3b 4b 4c 3b bb ec 17 a5 3b
       -0.001477658 0.002817011 -0.002857941 0.005038252
000230 d1 25 19 ba f9 87 89 3c 8b 55 1c 3c 83 ee b5 3b
       -0.0005842122 0.01678847 0.009541879 0.0055521145
000240 28 03 d4 3b fc 0c cc 3b e7 92 b8 ba a6 d5 94 3b
       0.006470103 0.006227134 -0.0014081866 0.0045420704
000250 1f 2b cf bb 23 3f d1 bb cb 86 ca bb 71 01 1d 3c
       -0.006322279 -0.0063857003 -0.0061806194 0.009582863
000260 d0 5f 56 3b 9c 87 23 bb 38 45 e7 ba a6 3a 59 bb
       0.0032710917 -0.0024952656 -0.001764453 -0.003314653
000270 84 5b 29 3b 04 49 b8 3b a4 a0 8f ba c5 b0 27 3a
       0.00258419 0.0056239385 -0.0010957909 0.0006396885
000280 a3 fe 23 3c 47 ba 6c 3b f9 58 bf 3b 39 43 2e 3c
       0.010009441 0.0036121772 0.005839464 0.010636144
000290 81 fa 12 bb 88 dd e4 bb 52 7d c6 3b ba af a1 3b
       -0.0022427144 -0.0069844164 0.00605742 0.0049342783
0002a0 5b f0 99 3b 7c 7b 36 3b c1 f2 2e ba 4e 8b 92 3a
       0.004697842 0.0027844599 -0.00066737464 0.0011180432
0002b0 a2 67 1c 3c f6 e0 42 bc 9e 78 66 bb bb 47 e6 3a
       0.009546192 -0.011894455 -0.0035167108 0.0017568985
0002c0 d6 4d 07 3c fe 97 2a 3c 0e c4 3e 3b 32 4d 47 ba
       0.008258304 0.010412214 0.0029108557 -0.00076027506
0002d0 4b 43 0c 3c db 5b 1f 3c 63 44 83 ba fd fb 5e 3b
       0.008560966 0.00972649 -0.0010014888 0.0034024708
0002e0 06 7c de 3b e0 02 9c b7 d5 ce a0 bb e4 79 14 3c
       0.006789687 -1.8597988e-05 -0.004907469 0.009062264
0002f0 a3 f7 13 3b dd 02 18 bb 20 d6 bb bb b4 b5 0c bc
       0.0022578023 -0.0023195066 -0.005732313 -0.008588243
000300 93 e4 6e 3c 1d df 6b 3a b5 02 65 b9 f2 f4 0f bb
       0.0145808635 0.0008997785 -0.0002184015 -0.0021966067
000310 8f 35 8c bb 5c 89 f2 bb aa 78 b1 3b 1a 3e ef ba
       -0.0042788456 -0.0074016284 0.0054159956 -0.0018252761
000320 5f e1 1c 3b 48 23 6e 3b 13 3f eb 3a f0 7f 0b bc
       0.0023938043 0.0036336947 0.0017947875 -0.008514389
000330 ba a9 53 3b dc 52 9b b8 cd 15 55 bb 99 80 ae 3b
       0.003229721 -7.40641e-05 -0.0032514215 0.0053253886
000340 75 ee 13 3b 1f e7 a4 ba 0f 7a 08 ba 4a 06 25 bb
       0.0022572551 -0.0012581086 -0.00052061764 -0.002518075
000350 77 7a 8b bb 5d 59 2d 3b a2 9b d8 b7 3e f0 4d bb
       -0.0042565423 0.002645097 -2.5821679e-05 -0.0031423713
000360 12 73 72 ba e7 d9 92 3b 49 d3 36 3c 05 d7 05 b9
       -0.0009248714 0.0044815424 0.011158773 -0.0001276397
000370 3e a3 49 ba 2b 43 e4 3b a9 05 46 3b 31 d1 25 3b
       -0.00076918665 0.006966015 0.0030215776 0.002530169
000380 02 2d 5a 3a e6 6c b0 3b a2 55 bd 3b 67 40 8b 3b
       0.0008322747 0.0053840755 0.0057780305 0.0042496207
000390 8c 54 e4 3b f8 f8 2c 3c 3a bf 6e bb 56 13 aa ba
       0.0069680866 0.010557406 -0.0036429898 -0.0012975733
0003a0 ca 12 c7 3b 1a d1 20 3c d9 3d ee ba 68 6b 04 3c
       0.006075238 0.009815479 -0.0018176391 0.008082248
0003b0 0b 6b e6 3b 82 b1 cf 3b 7a c6 4f 3b 79 92 a1 3b
       0.0070318035 0.0063382993 0.0031703995 0.004930791
0003c0 6a fa 10 bb ca de c0 bb 66 49 80 3b 14 a8 3e bb
       -0.0022121915 -0.0058859335 0.003915 -0.0029091882
0003d0 33 3d fc ba 03 f2 1f 3b 8e 60 a7 3b 8a 7d aa 3a
       -0.0019244313 0.0024405725 0.0051079458 0.0013007384
0003e0 ff c7 a1 3c 5f 2a a0 3a c9 67 97 bb 37 ab af 39
       0.019748686 0.0012219659 -0.0046205265 0.00033506166
0003f0 25 bb 2f ba c0 27 8c bb f8 e1 33 3b 52 a5 09 3c
       -0.0006703607 -0.0042771995 0.002744792 0.008401232

encoder.4.weight f4 [256]
000000 6a d1 82 3f 4e 5f 7d 3f ce 0d 86 3f f2 f6 7b 3f
       1.0220158 0.9897355 1.0472963 0.98423684
000010 f5 25 82 3f 11 57 82 3f dd 23 7a 3f 25 34 80 3f
       1.0167834 1.018282 0.97710973 1.0015913
000020 7a ef 7c 3f 5e c8 80 3f cf d2 82 3f 3b c1 7d 3f
       0.9880291 1.0061147 1.0220584 0.9912297
000030 39 8c 7d 3f c6 3a 88 3f 3a ab 7e 3f 60 76 81 3f
       0.9904209 1.0642936 0.9948002 1.011425
000040 fc c3 87 3f d8 c4 84 3f d1 22 85 3f 77 62 87 3f
       1.0606685 1.0372572 1.040125 1.0576924
000050 ae 35 83 3f 55 46 7d 3f cc 9f 80 3f 35 12 80 3f
       1.0250757 0.98935443 1.0048766 1.0005556
000060 50 d6 82 3f f5 3d 80 3f b9 d4 7b 3f e6 5e 81 3f
       1.0221653 1.0018908 0.98371464 1.0107086
000070 ad bb 82 3f 52 f4 82 3f 89 b6 7e 3f ad 87 86 3f
       1.0213524 1.0230811 0.99497277 1.0510155
000080 82 0e 81 3f 0a 3e 7a 3f 83 56 83 3f 78 eb 83 3f
       1.0082552 0.97750914 1.0260776 1.0306234
000090 9b 43 81 3f 7b 67 81 3f c5 0b 7f 3f f2 72 7b 3f
       1.0098757 1.0109705 0.99627334 0.9822227
0000a0 5e 26 7e 3f 73 e9 80 3f de a9 80 3f f5 6d 81 3f
       0.99277294 1.0071243 1.0051839 1.0111681
0000b0 d9 10 82 3f 1c 2b 7f 3f a6 ad 82 3f 84 5f 7e 3f
       1.0161391 0.99675155 1.0209243 0.99364495
0000c0 b2 b5 85 3f 14 1f 82 3f 3c 50 77 3f 5f 48 84 3f
       1.0446074 1.0165734 0.966068 1.0334586
0000d0 f9 4c 80 3f 1c b9 87 3f 5d d7 81 3f 33 93 78 3f
       1.002349 1.0603366 1.0143849 0.9709961
0000e0 23 57 80 3f 37 37 7c 3f 79 d8 80 3f 25 d6 7d 3f
       1.0026592 0.9852175 1.0066062 0.99154884
0000f0 3c 4f 82 3f 94 ff 81 3f 2c 6f 80 3f 21 a1 80 3f
       1.018043 1.0156121 1.0033927 1.0049173
000100 6e 0e 7e 3f 06 e8 78 3f bf 44 81 3f 60 9a 82 3f
       0.9924077 0.9722904 1.0099105 1.0203362
000110 7b 15 7f 3f 80 ad 76 3f 85 31 82 3f 32 a6 7c 3f
       0.9964215 0.9635849 1.0171362 0.98691094
000120 c1 85 85 3f a5 1f 83 3f d5 34 7f 3f 29 ab 7d 3f
       1.0431443 1.0244032 0.9968999 0.99089295
000130 1a 0b 81 3f 87 e3 81 3f eb 85 81 3f 7c 3f 7d 3f
       1.0081513 1.0147561 1.0118994 0.98924994
000140 8b bc 7d 3f a4 1c 83 3f e8 18 84 3f 07 af 84 3f
       0.9911582 1.0243115 1.0320101 1.0365914
000150 5c 21 83 3f 8a a4 85 3f d5 b8 81 3f dd b2 7a 3f
       1.0244555 1.0440838 1.0134531 0.97929174
000160 f0 45 80 3f 6c a8 7c 3f 89 df 7e 3f d4 e6 7b 3f
       1.0021343 0.9869449 0.9955984 0.9839909
000170 74 2d 80 3f 69 2b 7c 3f 62 90 7c 3f 12 9d 70 3f
       1.0013871 0.9850374 0.9865781 0.9398967
000180 63 d3 7d 3f 85 0f 7b 3f 99 f5 79 3f 6a 1a 7a 3f
       0.99150676 0.98070556 0.9764038 0.97696555
000190 9a f2 7d 3f 8a d0 81 3f 71 67 83 3f 00 28 7e 3f
       0.99198306 1.0141766 1.0265943 0.99279785
0001a0 d3 18 82 3f 36 c4 79 3f 99 2e 7d 3f ee a2 7e 3f
       1.0163826 0.9756502 0.9889923 0.9946736
0001b0 3d e1 7f 3f 00 f0 7f 3f 37 a8 85 3f 16 5b 7f 3f
       0.9995306 0.99975586 1.044196 0.9974836
0001c0 92 63 81 3f 44 1e 7f 3f f1 85 81 3f 43 5c 82 3f
       1.0108511 0.99655557 1.0119001 1.0184406
0001d0 d5 2d 76 3f f7 ad 82 3f 55 60 85 3f 64 de 75 3f
       0.96163684 1.020934 1.0420023 0.96042466
0001e0 7a 9b 81 3f 8d 6b 83 3f 7d f6 7f 3f f5 0d 83 3f
       1.0125573 1.0267197 0.99985486 1.0238634
0001f0 5e 48 7a 3f 8c 24 80 3f e4 7d 85 3f ca 9e 82 3f
       0.97766674 1.0011153 1.0429044 1.0204709
000200 68 d0 77 3f ad fc 82 3f 01 28 7e 3f ef 2e 7f 3f
       0.9680238 1.023336 0.9927979 0.9968099
000210 93 e8 86 3f 50 8b 7a 3f 0b 68 7d 3f 3e dc 7d 3f
       1.0539726 0.97868824 0.9898688 0.9916419
000220 50 f1 7d 3f 83 2d 81 3f 58 ad 7e 3f 1a 1e 83 3f
       0.9919634 1.0092014 0.9948325 1.0243561
000230 b4 83 7d 3f b7 05 80 3f 3f 4d 88 3f b2 14 83 3f
       0.9902909 1.0001744 1.0648574 1.0240691
000240 d5 06 80 3f 09 09 85 3f d8 be 80 3f 47 c0 80 3f
       1.0002085 1.0393382 1.0058241 1.0058678
000250 d1 33 7c 3f 80 7a 7c 3f e5 72 79 3f b7 0f 84 3f
       0.98516566 0.9862442 0.9744094 1.0317296
000260 2a 02 80 3f 16 22 7c 3f 70 54 80 3f 21 7c 7d 3f
       1.000066 0.9848951 1.0025768 0.9901753
000270 6a 90 81 3f 5f 26 7a 3f cf f3 7d 3f cf 8a 81 3f
       1.0122197 0.977148 0.9920015 1.0120486
000280 58 7e 85 3f 0c f2 83 3f 66 4b 84 3f 59 bc 83 3f
       1.0429182 1.0308242 1.033551 1.0291854
000290 2c df 7f 3f 94 2a 78 3f d9 6c 84 3f 9b 64 80 3f
       0.9994991 0.9693997 1.0345718 1.0030702
0002a0 30 14 83 3f b8 36 80 3f 50 0d 86 3f 51 7b 79 3f
       1.0240536 1.0016699 1.0472813 0.9745379
0002b0 ec f4 80 3f c9 d5 75 3f 8a 98 7d 3f 7f c0 80 3f
       1.0074744 0.96029335 0.9906088 1.0058745
0002c0 29 cd 7d 3f 6c f9 87 3f da 47 83 3f e2 ec 80 3f
       0.99141175 1.0622993 1.0256302 1.0072291
0002d0 88 46 84 3f d1 0c 85 3f 26 5d 81 3f 8a 42 84 3f
       1.0334024 1.0394536 1.0106552 1.0332806
0002e0 f8 b6 83 3f 1d ee 7d 3f 01 87 81 3f 48 eb 85 3f
       1.0290213 0.9919146 1.0119325 1.0462427
0002f0 37 2f 83 3f 38 ed 7b 3f d2 59 7c 3f db ae 75 3f
       1.0248784 0.9840884 0.98574555 0.95969933
000300 d6 8e 85 3f 85 06 7d 3f 56 a2 78 3f f2 12 7a 3f
       1.0434215 0.98838073 0.97122705 0.9768516
000310 79 ff 7c 3f 92 63 78 3f 6b 3a 80 3f 26 87 7d 3f
       0.9882732 0.9702693 1.0017828 0.99034345
000320 45 25 81 3f 84 b7 80 3f e1 b4 7e 3f e8 55 79 3f
       1.0089499 1.0056005 0.9949475 0.9739671
000330 86 04 83 3f dd 56 7f 3f c2 27 7c 3f c2 ac 82 3f
       1.0235755 0.9974192 0.98498166 1.0208972
000340 5b 14 7f 3f 93 f3 80 3f f7 4e 7e 3f 35 3d 7e 3f
       0.99640435 1.0074333 0.9933924 0.99312145
000350 6f e7 7a 3f 76 00 81 3f a1 c5 7e 3f 01 75 7c 3f
       0.9800939 1.0078266 0.9952031 0.98616034
000360 7f e5 80 3f 92 38 86 3f 11 63 86 3f f8 4d 7f 3f
       1.0070037 1.0486014 1.0498983 0.99728346
000370 a1 27 7c 3f 8b 09 7f 3f af cf 8b 3f 08 d9 82 3f
       0.9849797 0.99623936 1.0922755 1.0222483
000380 dd ce 79 3f 4d a9 87 3f 93 cd 83 3f a5 9f 81 3f
       0.97581273 1.0598541 1.0297111 1.0126845
000390 99 7c 86 3f a2 fb 87 3f 54 9c 81 3f d9 e8 7c 3f
       1.0506774 1.0623667 1.0125833 0.987928
0003a0 9e 31 89 3f 32 7d 85 3f b0 7e 80 3f d2 d9 82 3f
       1.0718267 1.0428832 1.0038662 1.0222723
0003b0 32 16 83 3f c4 50 87 3f 1a fa 80 3f b3 e5 82 3f
       1.0241148 1.0571523 1.0076325 1.0226349
0003c0 0e 3d 81 3f 77 ab 7a 3f 6e 88 7e 3f 2d 85 7c 3f
       1.0096757 0.97917885 0.99426925 0.9864071
0003d0 b9 60 7f 3f 58 df 7f 3f 23 9d 88 3f 51 4b 80 3f
       0.9975696 0.9995017 1.0672954 1.0022985
0003e0 c5 3d 85 3f b0 fb 7c 3f 19 ea 7a 3f 3d 88 80 3f
       1.0409476 0.98821545 0.98013455 1.0041577
0003f0 3f a2 80 3f 95 c3 7b 3f 2a 27 82 3f 26 32 83 3f
       1.0049514 0.9834531 1.0168202 1.0249679

encoder.4.bias f4 [256]
000000 d0 17 e1 bc a8 2f c0 bc 22 6c 76 bc a4 41 bb bc
       -0.027477175 -0.023460224 -0.015040429 -0.022858448
000010 66 fd d3 bc 70 fa 91 bc ae a6 05 bd 75 df 68 bc
       -0.025877666 -0.017819613 -0.03262966 -0.014213433
000020 35 ab 79 bc 7d 15 87 bc c4 de 5d bc ea 64 b0 bc
       -0.015238573 -0.016489739 -0.013541881 -0.021532495
000030 6c 09 91 bc 1e da 0d bc 13 e3 c2 bc b1 72 fc bc
       -0.017704688 -0.00865796 -0.023789918 -0.030816408
000040 a0 d6 d9 ba 70 0d 80 bc 95 0d 81 bc b4 f9 59 bc
       -0.0016619749 -0.015631407 -0.015753547 -0.013304163
000050 ed 16 94 bc 45 25 86 bc ec 7f a7 bc 70 3f a6 bc
       -0.018077338 -0.016375193 -0.02044674 -0.020293921
000060 12 c7 7d bc 32 0f 9f bc 91 bd c7 bc 32 44 fc bb
       -0.015489357 -0.019416425 -0.024382384 -0.007698559
000070 a1 e7 fc bb c1 33 9e bc d6 4a 7e bc eb 4b 7b bc
       -0.007718042 -0.019311788 -0.015520772 -0.0153379245
000080 1b 47 d9 bc 7d dd 04 bd 52 2f af bc db f6 9a bc
       -0.026523164 -0.03243779 -0.021384869 -0.018916538
000090 86 6c 8a bc cc 2d 90 bc bb 07 7b bc 2f 05 eb bc
       -0.016897451 -0.017599963 -0.015321667 -0.028688995
0000a0 23 67 b4 bc 83 26 58 bc 83 16 83 bc 8a 07 80 bc
       -0.022021836 -0.013192776 -0.016001945 -0.015628595
0000b0 cc 69 d3 bc f7 02 ae bc db 04 4a bc e2 3d d6 bc
       -0.025807284 -0.021241648 -0.012330259 -0.026152555
0000c0 3a 73 0b bb ae 47 88 bc 85 fa 1c bd 9a 0e aa bc
       -0.0021278397 -0.016635742 -0.03832485 -0.020758916
0000d0 dc a7 a0 bc 31 09 23 bd 5a dc 65 bc 76 1c 02 bd
       -0.019611292 -0.039803687 -0.014029587 -0.031765424
0000e0 3b 0f 88 bc 87 69 e9 bc bf de 56 bc cf 1a c0 bc
       -0.016608825 -0.028492702 -0.01311463 -0.023450283
0000f0 19 30 b2 bc f2 e8 52 bc 84 e0 f1 bc 12 69 ab bc
       -0.02175145 -0.012872921 -0.029526003 -0.020924125
000100 2b 72 21 bc 1e f9 e0 bc 82 57 e2 bc ea 3f ca bc
       -0.00985388 -0.027462538 -0.027629618 -0.02468868
000110 91 e3 a2 bc ec 59 17 bd b3 61 15 bc 3f 2b b1 bc
       -0.019883903 -0.03695099 -0.009117532 -0.021627067
000120 ee 6a 02 bc 62 b7 82 bc cf 46 9d bc a8 05 c6 bc
       -0.007960064 -0.015956584 -0.019198803 -0.024172619
000130 78 09 a2 bc 19 69 9a bc ee 96 b3 bc 09 70 b7 bc
       -0.019779906 -0.018848943 -0.021922555 -0.02239229
000140 a3 88 aa bc e7 c9 9d bc d8 00 48 bc 1b f0 ab bc
       -0.020817107 -0.019261314 -0.012207232 -0.020988515
000150 44 22 1f bc 36 0c 76 bc bb 0e 9c bc 77 6e 13 bd
       -0.009712759 -0.01501756 -0.019049993 -0.03599402
000160 cd 87 4b bc 5f 11 a2 bc 42 fd 91 bc 44 fe de bc
       -0.012422514 -0.019783674 -0.017820958 -0.027220853
000170 13 3d b6 bc 56 ff e3 bc 63 53 81 bc ea 7f 47 bd
       -0.02224592 -0.027831715 -0.015786832 -0.048705973
000180 74 5e b1 bc f6 6b 13 bd 6f be da bc e0 21 18 bd
       -0.021651484 -0.03599163 -0.026702134 -0.03714168
000190 b0 7c 85 bc 57 b3 b5 bc 11 42 a9 bb 37 62 e8 bc
       -0.016294807 -0.022180242 -0.0051653464 -0.028367145
0001a0 bc 01 7a bc 7b c2 b4 bc ef 6f 7b bc b6 5c 87 bc
       -0.015259203 -0.022065392 -0.015346511 -0.0165237
0001b0 26 ea ad bc 34 69 8a bc 15 2c 99 bc e3 be 98 bc
       -0.021229815 -0.016895868 -0.018697778 -0.01864571
0001c0 c5 41 b9 bc d2 0c a4 bc 89 3d ce bc 95 cd 55 bc
       -0.02261437 -0.020025644 -0.025175827 -0.013049503
0001d0 f6 c6 ff bc 5e c3 23 bc f4 34 31 bc f0 8a 24 bd
       -0.031222802 -0.00999531 -0.010815848 -0.040171564
0001e0 a1 55 78 bc 55 fb 45 bc 99 23 29 bc 4d a0 a0 bc
       -0.015157134 -0.012083848 -0.010323429 -0.019607687
0001f0 65 39 de bc 5c 34 58 bc 12 9a 55 bc d9 a9 d0 bc
       -0.027126977 -0.013196077 -0.0130372215 -0.025471615
000200 b5 74 30 bd 2e 6f 26 bc 5d 1d a3 bc fe 35 d8 bc
       -0.04308005 -0.010158343 -0.019911462 -0.026392933
000210 bd 97 15 bc 83 e5 02 bd 57 f1 f6 bc 48 76 ed bc
       -0.0091304155 -0.03195716 -0.030144377 -0.028987065
000220 af 07 a1 bc 27 88 3f bc d6 f8 a2 bc 92 8b 9e bc
       -0.019656984 -0.011690176 -0.019894045 -0.019353662
000230 ff 13 6a bc 82 6b c5 bc a6 79 ba bc 33 49 38 bc
       -0.014286994 -0.024099115 -0.022763085 -0.011247921
000240 c8 e1 91 bc f9 fe 55 bc ef 78 e6 bc 86 0d 7a bc
       -0.017807856 -0.0130612785 -0.028133838 -0.015262013
000250 dd 2d b3 bc 68 8a f0 bc 69 5f c2 bc aa d2 2e bc
       -0.021872455 -0.029362872 -0.023727136 -0.010670343
000260 98 15 81 bc 0d 72 a5 bc bc 5e 86 bc 03 9a 93 bc
       -0.015757367 -0.020195985 -0.016402595 -0.018017774
000270 a2 fd 9c bc 32 58 da bc b8 13 b6 bc be 37 52 bc
       -0.01916391 -0.026653383 -0.0222262 -0.012830673
000280 8b 38 72 bc c5 ce 72 bc e6 4d 41 bc 68 41 0c bc
       -0.014783989 -0.0148198055 -0.011798358 -0.008560516
000290 22 51 97 bc c4 2b 19 bd 1f d0 5c bc d9 8b 75 bc
       -0.018471304 -0.037395254 -0.013477354 -0.014986956
0002a0 e7 ec 5f bc 89 5d de bc 42 0a d8 bc 7e d5 a8 bc
       -0.013667322 -0.02714421 -0.026372079 -0.020609614
0002b0 7e 61 b3 bc f6 b9 3f bd 5c e4 9f bc 68 0e b0 bc
       -0.021897074 -0.046808206 -0.01951807 -0.021491244
0002c0 b9 ce d5 bc cb bd 0f bc aa ef 36 bc 74 10 9c bc
       -0.02609955 -0.0087732775 -0.011165539 -0.019050814
0002d0 cb be 5b bb 62 f4 21 bc dd 0c bf bc 90 e6 46 bc
       -0.003353047 -0.009884926 -0.023321563 -0.012139931
0002e0 9a e4 a7 bb 47 50 8c bc 6f 2c 9f bc 94 b8 e0 bb
       -0.005123687 -0.017128123 -0.019430367 -0.006857941
0002f0 e8 0f 95 bc 22 a8 dc bc d9 a6 f7 bc 2b 43 1c bd
       -0.018196061 -0.02693564 -0.030230926 -0.038149994
000300 ea 61 30 bc 90 c3 b8 bc d3 e1 07 bd 71 fa ca bc
       -0.010765532 -0.022554189 -0.033174347 -0.024777623
000310 e7 14 a3 bc e3 e4 33 bd 17 6a c4 bc e4 05 c3 bc
       -0.019907428 -0.043919455 -0.023976369 -0.02380652
000320 b3 db a2 bc 75 b1 f4 bb d7 25 9b bc a6 33 ee bc
       -0.019880151 -0.0074674436 -0.018938942 -0.029077362
000330 b5 28 63 bc 0f 18 1c bd 19 59 b2 bc 09 5a 49 bc
       -0.013864686 -0.03810888 -0.021771 -0.012289532
000340 22 bb 35 bc 60 2b 04 bd f6 e3 83 bc 6e c2 bf bc
       -0.011091979 -0.032267928 -0.016099911 -0.023408141
000350 2d 5a c9 bc 11 4d d4 bc 51 57 a5 bc 0d c3 fd bc
       -0.024579132 -0.025915654 -0.020183237 -0.030976797
000360 aa e9 dc bc bb 03 60 bc 09 42 61 bc 10 89 08 bd
       -0.026966888 -0.013672764 -0.013748654 -0.033333838
000370 c6 e7 ae bc ef 68 93 bc 5d e4 a1 bc cf 66 2a bc
       -0.021350753 -0.017994372 -0.019762212 -0.010400488
000380 32 17 b4 bc 72 e7 bb bc 28 f9 5b bc b7 6e 30 bc
       -0.021983717 -0.02293751 -0.013426103 -0.010768584
000390 ed 14 09 bc 1b ae e2 bb ea 16 ad bc c4 8b ac bc
       -0.0083668055 -0.0069177276 -0.02112909 -0.02106274
0003a0 8f 3d 5f bc d4 07 0d bc 78 57 98 bc b7 2e ac bc
       -0.013625517 -0.008607823 -0.018596396 -0.02101837
0003b0 28 14 85 bc 06 73 be bb 6b fe 65 bc d6 3a 9c bc
       -0.016244963 -0.0058120517 -0.014037709 -0.019071024
0003c0 f3 e9 7b bc de 5a a5 bc 95 8d 82 bc c6 5e bd bc
       -0.015375602 -0.02018493 -0.015936652 -0.02311648
0003d0 a4 98 3c bc ce 15 31 bc dd 34 a0 bc 3a bf e8 bc
       -0.011511002 -0.010808421 -0.019556457 -0.028411496
0003e0 44 4b 38 bc c7 6f c1 bc f0 6c dd bc 01 eb b4 bc
       -0.0112484135 -0.02361287 -0.027029485 -0.022084715
0003f0 39 dc 9d bc 8e 75 be bc 7f 2e 0c bc ed c5 b3 bc
       -0.01927005 -0.023249414 -0.008556007 -0.021944964
