modelparameter/autoencoder_lognormal12_6.pth (torch, 832357 bytes, 36 tensors)

encoder.0.weight f4 [128, 76]
0.07388575 0.09870071 0.027264578 0.13918795 0.09438766 -0.12961742 -0.24246486 -0.060271148
0.13411005 -0.19262114 -0.028692394 0.122317284 -0.2250387 0.067495115 -0.06356949 0.13676557
0.23216912 0.058516394 -0.061307374 0.076448254 0.18214825 0.31771266 -0.19864844 -0.34628597
0.091966406 -0.29451802 0.12538601 0.13137671 -0.26703283 -0.23904683 -0.105447374 0.20603266
-0.2587111 -0.30649152 -0.10376431 0.2674195 -0.21805575 -0.15487893 -0.13866512 -0.24316381
0.19524325 -0.20678377 0.046492983 -0.043742444 0.18993507 0.27312195 -0.0211315 0.052047946
0.0090965405 0.13443801 0.26140946 -0.24874757 -0.22927406 0.11376407 0.10336574 -0.23230498
-0.038084537 -0.10554247 0.49236822 0.03765476 -0.24038671 -0.17923723 -0.04635968 0.43030757
0.037025113 -0.1413292 0.05619063 -0.08121634 -0.01821847 -0.0044463035 0.059152924 -0.018883776
-0.02148515 -0.04064076 0.012676092 0.01836873 0.07751987 0.20068416 -0.28034326 -0.22382504
0.21849424 -0.1524072 -0.04303542 0.13430627 0.18205689 -0.21123296 0.08960183 0.06963764
-0.0069703395 -0.13512792 -0.21888776 -0.060963858 -0.1412765 -0.19778459 0.064620346 -0.19270065
0.18165237 -0.13741 -0.07201202 0.15034375 0.055270024 0.0703746 -0.28159907 -0.029101964
0.07223384 -0.14142397 0.032812893 0.06555545 -0.030702109 0.099480614 0.17569149 -0.066194944
0.048594862 -0.11051688 -0.12952107 -0.23017022 0.33603314 0.19344121 0.11032049 0.063206255
-0.22885288 -0.029488578 -0.107187934 0.2203825 -0.107668705 0.0057347436 -0.15289538 -0.053225614
0.12784679 -0.19135179 0.026720472 0.33020422 0.213778 0.036330886 -0.0016697715 -0.15096414
0.2319529 -0.011523429 -0.25630304 -0.21550073 0.054449502 0.031842962 0.007165556 -0.07277587
-0.0018182497 0.03590303 -0.044694513 -0.08522732 0.008856181 -0.08061165 0.04706625 0.09115332
-0.1663047 0.095203444 0.055029575 0.15502548 0.120114446 0.019453427 0.09267756 -0.008535259
0.102570616 0.0067171175 -0.0024429858 -0.15080447 0.28303057 -0.31347087 -0.2505827 -0.11747344
0.03183664 -0.15323542 0.0039481265 -0.09188942 -0.24053411 0.078568034 0.17456748 0.059849598
0.19080265 -0.00644429 -0.06033617 0.078918636 -0.0879994 -0.19218934 0.016099444 0.116638824
0.04372708 -0.04725052 -0.045858294 -0.024148872 0.12186379 -0.24394631 0.30140606 0.2356186
0.10223184 0.2780056 -0.06846309 -0.1748587 -0.22542048 -0.2938821 -0.24917874 -0.13506566
-0.07434036 0.023663485 0.031388022 -0.028458007 0.25448722 -0.21506572 0.27649212 0.4099152
0.1818011 -0.17162594 -0.12631877 0.052716255 0.10682594 -0.18973549 0.013513561 -0.016210439
-0.015304741 -0.11040182 0.038031403 -0.08872782 0.016764967 -0.028622821 0.088125445 -0.023328189
-0.020473115 0.009840813 -0.0020538673 0.002676716 0.09603111 0.12932536 -0.1503259 0.1254517
0.15549651 -0.17556322 0.10463645 0.023672672 -0.089354135 0.20118855 -0.09945145 0.20038053
-0.30960757 0.047268093 -0.20699525 0.16031888 0.016167892 0.0061977576 -0.33840138 -0.32874545
0.277702 -0.13310234 -0.13903013 0.19844629 0.020474015 -0.033719048 0.0717076 0.08977714
00000000: 6951 973d 9923 ca3d f759 df3c 4987 0e3e
00000010: 514e c13d 6eba 04be b548 78be e1de 76bd
00000020: 2554 093e 7a3e 45be 500c ebbc 7c81 fa3d
00000030: 8c70 66be e13a 8a3d b930 82bd 460c 0c3e
00000040: bebd 6d3e e3ae 6f3d 711d 7bbd e790 9c3d
00000050: 1285 3a3e 3cab a23e 7f6a 4bbe 654c b1be
00000060: e258 bc3d 11cb 96be 3165 003e 9e87 063e
00000070: 87b8 88be b1c8 74be cbf4 d7bd 3afa 523e
00000080: c875 84be 75ec 9cbe 6282 d4bd 35eb 883e
00000090: 024a 5fbe 9598 1ebe 3bfe 0dbe efff 78be
000000a0: d9ed 473e 20bf 53be 6d6f 3e3d 472b 33bd
000000b0: 577e 423e a4d6 8b3e f81b adbc 3a30 553d
000000c0: a809 153c 1eaa 093e 76d7 853e afb7 7ebe
000000d0: d2c6 6abe 23fd e83d 6bb1 d33d 5be1 6dbe
000000e0: 88fe 1bbd a726 d8bd b017 fc3e e13b 1a3d
000000f0: ef27 76be f789 37be a6e3 3dbd 4651 dc3e
00000100: a5a7 173d 9ab8 10be 2528 663d c154 a6bd
00000110: e73e 95bc 4cb2 91bb 564a 723d 26b2 9abc
00000120: a001 b0bc ed76 26bd 62af 4f3c 057a 963c
00000130: bdc2 9e3d 2680 4d3e 2789 8fbe 6432 65be
00000140: f4bc 5f3e a210 1cbe e945 30bd 9587 093e
00000150: 1f6d 3a3e 744d 58be 2a81 b73d 2e9e 8e3d
00000160: 7267 e4bb f95e 0abe 1d24 60be 3db5 79bd
00000170: c9aa 10be 0b88 4abe ac57 843d 5253 45be
00000180: 1403 3a3e 35b5 0cbe 0a7b 93bd b6f3 193e
00000190: d262 623d 8f20 903d c12d 90be 3e67 eebc
000001a0: 56ef 933d 72d1 10be d066 063d f041 863d
000001b0: fd82 fbbc 7ebc cb3d 78e8 333e 3791 87bd
000001c0: 680b 473d ad56 e2bd 2ca1 04be beb1 6bbe
000001d0: 890c ac3e 7415 463e b6ef e13d 4872 813d
000001e0: 6958 6abe 0892 f1bc 5985 dbbd f3ab 613e
000001f0: 6981 dcbd 84ea bb3b 9b90 1cbe 1a03 5abd
00000200: 45ea 023e b9f1 43be e4e4 da3c 8710 a93e
00000210: 9fe8 5a3e b2cf 143d 3cdc daba 5896 1abe
00000220: 1085 6d3e c4cc 3cbc 273a 83be 39ac 5cbe
00000230: 7106 5f3d c46d 023d 0acd ea3b 840b 95bd
00000240: 5652 eeba 0e0f 133d 9811 37bd a98b aebd
00000250: 8419 113c b917 a5bd 8ac8 403d 98ae ba3d
00000260: c74b 2abe 06fa c23d b166 613d 00bf 1e3e
00000270: 90fe f53d cb5c 9f3c bccd bd3d 79d7 0bbc
00000280: 8b10 d23d 441b dc3b 801a 20bb 7d6c 1abe
00000290: 62e9 903e 417f a0be 604c 80be ea95 f0bd
000002a0: 2367 023d bfe9 1cbe 495f 813b 8530 bcbd
000002b0: 934e 76be 47e8 a03d d1c1 323e da24 753d
000002c0: c561 433e 9f2a d3bb 0f23 77bd 18a0 a13d
000002d0: 0839 b4bd 48cd 44be fbe2 833c 56e0 ee3d
000002e0: 2b1b 333d c389 41bd e8d5 3bbd dbd3 c5bc
000002f0: b993 f93d 10cd 79be e551 9a3e 0146 713e
00000300: ed5e d13d c056 8e3e 6036 8cbd 290e 33be
00000310: a0d4 66be b777 96be b628 7fbe a74e 0abe
00000320: c23f 98bd edd9 c13c ba90 003d c420 e9bc
00000330: 264c 823e 303a 5cbe 6090 8d3e 68e0 d13e
00000340: 112a 3a3e b6be 2fbe b559 01be 00ed 573d
00000350: 8fc7 da3d 054a 42be fc67 5d3c c1cb 84bc
00000360: bdc0 7abc 591a e2bd d1c6 1b3d eeb6 b5bd
00000370: af56 893c 687a eabc 1d7b b43d c21a bfbc
00000380: 3cb7 a7bc 5d3b 213c 2d9a 06bb d86b 2f3b
00000390: f5ab c43d de6d 043e 08ef 19be 6976 003e
000003a0: 7a3a 1f3e d8c6 33be a34b d63d 31ed c13c
000003b0: 4dff b6bd 5f04 4e3e 34ad cbbd 8e30 4d3e
000003c0: e284 9ebe 309c 413d 90f6 53be a22a 243e
000003d0: 8772 843c 8f16 cb3b f242 adbe 5351 a8be
000003e0: f52e 8e3e fb4b 08be ea5d 0ebe 8135 4b3e
000003f0: 1fb9 a73c fc1c 0abd 6fdb 923d 14dd b73d

encoder.0.bias f4 [128]
-0.0023810025 -0.006590385 -0.0022225995 0.0064874194 -0.001094817 0.012916374 -0.01593389 0.007322849
-0.011737488 0.011605741 0.0032717583 -0.0013724642 -0.0052610603 -0.0019381657 -0.0065867663 0.004081291
0.01426928 -0.014135222 -0.004737822 0.00059136393 -0.007203135 0.0022964452 0.0057354523 -0.0022607604
0.012785882 -0.006087912 0.0050047967 0.007241916 -0.0042735953 0.009651304 -0.0033386494 -0.002407256
0.0075101275 -0.0048801587 -0.003975142 -0.004131608 -0.001689801 -0.0019506422 -0.00083751563 0.007960169
-0.0007145413 0.011246759 -0.0020790242 0.008273759 0.006545662 0.0059655895 -0.0053721853 -0.0040389
0.0022710566 0.0027233015 0.0070922826 -0.012818563 0.0037142094 -0.003908524 0.016805599 0.008881662
-0.0050073313 0.0032309548 0.010549235 -0.005126571 -0.00018783796 -0.002849761 -0.009118384 -0.0006387768
0.0015040291 0.0042410293 -0.0046473383 -0.003175532 0.0148551585 -0.011074322 0.008457865 0.00803417
-0.0021162739 -0.008822203 -0.0021922844 0.0030189634 -0.0051696305 0.011881141 0.004228808 0.0043975823
-0.0085373195 -0.009010145 -0.0018415835 0.0019460918 -0.0069600837 0.011355896 0.004795377 -0.0026314128
-0.01586803 0.0021267906 -0.011695133 -0.004270572 -0.017357564 0.0062934356 0.011079428 0.008328755
0.0017180414 0.0036263857 -0.004577647 0.010120369 0.0017483216 -0.007866064 0.0030841902 0.002280984
0.0105503425 -0.0009140756 -0.009678392 -0.0044505564 0.0037331423 0.004602341 0.006251741 0.000820063
0.00053694955 -0.009316822 0.0067962683 0.0019068276 -0.012729185 -0.004505085 -0.0029502162 -0.008779832
-0.0010315995 -0.007728194 -0.002516563 0.00021307153 -0.015321822 -0.0031121809 0.0035341054 -0.01805749
00000000: 980a 1cbb 28f4 d7bb 08a9 11bb 6b94 d43b
00000010: f67f 8fba 339f 533c ca87 82bc 82f4 ef3b
00000020: 984e 40bc 0226 3e3c ff6a 563b 42e4 b3ba
00000030: f964 acbb 0d0a feba cdd5 d7bb 5abc 853b
00000040: b3c9 693c 6b97 67bc bb3f 9bbb c305 1b3a
00000050: 4708 ecbb f57f 163b 76f0 bb3b 4429 14bb
00000060: e07b 513c 1b7d c7bb 47ff a33b 984d ed3b
00000070: 8409 8cbb 8120 1e3c 3ecd 5abb 0ec3 1dbb
00000080: 8417 f63b bde9 9fbb e841 82bb 7162 87bb
00000090: 507c ddba b1ac ffba b98c 5bba 5e6b 023c
000000a0: 0e50 3bba 5444 383c 3d40 08bb a98e 073c
000000b0: fe7c d63b fe7a c33b 2809 b0bb c058 84bb
000000c0: 02d6 143b 6b79 323b 6166 e83b f304 52bc
000000d0: 186a 733b 1313 80bb e5ab 893c 6484 113c
000000e0: 8a14 a4bb 6dbe 533b b3d6 2c3c cbfc a7bb
000000f0: 5ef6 44b9 0ec3 3abb 4665 15bc 9673 27ba
00000100: d822 c53a 55f8 8a3b b348 98bb 961c 50bb
00000110: 0d63 733c 1371 35bc db92 0a3c c0a1 033c
00000120: 2fb1 0abb 008b 10bc 6eac 0fbb cdd9 453b
00000130: 0166 a9bb 1ea9 423c d091 8a3b 9819 903b
00000140: 1de0 0bbc 4a9f 13bc 4a61 f1ba 0114 ff3a
00000150: 6a11 e4bb 140e 3a3c 8a22 9d3b c873 2cbb
00000160: acfd 81bc a061 0b3b f19c 3fbc 28f0 8bbb
00000170: 7331 8ebc 2a39 ce3b 7d86 353c 5575 083c
00000180: e72f e13a a8a8 6d3b 1600 96bb e7cf 253c
00000190: f027 e53a aae0 00bc 2020 4a3b 907c 153b
000001a0: 58db 2c3c 939e 6fba 1e92 1ebc f9d5 91bb
000001b0: bca7 743b 3ccf 963b 68db cc3b 7ff9 563a
000001c0: 13c2 0c3a 95a5 18bc 3bb3 de3b 84ee f93a
000001d0: 128e 50bc 649f 93bb 6a58 41bb 49d9 0fbc
000001e0: bc36 87ba ca3c fdbb ecec 24bb f46b 5f39
000001f0: 6108 7bbc bbf5 4bbb 739c 673b 4ded 93bc

encoder.1.weight f4 [128]
1.0054243 0.9881871 1.0121708 1.0115066 1.0231586 1.0452125 0.9775472 1.0338875
0.980391 1.01056 1.0281969 0.9924594 0.96775216 1.0186601 0.99793714 0.9768035
1.0305831 1.025089 0.98032284 0.9837533 1.0027225 1.0264208 1.0352793 1.0095934
1.0140353 1.0287943 0.99273086 1.0250425 0.98102707 1.0127977 0.99975437 0.9754429
1.0081487 0.97678137 0.984946 1.0106114 0.9895693 1.0024794 1.0063828 0.99964815
0.9785921 0.98476213 0.9820231 1.0109838 1.0433657 1.01334 0.9790056 1.0342838
0.98389107 1.0092856 1.0176249 1.0037142 1.0209417 1.0407209 1.0206208 0.9988403
0.97851497 0.9991881 1.0520138 0.9823275 0.96260697 0.9813576 0.96821654 0.98108244
1.0175563 1.0038531 0.97868174 0.9898609 1.0175908 0.9893576 0.99571395 1.0145844
1.0063738 0.9868865 1.0303681 0.9980328 0.9890062 0.996667 1.0149363 1.0044701
0.9998284 0.99829614 0.9878116 0.99839324 1.0062585 1.0432138 1.0165919 0.9971762
0.9801945 0.9920598 0.9973956 0.98764706 0.98302156 1.0166377 1.0187198 1.0096686
1.0116755 1.0113943 1.0338165 1.0294939 1.0130537 0.97678226 1.0348872 0.9992858
1.0286245 1.0052829 0.9997362 1.0055889 1.0223309 1.0006716 0.9957827 0.9896881
0.9820986 1.0065929 1.0530189 1.0026122 0.9808137 0.9838948 0.99499184 1.0265093
0.98900014 0.99897796 0.9882325 0.982084 0.98109925 1.0175384 0.9973798 0.9816481
00000000: beb1 803f d4f9 7c3f d08e 813f 0c79 813f
00000010: dcf6 823f 86c9 853f 8940 7a3f 6d56 843f
00000020: e8fa 7a3f 085a 813f f59b 833f d211 7e3f
00000030: 9bbe 773f 7463 823f cf78 7f3f cb0f 7a3f
00000040: 26ea 833f 1e36 833f 70f6 7a3f 42d7 7b3f
00000050: 3659 803f c261 833f 0884 843f 5b3a 813f
00000060: e9cb 813f 88af 833f 9c23 7e3f 9834 833f
00000070: 9724 7b3f 5ba3 813f e7ef 7f3f a0b6 793f
00000080: 040b 813f 580e 7a3f 6c25 7c3f b75b 813f
00000090: 6a54 7d3f 3f51 803f 27d1 803f f1e8 7f3f
000000a0: 0385 7a3f 5f19 7c3f de65 7b3f eb67 813f
000000b0: 028d 853f 20b5 813f 1ca0 7a3f 6963 843f
000000c0: 49e0 7b3f 4530 813f 8841 823f b579 803f
000000d0: 38ae 823f 5836 853f b4a3 823f ffb3 7f3f
000000e0: f57f 7a3f cbca 7f3f 63a8 863f d179 7b3f
000000f0: 696d 763f 403a 7b3f 0add 773f 3828 7b3f
00000100: 493f 823f 427e 803f e38a 7a3f 8667 7d3f
00000110: 6a40 823f 8a46 7d3f 1ce7 7e3f e7dd 813f
00000120: dbd0 803f 98a4 7c3f 1ae3 833f 147f 7f3f
00000130: 832f 7d3f 9225 7f3f 6fe9 813f 7a92 803f
00000140: c1f4 7f3f 5690 7f3f 39e1 7c3f b396 7f3f
00000150: 14cd 803f 0888 853f af1f 823f f046 7f3f
00000160: 07ee 7a3f a2f7 7d3f 5155 7f3f 70d6 7c3f
00000170: 4da7 7b3f 2f21 823f 6965 823f d23c 813f
00000180: 957e 813f 5e75 813f 1954 843f 75c6 833f
00000190: beab 813f 670e 7a3f 2f77 843f 32d1 7f3f
000001a0: f8a9 833f 1cad 803f b6ee 7f3f 23b7 803f
000001b0: bddb 823f 0216 803f 9deb 7e3f 335c 7d3f
000001c0: d06a 7b3f 09d8 803f 53c9 863f 9955 803f
000001d0: 9b16 7b3f 88e0 7b3f c9b7 7e3f a864 833f
000001e0: 1d2f 7d3f 05bd 7f3f cefc 7c3f db69 7b3f
000001f0: 5229 7b3f b33e 823f 4854 7f3f 4a4d 7b3f

encoder.1.bias f4 [128]
-0.02387344 -0.02140965 -0.015833342 -0.019596757 -0.021528 -0.0035979806 -0.027715249 -0.008553354
-0.028452046 -0.0036938053 -0.0053718267 -0.01825124 -0.029564647 -0.008248207 -0.023604402 -0.037113346
-8.961455e-06 -0.02868093 -0.023103334 -0.019858193 -0.023972502 -0.01668886 -0.009970618 -0.014782172
-0.016590916 -0.033003245 -0.015158814 -0.024655592 -0.027687069 -0.021419095 -0.013752124 -0.03373285
-0.008679557 -0.035234403 -0.03265311 -0.022383647 -0.026267866 -0.017376984 -0.02433022 -0.020777613
-0.01991708 -0.025793301 -0.022157108 -0.023651581 -0.012858763 -0.016864076 -0.022507133 -0.009843331
-0.030889664 -0.020030504 -0.015578527 -0.024744939 -0.016919794 -0.018372815 -0.008798998 -0.021618254
-0.02299779 -0.017884595 -0.008574591 -0.028322242 -0.033791624 -0.020665437 -0.030832581 -0.021175522
-0.02004602 -0.016921751 -0.031230494 -0.019043246 -0.008298788 -0.024079058 -0.015575671 -0.012828205
-0.024645569 -0.027082155 -0.010002709 -0.022488015 -0.02050198 -0.01672921 -0.0075904983 -0.011381241
-0.027860887 -0.024911296 -0.02374801 -0.021308986 -0.02770861 -0.008775176 -0.009395242 -0.029195832
-0.039678615 -0.027489133 -0.03567237 -0.024008553 -0.031803608 -0.031733166 -0.0034007318 -0.013744062
-0.01752789 -0.0118451845 -0.020001698 -0.0029968924 -0.017618846 -0.027692467 -0.01825232 -0.020149251
-0.005861421 -0.014827056 -0.026293783 -0.034065165 -0.01532625 -0.027069852 -0.030469213 -0.023143196
-0.017023884 -0.028165186 -0.015954414 -0.020593511 -0.028418992 -0.021869292 -0.024986709 -0.01504682
-0.013652989 -0.025995193 -0.028864248 -0.022126814 -0.026049118 -0.026186269 -0.015105874 -0.04111918
00000000: 3c92 c3bc 4a63 afbc edb4 81bc 6189 a0bc
00000010: 7d5b b0bc 19cc 6bbb 170b e3bc 5e23 0cbc
00000020: 4414 e9bc c513 72bb 2606 b0bb a083 95bc
00000030: 8f31 f2bc 7d23 07bc 055e c1bc 2a04 18bd
00000040: 2859 16b7 45f4 eabc 3443 bdbc a6ad a2bc
00000050: fb61 c4bc 13b7 88bc ce5b 23bc ec30 72bc
00000060: ace9 87bc 692e 07bd ad5c 78bc 86fa c9bc
00000070: fecf e2bc 1977 afbc 9750 61bc 752b 0abd
00000080: b334 0ebc f351 10bd 44bf 05bd e95d b7bc
00000090: b52f d7bc 2d5a 8ebc 2b50 c7bc d035 aabc
000000a0: 2529 a3bc 794c d3bc d382 b5bc f6c0 c1bc
000000b0: 90ad 52bc 8826 8abc e160 b8bc ec45 21bc
000000c0: 520c fdbc 0317 a4bc 143d 7fbc e6b5 cabc
000000d0: 619b 8abc 9682 96bc ac29 10bc c418 b1bc
000000e0: dc65 bcbc b782 92bc 717c 0cbc 0c04 e8bc
000000f0: 1669 0abd 904a a9bc 9c94 fcbc 4a78 adbc
00000100: 8d37 a4bc 7c9f 8abc 18d7 ffbc 9500 9cbc
00000110: a4f7 07bc 7241 c5bc 1931 7fbc 642d 52bc
00000120: 81e5 c9bc 65db ddbc 67e2 23bc c938 b8bc
00000130: c5f3 a7bc b20b 89bc b7b9 f8bb 6278 3abc
00000140: 843c e4bc c612 ccbc 308b c2bc 2f90 aebc
00000150: 2bfd e2bc c1c5 0fbc 80ee 19bc 192c efbc
00000160: 0b86 22bd e430 e1bc 311d 12bd 96ad c4bc
00000170: 8044 02bd a3fa 01bd d0de 5ebb c62e 61bc
00000180: a696 8fbc 4e12 42bc 9ada a3bc 8367 44bb
00000190: 6655 90bc 50db e2bc e485 95bc 0b10 a5bc
000001a0: 2a11 c0bb 2eed 72bc 0f66 d7bc ea87 0bbd
000001b0: f41a 7bbc 98c1 ddbc 929a f9bc cd96 bdbc
000001c0: ac75 8bbc adba e6bc d5b2 82bc b9b3 a8bc
000001d0: f2ce e8bc 3b27 b3bc edb0 ccbc f086 76bc
000001e0: c9b0 5fbc dff3 d4bc b774 ecbc 4b43 b5bc
000001f0: f664 d5bc 9684 d6bc a17e 77bc 966c 28bd

encoder.3.weight f4 [256, 128]
-0.10357072 0.037832066 0.14754233 0.08091202 0.014077737 0.035536464 0.09322158 0.1272172
-0.07551957 0.03118574 -0.100974895 -0.07865132 0.023215327 0.09565122 0.13392729 -0.06594893
-0.06579153 0.021857005 -0.082696214 -0.020287164 -0.07180218 0.06778906 -0.052129485 -0.08837156
0.044772062 -0.029142033 0.077541366 -0.017055614 0.08744676 0.06556136 -0.053015105 -0.0998854
0.046329718 -0.0047843517 0.10079459 -0.15875748 0.023293447 -0.12894692 -0.036594592 0.048727233
0.087943934 -0.08110859 -0.07501589 -0.029772762 0.014697312 -0.053213894 -0.056772504 0.013350905
0.14733663 0.04145519 0.03051007 -0.0059915707 0.006781605 0.040489774 0.055705447 0.028052624
-0.07193435 -0.025748108 0.04450103 0.071558036 0.08219521 0.08009611 -0.033230003 0.07742721
-0.15101226 0.08098489 0.091594175 0.10762527 -0.0143603645 0.09587202 -0.04078699 -0.050517492
-0.04117677 -0.04867648 -0.10275898 0.08344401 -0.028710546 -0.07621919 0.032996427 0.02984722
-0.05376555 0.048988026 -0.13730012 0.016331546 0.036686886 -0.034618896 -0.08963744 -0.023429953
-0.09815785 -0.021972412 0.0011836938 0.015827838 0.0879534 -0.107971355 0.1342915 0.12146498
-0.012076136 -0.10135746 -0.13986515 0.05477287 0.08152482 0.07089181 -0.06900829 0.004706796
-0.06640528 -0.0032793612 0.115704514 -0.042848106 0.05329364 0.006742628 -0.03575687 0.0041755373
-0.0017404642 0.077777326 0.009784124 -0.08947358 -0.10943643 -0.112901464 -0.077455685 0.10603342
0.013239592 -0.0239273 0.036885086 -0.009405618 -0.09323896 -0.06751418 0.12865984 0.0009196938
-0.024796832 -0.12941097 0.013541412 0.0060390183 -0.013867355 0.002734572 0.03424107 0.09123272
-0.041537534 -0.07685955 -0.10738511 -0.040933225 0.04150027 -0.057351414 -0.12058712 0.00045885087
-0.12783813 -0.02947697 -0.091349155 0.12153799 0.056664363 -0.005743224 0.14729442 0.09597683
0.051863834 0.08367118 0.012080582 0.061649024 0.046950873 -0.04516982 -0.04370673 -0.048291128
0.04924519 0.019362068 -0.077884465 0.033987943 0.1152702 -0.0026174358 0.044986937 -0.0698955
0.06918729 -0.10377651 -0.08391721 0.03554313 0.051173024 0.09609584 -0.05257378 0.04022052
0.09379194 -0.16383648 -0.10756704 0.05849311 -0.022712193 0.12332432 0.020379752 -0.02142243
0.06168502 -0.009869072 0.06336253 0.07170065 -0.11391412 -0.05253318 0.077173084 -0.090156846
-0.06859588 0.02667278 -0.103194945 -0.064463556 0.07166975 -0.027548434 0.11082635 0.016947834
-0.03483673 -0.006987572 -0.04394009 -0.08972198 -0.053156927 -0.00133182 0.08979406 -0.122707516
0.10107747 0.05682502 0.10130556 0.09303987 0.047545932 -0.04300178 0.09207281 -0.062893815
0.001519696 -0.094293475 -0.09768857 0.0867162 -0.100113064 0.11480551 -0.04719964 -0.07523198
-0.049509857 -0.018102404 -0.014999071 -0.009240777 -0.018561874 -0.09116397 -0.006000783 -0.08214235
0.12124336 0.030237818 0.053680733 0.086182944 0.08350872 0.14264652 0.00027128443 0.041722905
-0.0767319 0.023994673 -0.015738137 0.118693545 0.0055730487 -0.09039274 0.031066611 0.010546793
0.08538636 -0.12404661 0.008979744 -0.10726921 0.035851482 -0.024510045 -0.037333228 -0.091183364
00000000: e31c d4bd ccf5 1a3d 5615 173e 33b5 a53d
00000010: 4fa6 663c af8e 113d f5ea be3d 3a45 023e
00000020: 01aa 9abd 3d79 ff3c edcb cebd f113 a1bd
00000030: 122e be3c c9e4 c33d 3c24 093e 3c10 87bd
00000040: b6bd 86bd 760d b33c a25c a9bd 4431 a6bc
00000050: 050d 93bd fed4 8a3d ba85 55bd 26fc b4bd
00000060: e962 373d 46bb eebc 02ce 9e3d 37b8 8bbc
00000070: 4917 b33d 0945 863d 5e26 59bd b790 ccbd
00000080: 3bc4 3d3d 0dc6 9cbb 656d ce3d 5291 22be
00000090: e6d1 be3c a90a 04be 36e4 15bd 3596 473d
000000a0: f31b b43d 431c a6bd eea1 99bd 02e6 f3bc
000000b0: ffcc 703c d0f6 59bd 498a 68bd c1bd 5a3c
000000c0: 6adf 163e ebcc 293d 41f0 f93c f054 c4bb
000000d0: 3a38 de3b 9bd8 253d 652b 643d 9ece e53c
000000e0: 5152 93bd b2ed d2bc b646 363d 058d 923d
000000f0: f655 a83d 6e09 a43d 2f1c 08bd 2892 9e3d
00000100: f5a2 1abe 68db a53d ba95 bb3d a36a dc3d
00000110: bc47 6bbc 8d58 c43d 4210 27bd 6eeb 4ebd
00000120: f9a8 28bd fd60 47bd 4d73 d2bd b1e4 aa3d
00000130: 6132 ebbc cf18 9cbd 4327 073d 2882 f43c
00000140: 4439 5cbd aba7 483d 6798 0cbe bcc9 853c
00000150: fd44 163d 8bcc 0dbd d693 b7bd 2cf0 bfbc
00000160: fc06 c9bd 7dff b3bc 2c26 9b3a 62a9 813c
00000170: ea20 b43d 1620 ddbd b683 093e a2c2 f83d
00000180: fcda 45bc 8094 cfbd cf38 0fbe 8459 603d
00000190: 7cf6 a63d ba2f 913d 3854 8dbd 773b 9a3b
000001a0: 7eff 87bd 8dea 56bb 7df6 ec3d 7f81 2fbd
000001b0: 6f4a 5a3d 43f1 dc3b cc75 12bd f2d2 883b
000001c0: 4a20 e4ba b849 9f3d 974d 203c ed3d b7bd
000001d0: 3520 e0bd e238 e7bd 16a1 9ebd 0d28 d93d
000001e0: e0ea 583c 2f03 c4bc d114 173d 051a 1abc
000001f0: 11f4 bebd e044 8abd 68bf 033e 9b17 713a
00000200: ba22 cbbc 4f84 04be ccdc 5d3c f5e2 c53b
00000210: e733 63bc 8136 333b 5d40 0c3d 38d8 ba3d
00000220: 4323 2abd 8a68 9dbd b9ec dbbd 99a9 27bd
00000230: 30fc 293d 51e9 6abd 61f6 f6bd ec91 f039
00000240: 00e8 02be b079 f1bc 4415 bbbd e9e8 f83d
00000250: e418 683d a831 bcbb 59d4 163e 808f c43d
00000260: 2c6f 543d cc5b ab3d a2ed 453c b083 7c3d
00000270: 8f4f 403d fd03 39bd d405 33bd ebcc 45bd
00000280: 53b5 493d 339d 9e3c e481 9fbd f136 0b3d
00000290: c812 ec3d 4989 2bbb 3944 383d 5f25 8fbd
000002a0: 11b2 8d3d c788 d4bd c9dc abbd ac95 113d
000002b0: ce9a 513d e5cd c43d 9b57 57bd 46be 243d
000002c0: fd15 c03d c0c4 27be 1c4c dcbd 7996 6f3d
000002d0: ec0e babc 7691 fc3d 70f3 a63c 187e afbc
000002e0: 6ea9 7c3d e3b1 21bc 37c4 813d cad7 923d
000002f0: ce4b e9bd 082d 57bd ec0c 9e3d 27a4 b8bd
00000300: ff7b 8cbd e080 da3c df57 d3bd 7805 84bd
00000310: 97c7 923d 41ad e1bc edf8 e23d 2fd6 8a3c
00000320: f6b0 0ebd 01f8 e4bb 86fa 33bd 28c0 b7bd
00000330: 14bb 59bd 7790 aeba f3e5 b73d 144e fbbd
00000340: b401 cf3d 5ac1 683d 4a79 cf3d b08b be3d
00000350: 86bf 423d a222 30bd ab90 bc3d 79ce 80bd
00000360: 8930 c73a f01c c1bd f210 c8bd 4398 b13d
00000370: 1408 cdbd 271f eb3d 6954 41bd 3913 9abd
00000380: d9ca 4abd 7e4b 94bc aabe 75bc a166 17bc
00000390: 120f 98bc 2db4 babd 37a2 c4bb 403a a8bd
000003a0: 704e f83d 4db5 f73c 54e0 5b3d af80 b03d
000003b0: 9f06 ab3d ee11 123e 2e3b 8e39 a3e5 2a3d
000003c0: 9d25 9dbd 7a90 c43c 44ed 80bc 9a15 f33d
000003d0: 1f9e b63b d41f b9bd 687f fe3c 75cc 2c3c
000003e0: 0bdf ae3d 260c febd c71f 133c f6af dbbd
000003f0: 01d9 123d 4ac9 c8bc baea 18bd 58be babd

encoder.3.bias f4 [256]
0.0049631926 0.0051761386 0.008999193 0.00077456 0.0012925506 -0.0027162111 0.0047632167 -0.0052396622
-6.645733e-05 -0.0016232565 0.0012621048 -0.007844626 0.0011632278 -0.004489081 -0.0021801011 0.009107675
-0.0025024626 -0.0006745196 0.0016213082 0.004304918 0.004621456 -0.00057606143 -0.0016338642 -0.0021766976
-0.0024667685 -0.00082917523 -0.00650887 -0.004920964 0.0026940196 0.007179343 -0.0013894147 0.0037012917
0.0118824495 0.0017653579 -0.00019506883 0.0057665543 0.0010666342 0.0072848285 0.004367038 0.0039028786
0.0076291035 -0.0003861769 -0.0029183284 0.0044905916 -0.0015894346 -0.004061581 0.0016536565 0.0038965368
0.0013085473 0.0027537313 -0.0008221746 0.0012836251 -0.002756735 -0.0030529492 0.0039727422 -1.1543849e-05
0.009995097 0.0005440834 -0.0014980123 -0.00048673654 0.00033111175 -0.0031443338 0.005547244 -0.0042766784
-0.0013574265 0.0036203235 -0.0018825779 0.004535725 0.002945854 0.010011464 0.0015549869 -0.0060476107
-0.0078093917 -0.004087781 -0.0037741472 -0.00270677 -0.004533148 -7.3801726e-05 0.0009929349 -0.0016303759
-0.005901956 -0.0051705185 0.00039305928 0.00021564942 -0.0047852504 0.0026599402 0.0020100274 -0.0027339982
-0.0008213119 0.0004492639 -0.00906799 0.0009409411 0.0035612744 0.0026801254 0.0041325204 -0.005354645
0.0008183524 -0.00086310273 -0.0016902875 0.007370901 -0.002070454 0.005018956 0.0023374406 -0.0006604052
0.0057283556 0.0009280964 -0.001512559 -0.0033895136 -0.005696226 0.0004464004 0.00785981 0.0003579393
-0.0017472547 -0.0009363559 0.0020010911 -0.003096041 0.007594449 -0.0037349428 0.005288323 -0.006928745
-0.0020824028 -0.0012484123 -0.00016829235 0.0021745788 0.0010300229 0.011028429 0.002494071 0.0059895846
0.00571687 0.0056831953 0.0012062463 -0.003921272 -0.007904427 -0.00066866376 -0.0053698076 0.0055534206
0.0051331376 -0.0055907434 -0.0048187114 -0.0015486192 -0.0030397675 0.0071363677 -7.003431e-05 -0.0048926454
0.0059954133 -0.0006305856 0.0044806916 0.010496807 -0.0017497999 -0.003467556 0.00734882 0.003497765
0.003346542 -0.0005170288 0.0053006443 0.0018630396 0.0049303896 -0.006630078 -0.0036536395 0.00011867544
0.007238115 0.007076202 -0.0027462 0.00023117977 -0.00250187 0.009962984 -0.0011066508 -0.0052498374
0.0049406416 -0.0067121596 0.0003317049 0.0031194515 0.0020348306 -0.0028647587 -0.0068955403 0.0009765811
0.0018461151 -0.0024790464 0.0073474078 0.001633555 -0.002779861 -0.003339533 0.0058369087 -0.0028883505
0.00035984308 0.00018358526 -0.0014950513 -0.0031623698 0.006111093 0.0031740488 -0.0035392575 0.0035286958
-0.00022863135 0.0051059444 0.0027322199 0.0016112033 -0.0014949617 -0.001417288 -0.00010445008 0.00075935107
0.0020840087 -0.0014687142 0.001257507 0.0018057893 5.39991e-05 -0.00081184314 0.0069295573 0.00015991717
-0.0018565799 -6.743824e-05 0.0047221673 0.0048719402 0.005449064 0.009549239 0.0010446681 0.0035464903
0.009571709 0.0053058434 0.001330157 0.003091629 0.005538462 0.003796842 0.0024198978 -0.0015217295
-0.0024295761 -0.0042005647 0.0017076462 -0.003172232 -0.0071338024 -0.003719536 0.0015190698 0.0036089856
0.010928946 -0.0039624018 -0.0055929455 0.0014411644 -0.0017131717 -0.007916585 -0.00072727527 0.008744297
0.0021936647 0.0034842128 0.006166204 0.0111075835 0.011663014 -0.00039019447 0.00079948874 -0.0017488106
0.003581303 0.008295165 0.00029030466 0.0039865053 -0.00042078272 0.0008053147 -0.00246266 0.005981371
00000000: 47a2 a23b 999c a93b 5a71 133c d70b 4b3a
00000010: cd6a a93a 7602 32bb c214 9c3b 79b1 abbb
00000020: 025f 8bb8 73c3 d4ba 366d a53a bf86 00bc
00000030: 7377 983a 2419 93bb 07e0 0ebb 5c38 153c
00000040: 5b00 24bb 3ed2 30ba 1382 d43a 4510 8d3b
00000050: 956f 973b d402 17ba 6327 d6ba eda6 0ebb
00000060: 82a9 21bb 025d 59ba 5c48 d5bb 0a40 a1bb
00000070: 268e 303b b240 eb3b 051d b6ba 5f91 723b
00000080: 9bae 423c 9563 e73a 648b 4cb9 5df5 bc3b
00000090: 4ece 8b3a 92b5 ee3b 5f19 8f3b 70c7 7f3b
000000a0: 8ffd f93b c977 cab9 6d41 3fbb d025 933b
000000b0: 9354 d0ba 0317 85bb 81bf d83a 0a5d 7f3b
000000c0: 9083 ab3a f277 343b 3487 57ba 503f a83a
000000d0: 57aa 34bb fd13 48bb c72d 823b 74ac 41b7
000000e0: 7ac2 233c d2a0 0e3a f458 c4ba ac30 ffb9
000000f0: 1199 ad39 2b11 4ebb a8c5 b53b 6123 8cbb
00000100: adeb b1ba f342 6d3b d5c0 f6ba 6ba0 943b
00000110: 3b0f 413b 2007 243c b4d0 cb3a 092b c6bb
00000120: ede5 ffbb cbf2 85bb af57 77bb 1164 31bb
00000130: cd8a 94bb 00c6 9ab8 5e25 823a 56b2 d5ba
00000140: 3265 c1bb 746d a9bb 8613 ce39 f31f 6239
00000150: 97cd 9cbb 6452 2e3b aaba 033b e12c 33bb
00000160: 4f4d 57ba 2e8b eb39 e891 14bc 7da9 763a
00000170: 4564 693b 0ba5 2f3b 186a 873b 0576 afbb
00000180: b386 563a d841 62ba a38c ddba 9987 f13b
00000190: 74b0 07bb 0e76 a43b bf2f 193b 0b1f 2dba
000001a0: eeb4 bb3b 7f4b 733a 0f41 c6ba 9a22 5ebb
000001b0: 68a7 babb d90a ea39 6fc6 003c cda9 bb39
000001c0: 2404 e5ba c875 75ba bd24 033b f3e6 4abb
000001d0: dbda f83b f1c5 74bb ab49 ad3b 870a e3bb
000001e0: ec78 08bb c4a1 a3ba a277 30b9 6183 0e3b
000001f0: d501 873a 95b0 343c 9173 233b 4744 c43b
00000200: 9554 bb3b 193a ba3b e91a 9e3a 037e 80bb
00000210: 9281 01bc 4449 2fba 36f5 afbb 78f9 b53b
00000220: e133 a83b 8e32 b7bb 48e6 9dbb 0afb caba
00000230: d636 47bb 31d8 e93b 62df 92b8 7c52 a0bb
00000240: 2c75 c43b e24d 25ba c4d2 923b cdfa 2b3c
00000250: 8b59 e5ba f03f 63bb 5fce f03b c23a 653b
00000260: a851 5b3b 3789 07ba 07b1 ad3b 3c31 f43a
00000270: 1b8f a13b 2041 d9bb e671 6fbb 64e1 f838
00000280: b62d ed3b 7cdf e73b 97f9 33bb d968 7239
00000290: 6af6 23bb c93b 233c 0a0d 91ba d406 acbb
000002a0: 1be5 a13b adf1 dbbb aee8 ad39 b66f 4c3b
000002b0: cb5a 053b adbe 3bbb fcf3 e1bb a000 803a
000002c0: 58f9 f13a 7f77 22bb 86c2 f03b 031d d63a
000002d0: 542e 36bb 11dc 5abb 8a43 bf3b 7b4a 3dbb
000002e0: 52a9 bc39 cb80 4039 99f5 c3ba c33f 4fbb
000002f0: 903f c83b b403 503b e3f2 67bb b141 673b
00000300: c3bc 6fb9 c44f a73b 0b0f 333b 032f d33a
00000310: 97f2 c3ba 4bc4 b9ba 360c dbb8 300f 473a
00000320: dd93 083b df81 c0ba efd2 a43a 3cb0 ec3a
00000330: 187d 6238 dfd1 54ba 5711 e33b 70af 2739
00000340: 7c58 f3ba a16d 8db8 69bc 9a3b cca4 9f3b
00000350: 108e b23b 6974 1c3c 3fed 883a 3c6c 683b
00000360: a8d2 1c3c a4dc ad3b aa58 ae3a ed9c 4a3b
00000370: fd7b b53b 70d4 783b 2697 1e3b c574 c7ba
00000380: 8639 1fbb e4a4 89bb 19d3 df3a 39e5 4fbb
00000390: acc2 e9bb 75c3 73bb 861b c73a bb84 6c3b
000003a0: 520f 333c 09d7 81bb 0745 b7bb 74e5 bc3a
000003b0: 818c e0ba 90b4 01bc 9ea6 3eba 3d44 0f3c
000003c0: 96c3 0f3b 6457 643b de0d ca3b 95fc 353c
000003d0: 3a16 3f3c 0493 ccb9 c894 513a 5938 e5ba
000003e0: 4bb4 6a3b 72e8 073c 0834 9839 3ba1 823b
000003f0: 809c dcb9 c11b 533a 9464 21bb 60ff c33b

encoder.4.weight f4 [256]
1.0702162 1.0231736 1.0731626 0.9830719 1.0106767 0.9950991 0.99392176 1.0122828
0.9957231 0.9848378 1.0165068 0.967453 1.0395416 0.9882635 0.9915215 1.0418893
0.9937543 0.9957132 0.983816 0.9899446 1.0114515 0.99634844 0.98286253 0.9671014
0.9679532 0.99365497 0.96895146 0.99437994 0.9821052 1.0140496 1.004654 0.998817
1.0310693 0.98679394 1.0187498 1.0212704 1.0014629 1.0455612 1.0176668 1.0147866
1.0612329 0.98238784 0.9841601 1.0157442 0.9952166 0.9552569 0.9968789 1.0347211
1.019723 0.9980813 0.9990532 1.0201076 0.99759454 1.0036936 1.0365467 0.97463495
1.1140896 1.0027602 0.9898157 0.9850961 1.0435842 0.9804344 1.0277795 0.9814607
0.9866546 1.0917162 0.97208756 1.0018833 1.0292933 1.0643702 1.022277 0.961273
0.97889686 0.9810603 1.0193172 0.978851 0.9856507 0.98424673 0.97922534 0.98896605
0.97856253 0.9949399 0.9866937 1.0109112 0.9884202 1.0180123 0.9986778 0.97938854
1.0095543 0.9809394 0.97157097 1.0039359 1.0337319 1.0240775 0.9932905 0.98357755
1.001616 0.9905191 1.004706 1.0546182 1.002758 1.0223569 0.99435 0.9864744
1.0411551 1.0225135 0.9821377 0.98228586 0.98885 1.0064292 1.0513948 0.9910791
0.97555053 0.97222996 0.9869325 0.99479514 1.0373342 0.992818 1.0174847 0.9407569
0.98999745 0.9899522 1.0066639 1.0520586 0.9968997 1.0632101 1.0489634 1.1483142
1.006438 1.039632 0.97460425 1.0385433 0.99318534 0.9900388 0.98313373 1.0112687
1.0147085 1.0024745 0.9686838 0.99149656 1.0245605 1.0804269 0.97757626 0.9881387
1.0438566 0.99178714 1.044048 1.0590074 0.969048 1.0019481 1.0376942 1.0277066
1.0040573 0.9801515 1.0349641 1.0149574 1.0037932 0.9779858 0.991915 1.068138
1.0429372 1.0515307 1.0050641 0.9977194 0.97265077 1.066942 1.009614 0.9984599
1.0831448 1.0401049 0.96712995 1.0022573 1.0158956 1.0927563 0.9830509 0.9885534
1.0222255 0.98537016 1.0267918 0.99061185 0.9914503 0.99143434 1.0819358 1.0054213
1.0166489 1.0082142 0.99829173 0.9955932 1.0626185 0.98402166 0.9966031 1.0489938
1.0078541 1.0270132 1.005045 1.0050673 0.9841713 1.0288348 1.0066828 0.9686969
1.0124594 1.0173879 1.0382764 1.030366 1.0085896 1.0141507 1.0383872 1.0002849
0.9898016 1.0296011 1.0262145 1.0067703 1.0418942 1.0508741 1.0121204 1.0257287
1.101371 1.0053066 1.0161058 1.0175439 1.0926098 0.99273545 1.0170026 0.9991593
0.98373276 0.9725361 1.0194827 0.98244727 0.9557871 1.0196173 1.0256449 1.0335584
1.0808035 0.9547657 0.98516566 1.0168495 0.99914116 0.9812498 0.98620236 1.0264729
1.0005332 1.0511925 1.0356457 1.068516 1.0588783 0.98946124 1.0090829 0.9851549
1.0145625 1.038672 1.0050292 1.024216 1.0272313 1.0141257 1.0131667 1.0399528
00000000: d8fc 883f 5af7 823f 645d 893f 9aaa 7b3f
00000010: db5d 813f d1be 7e3f a871 7e3f 7c92 813f
00000020: b6e7 7e3f 541e 7c3f e51c 823f 00ab 773f
00000030: b30f 853f d6fe 7c3f 5ad4 7d3f a15c 853f
00000040: af66 7e3f 0fe7 7e3f 5edb 7b3f 026d 7d3f
00000050: 3e77 813f b110 7f3f e19c 7b3f f593 773f
00000060: c8cb 773f 2c60 7e3f 340d 783f af8f 7e3f
00000070: 3f6b 7b3f 61cc 813f 8198 803f 79b2 7f3f
00000080: 14fa 833f 879e 7c3f 6566 823f fdb8 823f
00000090: f02f 803f f3d4 853f e842 823f 87e4 813f
000000a0: 7bd6 873f c57d 7b3f ebf1 7b3f e803 823f
000000b0: 84c6 7e3f b78b 743f 7533 7f3f be71 843f
000000c0: 4986 823f 4282 7f3f f3c1 7f3f e392 823f
000000d0: 5b62 7f3f 0879 803f 90ad 843f ad81 793f
000000e0: 7d9a 8e3f 725a 803f 9064 7d3f 422f 7c3f
000000f0: 2b94 853f c0fd 7a3f 478e 833f 0241 7b3f
00000100: 6595 7c3f 5bbd 8b3f bbda 783f b63d 803f
00000110: e2bf 833f 483d 883f f9d9 823f fd15 763f
00000120: fc98 7a3f c526 7b3f fc78 823f fb95 7a3f
00000130: 9b53 7c3f 98f7 7b3f 83ae 7a3f e12c 7d3f
00000140: 1383 7a3f 62b4 7e3f f597 7c3f 8a65 813f
00000150: 1b09 7d3f 3a4e 823f 59a9 7f3f 35b9 7a3f
00000160: 1339 813f d81e 7b3f e0b8 783f f980 803f
00000170: 5451 843f f914 833f 4948 7e3f bdcb 7b3f
00000180: f434 803f a992 7d3f 359a 803f bbfd 863f
00000190: 605a 803f 97dc 823f b98d 7e3f 9689 7c3f
000001a0: 9244 853f b9e1 823f 606d 7b3f 1677 7b3f
000001b0: 4625 7d3f acd2 803f 1b94 863f 5cb7 7d3f
000001c0: aebd 793f 10e4 783f 9ca7 7c3f e5aa 7e3f
000001d0: 5ec7 843f 5229 7e3f f03c 823f 72d5 703f
000001e0: 7970 7d3f 826d 7d3f 5dda 803f dba9 863f
000001f0: d234 7f3f 4517 883f 6f44 863f f6fb 923f
00000200: f6d2 803f a912 853f aa7f 793f fdee 843f
00000210: 6541 7e3f 2f73 7d3f a7ae 7b3f 4171 813f
00000220: f8e1 813f 1651 803f a9fb 773f b8d2 7d3f
00000230: cc24 833f 6e4b 8a3f 7042 7a3f a8f6 7c3f
00000240: 189d 853f c3e5 7d3f 5da3 853f 8e8d 873f
00000250: 8813 783f d63f 803f 2ad3 843f e48b 833f
00000260: f384 803f 35eb 7a3f b479 843f 20ea 813f
00000270: 4c7c 803f 475d 7a3f 24ee 7d3f bfb8 883f
00000280: f77e 853f 8f98 863f f1a5 803f 8a6a 7f3f
00000290: a4ff 783f 8e91 883f 083b 813f 119b 7f3f
000002a0: 7da4 8a3f 2822 853f d495 773f f849 803f
000002b0: de08 823f 70df 8b3f 39a9 7b3f d611 7d3f
000002c0: 49d8 823f 3841 7c3f ea6d 833f bd98 7d3f
000002d0: b0cf 7d3f a4ce 7d3f df7c 8a3f a5b1 803f
000002e0: 8d21 823f 2a0d 813f 0c90 7f3f 32df 7e3f
000002f0: e203 883f d8e8 7b3f 6121 7f3f 6e45 863f
00000300: 5d01 813f 2b75 833f 51a5 803f 0ca6 803f
00000310: a6f2 7b3f dcb0 833f fbda 803f 85fc 773f
00000320: 4598 813f c439 823f 3ee6 843f 08e3 833f
00000330: 7719 813f b1cf 813f dfe9 843f 5609 803f
00000340: a363 7d3f f8c9 833f ff5a 833f d9dd 803f
00000350: ca5c 853f 0b83 863f 298d 813f 144b 833f
00000360: baf9 8c3f e3ad 803f c10f 823f e13e 823f
00000370: a3da 8b3f e923 7e3f 242d 823f e7c8 7f3f
00000380: e9d5 7b3f 20f8 783f 697e 823f aa81 7b3f
00000390: 77ae 743f d282 823f 5548 833f a44b 843f
000003a0: c557 8a3f 866b 743f d133 7c3f 2028 823f
000003b0: b7c7 7f3f 3033 7b3f c277 7c3f 7763 833f
000003c0: 7911 803f 7a8d 863f 0a90 843f 22c5 883f
000003d0: 5389 873f 554d 7d3f a129 813f 1d33 7c3f
000003e0: 2fdd 813f 34f3 843f cca4 803f 8319 833f
000003f0: 517c 833f dfce 813f 72af 813f 2c1d 853f

encoder.4.bias f4 [256]
-0.023565466 -0.021259103 -0.034426093 -0.027408382 -0.028034296 -0.031420987 -0.027703397 -0.046909384
-0.021182865 -0.034643207 -0.031157715 -0.03738694 -0.026975734 -0.035022065 -0.034426134 -0.017558793
-0.019987525 -0.024024919 -0.03233666 -0.046051666 -0.018097658 -0.03281543 -0.04152265 -0.03907171
-0.049327347 -0.01806747 -0.054099258 -0.053956047 -0.037449513 -0.019896798 -0.03356852 -0.029752444
-0.026100704 -0.032356977 -0.021888591 -0.022176106 -0.027842807 -0.010889853 -0.047094744 -0.011355032
-0.023072302 -0.045329764 -0.032559253 -0.017591817 -0.023317631 -0.0527416 -0.022647824 -0.03051276
-0.020731762 -0.042188592 -0.033135105 -0.02000542 -0.022985796 -0.018719906 -0.019537471 -0.054510426
-0.027965927 -0.0230562 -0.041054446 -0.040673465 -0.03341674 -0.039746944 -0.01618046 -0.031887602
-0.027325511 -0.04365245 -0.03754737 -0.025083024 -0.034705326 -0.036484096 -0.03366464 -0.037567284
-0.035125878 -0.029933995 -0.030089097 -0.029155139 -0.0393789 -0.022389876 -0.031241266 -0.029043444
-0.039749943 -0.023970852 -0.019996284 -0.023749638 -0.022587992 -0.031861603 -0.036943387 -0.02959411
-0.037222866 -0.026980301 -0.034405258 -0.027514191 -0.036048226 -0.021692883 -0.037523855 -0.03396114
-0.0671975 -0.025311127 -0.05361065 -0.016153468 -0.030386068 -0.041415457 -0.028627802 -0.024596259
-0.022462469 -0.027677553 -0.06078066 -0.040932834 -0.02591799 -0.020494051 -0.022074776 -0.017722853
-0.040993832 -0.04212472 -0.027431278 -0.04185205 -0.011849219 -0.021998366 -0.016551789 -0.06626385
-0.03518266 -0.023848653 -0.021715643 -0.028309893 -0.022775508 -0.039458536 -0.03721331 -0.03418947
-0.02604862 -0.019978767 -0.043283395 -0.037564594 -0.028560055 -0.027407559 -0.026074884 -0.049841534
-0.033724364 -0.031257913 -0.04859823 -0.02557147 -0.044499025 -0.018344082 -0.042797193 -0.05245246
-0.01874581 -0.039787017 -0.020692637 -0.014343307 -0.035409838 -0.024845721 -0.00987356 -0.03778371
-0.031130748 -0.03912578 -0.024995746 -0.045405608 -0.030273542 -0.03717724 -0.027417319 -0.02953662
-0.026135 -0.02119678 -0.044539146 -0.018077835 -0.030978087 -0.013644662 -0.028847003 -0.057034448
-0.034551308 -0.043388817 -0.04221714 -0.024836546 -0.035636146 -0.04767414 -0.029735921 -0.03541242
-0.028845737 -0.038242817 -0.03726189 -0.027334653 -0.029010884 -0.037736528 -0.026785817 -0.03479023
-0.019817296 -0.02817868 -0.022505937 -0.033064187 -0.028544499 -0.03920073 -0.026597213 -0.025675174
-0.037337907 -0.020053418 -0.027118113 -0.019685917 -0.03437076 -0.030519538 -0.03257838 -0.052543372
-0.034381557 -0.031826925 -0.023805795 -0.024516126 -0.024255637 -0.037223812 -0.029576782 -0.027637161
-0.02127334 -0.032491297 -0.02855739 -0.025909048 -0.023606693 -0.0052992953 -0.026907207 -0.028058307
-0.033176854 -0.033179082 -0.029298712 -0.034025725 -0.03240758 -0.030935034 -0.025368476 -0.026991053
-0.04537208 -0.0456357 -0.029729726 -0.032228414 -0.054172806 -0.030907573 -0.040438995 -0.019083899
-0.029112509 -0.06463677 -0.028270165 -0.020472439 -0.044805564 -0.0560183 -0.033211876 -0.02876208
-0.024050405 -0.03322771 -0.020896152 -0.033339445 -0.033977225 -0.025232695 -0.032876894 -0.033282414
-0.029588278 -0.023928134 -0.028904915 -0.03244773 -0.03486201 -0.025862383 -0.035658814 -0.024989726
00000000: 5d0c c1bc 9227 aebc 6002 0dbd 8b87 e0bc
00000010: 2ea8 e5bc 4bb3 00bd 3cf2 e2bc 0e24 40bd
00000020: b087 adbc 09e6 0dbd 773e ffbc 0c23 19bd
00000030: 37fc dcbc 4c73 0fbd 6b02 0dbd 75d7 8fbc
00000040: e1bc a3bc e8cf c4bc 7273 04bd aca0 3cbd
00000050: 8a41 94bc 7969 06bd a713 2abd a809 20bd
00000060: 790b 4abd 3b02 94bc 2f97 5dbd 0401 5dbd
00000070: a964 19bd 9cfe a2bc 257f 09bd 66bb f3bc
00000080: 25d1 d5bc c088 04bd b44f b3bc aaaa b5bc
00000090: 9916 e4bc 5b6b 32bc 6be6 40bd 750a 3abc
000000a0: 2002 bdbc b4ab 39bd da5c 05bd b71c 90bc
000000b0: 9e04 bfbc 9307 58bd ee87 b9bc e5f5 f9bc
000000c0: a8d5 a9bc f2cd 2cbd adb8 07bd 68e2 a3bc
000000d0: b54c bcbc 7d5a 99bc 0c0d a0bc 5346 5fbd
000000e0: cd18 e5bc 5be0 bcbc b528 28bd 3899 26bd
000000f0: fedf 08bd b1cd 22bd e28c 84bc 939c 02bd
00000100: c0d9 dfbc e9cc 32bd 45cb 19bd ea7a cdbc
00000110: 2c27 0ebd 5970 15bd efe3 09bd 27e0 19bd
00000120: 27e0 0fbd 2338 f5bc 697d f6bc c2d6 eebc
00000130: c54b 21bd f96a b7bc afed ffbc 84ec edbc
00000140: d6d0 22bd 855e c4bc 3fcf a3bc 9a8e c2bc
00000150: 740a b9bc 5081 02bd f351 17bd 596f f2bc
00000160: 0177 18bd cb05 ddbc 87ec 0cbd 7165 e1bc
00000170: 4ea7 13bd 46b5 b1bc 9db2 19bd d61a 0bbd
00000180: d89e 89bd 4859 cfbc d796 5bbd 4754 84bc
00000190: 34ec f8bc 41a3 29bd da84 eabc 187e c9bc
000001a0: 3603 b8bc 09bc e2bc 24f5 78bd 30a9 27bd
000001b0: f751 d4bc 24e3 a7bc 29d6 b4bc 842f 91bc
000001c0: 26e9 27bd f88a 2cbd 8fb7 e0bc 0e6d 2bbd
000001d0: 3a23 42bc eb35 b4bc 9e97 87bc 57b5 87bd
000001e0: b11b 10bd 405e c3bc 01e5 b1bc 26ea e7bc
000001f0: b493 babc 469f 21bd fc6c 18bd 420a 0cbd
00000200: ea63 d5bc 83aa a3bc ee49 31bd 55dd 19bd
00000210: c7f6 e9bc d185 e0bc ff9a d5bc a326 4cbd
00000220: 8f22 0abd 4c08 00bd f00e 47bd 427b d1bc
00000230: 9c44 36bd 5446 96bc 1c4c 2fbd 64d8 56bd
00000240: d090 99bc b6f7 22bd 9b83 a9bc 3100 6bbc
00000250: e809 11bd 4189 cbbc b6c4 21bc 17c3 1abd
00000260: e905 ffbc 5b42 20bd e1c3 ccbc 3bfb 39bd
00000270: 3800 f8bc 2947 18bd 499a e0bc c8f6 f1bc
00000280: 1119 d6bc dfa4 adbc ae6e 36bd f817 94bc
00000290: c2c5 fdbc dc8d 5fbc 8d50 ecbc f49c 69bd
000002a0: ac85 0dbd 79b8 31bd e1eb 2cbd 0376 cbbc
000002b0: 35f7 11bd f645 43bd bf98 f3bc 9d0c 11bd
000002c0: e54d ecbc 80a4 1cbd ec9f 18bd ecec dfbc
000002d0: 3ca8 edbc 9e91 1abd ee6d dbbc 3380 0ebd
000002e0: e257 a2bc fad6 e6bc 5f5e b8bc 506e 07bd
000002f0: 27d6 e9bc f290 20bd 66e2 d9bc be54 d2bc
00000300: a2ef 18bd 1147 a4bc ce26 debc 5c44 a1bc
00000310: 5bc8 0cbd 1c04 fabc e870 05bd b837 57bd
00000320: add3 0cbd f35c 02bd 5f04 c3bc 0bd6 c8bc
00000330: c2b3 c6bc ff77 18bd 024b f2bc 5467 e2bc
00000340: 6d45 aebc 9815 05bd 30f1 e9bc 363f d4bc
00000350: d362 c1bc b6a5 adbb 816c dcbc 89da e5bc
00000360: 74e4 07bd cae6 07bd da03 f0bc 8f5e 0bbd
00000370: d0bd 04bd 786b fdbc 8dd1 cfbc 571c ddbc
00000380: 13d8 39bd 80ec 3abd c18b f3bc f101 04bd
00000390: 4ee4 5dbd e131 fdbc 5ca3 25bd d655 9cbc
000003a0: 5b7d eebc 4860 84bd d596 e7bc d1b5 a7bc
000003b0: 0a86 37bd 7273 65bd 2d09 08bd 749e ebbc
000003c0: 5b05 c5bc c719 08bd 682e abbc f18e 08bd
000003d0: b42b 0bbd ccb4 cebc eca9 06bd 2453 08bd
000003e0: 1e63 f2bc ef04 c4bc 00ca ecbc e9e7 04bd
000003f0: 78cb 0ebd 59dd d3bc fa0e 12bd 41b7 ccbc

encoder.6.weight f4 [256, 256]
0.039186865 -0.028079076 -0.043248344 -0.03529025 -0.055035867 0.023966918 0.09947159 -0.010101548
-0.005445085 -0.04033277 -0.05468818 0.08422288 0.1478778 0.042226885 0.032024823 -0.22030953
-0.023059735 0.015935967 0.04692474 0.032691192 -0.0345762 -0.06562518 0.09598096 0.104832746
-0.047471236 0.09291416 -0.07770736 -0.04294457 0.008808339 0.065427914 0.06861919 -0.028341213
0.11205347 -0.028363675 -0.008027779 -0.04253117 0.1014551 0.05855438 -0.07408953 0.044363417
-0.025703158 -0.0037175089 -0.062430702 0.14542097 -0.026573395 -0.109778285 -0.019074664 -0.05856502
-0.021680824 0.012272113 -0.07934666 -0.008645099 -0.012661492 0.06337261 0.055848345 0.07844979
0.0011695456 0.003591318 -0.04366646 -0.1053062 -0.0051572765 -0.019456446 -0.09772506 0.047249652
-0.10086976 -0.012888339 0.045303803 0.07176278 0.013691071 0.07027483 -0.057951823 0.0077437246
-0.07131047 -0.06613977 0.046171132 0.08805937 -0.13115667 0.10054511 0.013741732 0.05734721
-0.06411888 0.0872023 -0.081475444 0.098646015 -0.09682995 0.1075943 0.032049175 0.079858676
0.061070647 -0.07592581 -0.043062635 0.01362769 -0.024165118 0.10162167 0.07130756 0.11156944
0.06302 -0.035914067 0.11942833 -0.024156231 0.077963024 0.09691636 -0.016088204 -0.0025320058
0.008954492 -0.0792774 0.036392134 -0.074838616 -0.098365024 0.015933229 -0.08574886 -0.0918272
-0.020283865 -0.09231392 -0.016866067 -0.036291275 -0.031114025 0.09998541 -0.03691517 -0.026870891
0.10072643 0.029714502 -0.073527135 -0.0139496885 -0.0021266802 0.06201816 -0.060790353 0.07218289
-0.022240581 0.03312615 -0.028115544 0.013674245 0.085480645 0.050358135 0.0433221 0.09311831
0.05567827 -0.013473499 -0.04916783 0.020656466 0.07793751 -0.012860209 -0.048435427 0.03789243
-0.00034444724 -0.010721235 -0.032743137 -0.030698992 -0.036303785 -0.068270855 0.01887299 0.0388943
-0.07431701 0.08168861 0.07524286 -0.05523456 0.012553577 -0.11381505 -0.10129662 -0.066470034
0.105793744 0.08933186 0.08334702 0.082127966 -0.046517845 0.092547975 -0.0741513 0.020833706
0.037930503 0.0022608154 -0.039260834 0.09610204 0.123858996 0.11798894 -0.04607566 -0.04072299
-0.025903592 -0.100946285 0.08298993 -0.039413095 -0.01364141 0.014422248 0.016594406 -0.076655805
0.08414632 -0.091076404 0.030899085 0.0076950165 -0.05521783 0.088271156 -0.04111331 -0.1248801
0.028084781 -0.09282381 -0.11231491 -0.09728136 0.092751935 0.017247625 -0.08513115 0.020127926
0.05669081 -0.033913586 0.02668149 0.02899074 0.07538632 -0.061832648 -0.07606445 -0.06152685
0.062341385 -0.093770474 0.0588456 -0.1281955 0.0875564 0.09512089 0.010428678 0.072821684
-0.13460073 -0.07680407 -0.09092802 -0.050177593 0.067667454 0.12603867 -0.046057142 0.032582965
-0.038517058 -0.032062266 -0.050767586 -0.09169425 0.09614845 0.03879493 -0.031573277 -0.14343797
-0.0926477 0.07170158 0.043909185 0.019556269 0.014542464 0.08244323 0.094045505 0.08747114
-0.08940448 0.077877834 -0.05494529 -0.05181373 -0.0032706135 0.07966305 0.09252328 0.018443445
-0.0022604486 -0.06780036 0.07610376 0.086641975 0.076310895 -0.109163 -0.067651376 0.09286921
00000000: 6882 203d 1706 e6bc 2d25 31bd 828c 10bd
00000010: 4a6d 61bd 4556 c43c c3b7 cb3d f780 25bc
00000020: af6c b2bb fa33 25bd b700 60bd 0c7d ac3d
00000030: 476d 173e 19f6 2c3d 762c 033d d298 61be
00000040: c5e7 bcbc 258c 823c 2834 403d 33e7 053d
00000050: c69f 0dbd 7f66 86bd aa91 c43d 8db2 d63d
00000060: 3371 42bd c749 be3d 0925 9fbd a5e6 2fbd
00000070: da50 103c 12ff 853d 3888 8c3d d52b e8bc
00000080: 4a7c e53d f05a e8bc f286 03bc 2a35 2ebd
00000090: b1c7 cf3d b8d6 6f3d 40bc 97bd 6ab6 353d
000000a0: 6e8f d2bc 73a1 73bb 56b7 7fbd 3ce9 143e
000000b0: 73b0 d9bc 70d3 e0bd 7842 9cbc e0e1 6fbd
000000c0: fc9b b1bc f910 493c 8080 a2bd 2ca4 0dbc
000000d0: 2672 4fbc 80c9 813d 3cc1 643d 49aa a03d
000000e0: 704b 993a 515c 6b3b 9adb 32bd c7aa d7bd
000000f0: 5ffe a8bb 2063 9fbc 1424 c8bd da88 413d
00000100: ce94 cebd 9d29 53bc 7b90 393d 5df8 923d
00000110: 8450 603c 40ec 8f3d e45e 6dbd 12bf fd3b
00000120: 390b 92bd 4a74 87bd f11d 3d3d 7958 b43d
00000130: ef4d 06be 98ea cd3d 0025 613c e8e4 6a3d
00000140: c250 83bd 1f97 b23d 99dc a6bd ec06 ca3d
00000150: c84e c6bd 665a dc3d ff45 033d f28c a33d
00000160: 3725 7a3d fe7e 9bbd 7262 30bd ad46 5f3c
00000170: edf5 c5bc 061f d03d b309 923d 857e e43d
00000180: a110 813d a11a 13bd d796 f43d 4ae3 c5bc
00000190: 14ab 9f3d 167c c63d 69cb 83bc 02f0 25bb
000001a0: ddb5 123c 315c a2bd eb0f 153d fd44 99bd
000001b0: 9a73 c9bd 6786 823c 199d afbd e60f bcbd
000001c0: 592a a6bc 150f bdbd b52a 8abc 29a6 14bd
000001d0: d7e2 febc 27c5 cc3d 5c34 17bd 5820 dcbc
000001e0: a949 ce3d d46b f33c 6595 96bd 3c8d 64bc
000001f0: c65f 0bbb c106 7e3d 4eff 78bd 9fd4 933d
00000200: e131 b6bc 49af 073d 9252 e6bc f109 603c
00000210: 7a10 af3d 5544 4e3d 8472 313d d0b4 be3d
00000220: e60e 643d f3bf 5cbc 3564 49bd c037 a93c
00000230: b49d 9f3d a0b3 52bc 3a64 46bd 1835 1b3d
00000240: ed96 b4b9 1ea8 2fbc ab1d 06bd 747c fbbc
00000250: 47b3 14bd 97d1 8bbd 879b 9a3c a14f 1f3d
00000260: 8433 98bd 5c4c a73d ee18 9a3d a23d 62bd
00000270: 85ad 4d3c dd17 e9bd 9a74 cfbd 7121 88bd
00000280: 64aa d83d 9ff3 b63d d8b1 aa3d b532 a83d
00000290: 7f89 3ebd cb89 bd3d a3dc 97bd 73ab aa3c
000002a0: 045d 1b3d 302a 143b f8cf 20bd 25d1 c43d
000002b0: c9a9 fd3d 2fa4 f13d d5b9 3cbd 26cd 26bd
000002c0: c533 d4bc edbc cebd a0f6 a93d a06f 21bd
000002d0: 3880 5fbc 4b4b 6c3c fef0 873c b8fd 9cbd
000002e0: e854 ac3d 4486 babd 1420 fd3c 7a26 fc3b
000002f0: 172c 62bd 82c7 b43d 6e66 28bd 23c1 ffbd
00000300: 0e12 e63c 691a bebd 5c05 e6bd 733b c7bd
00000310: baf4 bd3d e44a 8d3c 3e59 aebd 52e3 a43c
00000320: 9f34 683d f9e8 0abd 2493 da3c fd7d ed3c
00000330: 2564 9a3d 3b44 7dbd aec7 9bbd 9403 7cbd
00000340: ae59 7f3d bc0a c0bd 1508 713d ae45 03be
00000350: c550 b33d bece c23d 0cdd 2a3c 8923 953d
00000360: c6d4 09be 744b 9dbd 7838 babd 0587 4dbd
00000370: 3c95 8a3d 4810 013e 6aa6 3cbd b775 053d
00000380: 10c4 1dbd b953 03bd acf1 4fbd 32ca bbbd
00000390: 7be9 c43d 6fe7 1e3d fb52 01bd 67e1 12be
000003a0: 14be bdbd 47d8 923d 1eda 333d 7834 a03c
000003b0: 8443 6e3c ffd7 a83d ee9a c03d 1224 b33d
000003c0: b219 b7bd 6a7e 9f3d 500e 61bd a23a 54bd
000003d0: ca57 56bb 6226 a33d d87c bd3d b516 973c
000003e0: 0924 14bb eada 8abd 4adc 9b3d 5971 b13d
000003f0: e348 9c3d da90 dfbd ce8c 8abd 3632 be3d
