modelparameter/autoencoder_lognormal10_5.pth (torch, 796325 bytes, 36 tensors)

encoder.0.weight f4 [128, 42]
000000 9b 68 ce bd cc 53 df bd 14 4d c9 bd 0f 9a cc 3d
       -0.10078546 -0.10904655 -0.098291546 0.09990322
000010 2b c8 da bc de 0f 46 3e c8 c0 63 3e 45 39 4c be
       -0.026706776 0.1934199 0.22241509 -0.19943722
000020 10 ef 10 3b 94 41 aa 3d 58 c8 88 be 7e 7e 5f be
       0.0022115149 0.08313289 -0.2671535 -0.21825597
000030 17 2e 1f be 76 c9 1b be f0 cb 9a 3d 5f ec 0e 3e
       -0.15544926 -0.1521357 0.07558429 0.13957356
000040 da de d0 3c 01 30 80 be 07 c7 17 3e d1 91 4c 3e
       0.025496889 -0.25036624 0.14822017 0.199775
000050 64 2f 4c 3e 10 6b 2b 3e b4 24 6d 3e 4e 25 93 be
       0.19939953 0.1674006 0.23158532 -0.287394
000060 5b bf d9 bd 72 3b 5c 3e c4 a5 96 3d f8 08 74 3e
       -0.10632201 0.21507052 0.07355836 0.23831546
000070 90 98 1c 3e 1d f4 f5 3d 92 a3 4f bd 40 ce 2a 3e
       0.15292573 0.120094515 -0.050693102 0.1668024
000080 c0 ac c2 bd a4 92 02 3d 65 a3 b3 bd ee 1c 4e bd
       -0.09505606 0.03187813 -0.087713994 -0.05032056
000090 79 c6 3e bd 3c 36 0d 3c 63 7b cd bb 7b 96 79 3d
       -0.046575997 0.0086188875 -0.0062708124 0.060934525
0000a0 11 b3 6c bd 64 b6 3c bd 54 40 2e 3e 7e b0 50 be
       -0.05778796 -0.04607238 0.17016727 -0.20379826
0000b0 ab b6 b6 3c bd ff 82 bd e3 b3 ca 3e a4 26 b4 3d
       0.0223039 -0.063964345 0.39590368 0.087964326
0000c0 82 4c bb 3e dd e9 78 3e fd 93 6d be c0 4e 9e bd
       0.36581808 0.24307962 -0.23200984 -0.07729864
0000d0 97 a6 28 be 98 ed d1 bd fa 7d 0f be b4 f0 19 be
       -0.16469799 -0.102503955 -0.140129 -0.15033227
0000e0 35 9f e5 3d a1 47 61 be b3 6a c8 3d 51 59 18 be
       0.11212007 -0.2199998 0.09785976 -0.14877822
0000f0 e7 5e 1d be 8b d9 a1 3e 2c f2 08 be f7 f4 2c 3e
       -0.15368234 0.31611285 -0.13373631 0.16890322
000100 67 ed 7f 3e 40 88 57 bd 95 c0 9a be 8b e6 80 3d
       0.24992906 -0.052620173 -0.30225053 0.062939726
000110 59 d8 3d bd 85 55 6e 3e 9e f6 3e be c8 fe dd bd
       -0.046348903 0.2327481 -0.18648764 -0.10839611
000120 93 17 58 3d db dd 95 bd 2b b2 a9 3d 52 10 ce bd
       0.052756857 -0.07317706 0.08285936 -0.100617066
000130 ec 6f a9 bd a0 fb 76 3d 63 91 a0 bc a4 c6 ec 3d
       -0.082733005 0.060298562 -0.019600576 0.11561325
000140 44 9e 6f bc 8a db 94 3d 95 d4 48 bc f4 0d 0a bd
       -0.014625136 0.07268436 -0.012257715 -0.033704713
000150 7e db 79 3e 2a 27 76 be 61 1e ca 3d 25 e9 1a 3e
       0.24400136 -0.24038377 0.098690756 0.15128
000160 c0 e8 67 3d 1e 9d 53 3e 61 89 29 3e f0 71 14 3e
       0.056618452 0.20665404 0.16556312 0.14496589
000170 17 2f 30 be f4 08 ea bd 1d fc 84 be 72 dd 58 bd
       -0.17205463 -0.11427489 -0.25973597 -0.05294556
000180 84 ce a8 bd e6 30 31 bd aa 7a c2 bb 59 0c 96 3c
       -0.08242515 -0.043259524 -0.005935033 0.018316435
000190 0a ce f9 bd 5a 67 10 be fd 95 8a bd 39 ac 4f 3d
       -0.12197502 -0.14101925 -0.06766889 0.050701354
0001a0 7b 5d 65 3e a5 0e 0e 3e da d4 39 3d d2 84 39 3e
       0.22398941 0.13872774 0.045369007 0.18117073
0001b0 f7 ee 39 b8 5a a1 8e be d2 b6 de 3c 9f cf 3f be
       -4.432999e-05 -0.27857476 0.027186785 -0.18731545
0001c0 75 c5 8a bc b1 59 c3 bd ee 89 0e 3e 15 71 25 bc
       -0.016939858 -0.09538592 0.13919804 -0.010097762
0001d0 62 4a ca 3d 36 3b b6 bc e1 d0 b6 bd 0b 22 68 3d
       0.09877469 -0.02224503 -0.08926559 0.05667309
0001e0 69 ed d0 b9 8a 73 e6 3d 3e 41 15 3d 9f f2 7c bd
       -0.00039849736 0.11252506 0.036439173 -0.06175482
0001f0 1f 16 ae bd eb e8 3b bb 4a ef e5 3c c9 42 8a 3d
       -0.08500313 -0.0028672765 0.028068203 0.067510195
000200 b4 d5 aa 3e 95 62 33 be 23 e5 d4 3d 14 1a 82 3d
       0.33366168 -0.17518075 0.10395267 0.0635263
000210 42 1d 8e 3e 7e ae 2b be 12 85 28 3e d4 2f 89 be
       0.27756697 -0.16765782 0.16457012 -0.26794302
000220 94 a0 71 3e ac bf 53 3d 99 06 3e be f7 e2 80 3e
       0.23596412 0.051696464 -0.18557204 0.2517316
000230 5b 25 8f bd 78 2f 29 3e 04 ea 92 3c 49 21 36 3c
       -0.06989547 0.16522014 0.017933853 0.011116334
000240 1a 84 32 be 91 aa 30 be 8d da 1d 3e 38 0f 9a bd
       -0.17433205 -0.17252566 0.15415402 -0.07522434
000250 d0 77 b4 bd a8 b3 e0 3a 6d 90 db bb f7 ea 35 3e
       -0.08811915 0.0017143385 -0.0067005665 0.17765413
000260 f1 a1 ba 3d ee ea 04 be c0 95 2a 3d a2 0e 23 3d
       0.09112919 -0.12980244 0.04164672 0.039808877
000270 9e 44 fa bd 25 7b 7e be c6 45 b4 3d 89 1b f0 3c
       -0.12220119 -0.24851663 0.08802371 0.029310005
000280 f3 6a 0a bd a4 1a fd 3d 52 3f 9b bd e5 ee fb 3d
       -0.0337934 0.12358597 -0.07580437 0.12301425
000290 b2 54 ce bc c7 d4 98 bd 77 7f 7e 3d 45 a6 fa 3d
       -0.02518687 -0.07462459 0.06213328 0.12238745
0002a0 f8 ce 14 be 43 10 48 3e 11 a7 39 3e 28 0f 4d be
       -0.14532077 0.19537453 0.18130137 -0.20025313
0002b0 76 11 6a bd 23 62 23 be fc 84 b5 3d 0e 7b ef bd
       -0.05714556 -0.15955405 0.088632554 -0.11693393
0002c0 46 4d 12 be cd 74 1d be 1b f3 91 be fa d0 84 bd
       -0.1428729 -0.15376587 -0.28505787 -0.064851716
0002d0 9c 01 dd 3d 96 ae fe bb 4b 7f 8b 3e 40 26 55 be
       0.107913226 -0.007772277 0.27245554 -0.20815372
0002e0 52 4e 6a 3e 57 cb 59 be 4e a5 f2 3d ea 63 34 be
       0.2288144 -0.21268974 0.118479356 -0.17616239
0002f0 17 a9 18 be 27 ba 8e 3e 72 41 9b bd 4f 19 32 be
       -0.14908253 0.27876398 -0.07580842 -0.17392467
000300 78 f6 83 bd 94 fb 0a 3e 0c 17 4e be 4d 12 21 3d
       -0.064434946 0.13572532 -0.20125979 0.039324094
000310 b6 be 73 be ff b8 15 be aa f8 b7 bd 5d fb 1d 3e
       -0.23803219 -0.14621352 -0.08982976 0.15427919
000320 a9 c6 f4 bd 52 78 ff 3d 6f 11 38 3d 97 3d 85 3d
       -0.11951954 0.12474121 0.0449385 0.06505888
000330 d7 d4 12 3d 24 91 e6 bd 7a b3 ab 3d 82 69 ca 3b
       0.03584751 -0.11258152 0.08383842 0.0061771283
000340 4b 8b 1a bd a4 b8 aa 3d 6e aa f9 bb d5 51 ce 3c
       -0.037730496 0.08335999 -0.0076191938 0.025185505
000350 e6 86 60 3c 6f 6b d0 3c 88 09 2b be ad 57 df bd
       0.013704037 0.025441853 -0.16702855 -0.10905395
000360 b0 ad 39 bd e3 ca 8d bd b0 cc ce 3e 41 3c 0d be
       -0.045331657 -0.06923463 0.4039054 -0.13792516
000370 c4 42 63 3e 25 77 61 be 74 90 22 3e 5f 97 8f 3e
       0.22193438 -0.22018106 0.15875417 0.28045174
000380 6b 2d fb 3a f7 73 d2 3e dc d9 aa bd 81 e9 26 be
       0.0019163316 0.411041 -0.08342335 -0.16300012
000390 f4 a2 13 be 18 94 2a be e6 4c a7 3d c4 be 17 bc
       -0.1441763 -0.16658056 0.08168964 -0.009261791
0003a0 db 53 83 be 0d 23 ac bc 25 3a 99 3e fc 05 12 3e
       -0.25649914 -0.021012807 0.29927173 0.14260095
0003b0 24 ce 39 3c a1 ea a2 3e 1f 0c 06 3e 65 23 5e bd
       0.011340652 0.31819633 0.13090561 -0.054232974
0003c0 f3 8d 3f 3c d9 3e 99 bd a0 b4 48 bd 13 d5 e2 3d
       0.011691558 -0.0748269 -0.049000382 0.11075797
0003d0 10 9b 77 bc 3d 63 4f 3d b6 6c 30 3d d1 2a 15 bd
       -0.015112653 0.05063175 0.043072425 -0.036417786
0003e0 6f 15 eb 3b 91 17 61 3c db 41 32 bd a0 d5 d7 bc
       0.007174186 0.013738529 -0.043519836 -0.026346982
0003f0 1d 57 a0 be 47 61 ab 3e c6 a6 73 be a9 28 fa bd
       -0.31316462 0.33472654 -0.23794088 -0.122147866

encoder.0.bias f4 [128]
000000 b5 46 b5 ba 42 3d 81 bb 32 54 3c bc f7 2f 1e bc
       -0.0013830276 -0.00394407 -0.011494683 -0.00965499
000010 c5 ba f7 bb c4 4f de b7 49 89 b0 3c bc 72 40 39
       -0.0075601065 -2.6501606e-05 0.021549838 0.00018353289
000020 15 db d0 bb 9f 60 86 bb 76 4a 20 3b 7d 57 36 3b
       -0.006373773 -0.0041008736 0.0024458445 0.0027823143
000030 59 a1 3f 3c 0e 69 02 bc c1 ab 53 bc f3 b3 e0 3b
       0.011696183 -0.007959617 -0.012919367 0.006857389
000040 bb d7 33 bb 39 e5 16 bc f9 fc 25 bc 4b 89 a7 3b
       -0.0027441818 -0.009209924 -0.010131114 0.005112802
000050 f9 df f4 ba cc 09 8d 3b e6 80 b1 3a 02 f1 ac bb
       -0.0018682472 0.0043041464 0.0013542443 -0.005277754
000060 ae 55 85 bc 63 1e be 3b d7 3c 47 3b b3 66 a7 bb
       -0.016276207 0.005801962 0.0030401254 -0.0051086782
000070 ab 1a 69 3b cc 53 85 bb 97 4a ad ba 22 6b 6f bb
       0.0035568874 -0.0040688273 -0.0013221082 -0.0036532362
000080 8a 29 46 3c d7 08 52 bb 91 6b a2 ba 0f 2d 66 bb
       0.012094865 -0.0032048726 -0.0012391676 -0.0035122072
000090 53 bd aa bb 38 6d 5a 3a ab e1 5b bb ce 77 cf bb
       -0.0052105575 0.0008332315 -0.0033551257 -0.0063314205
0000a0 53 64 81 3b 68 fd 3b 37 dd c6 db 3b be be 34 3c
       0.003948727 1.1205069e-05 0.006707056 0.011031805
0000b0 12 ae 1a bc 4b 8c aa 3a b4 84 9b ba 3f 86 53 39
       -0.009440916 0.0013011781 -0.001186511 0.00020172539
0000c0 ca 20 8a 3c e0 32 65 bb 63 6c 47 ba 6f f3 34 bc
       0.016861338 -0.003497295 -0.00076073984 -0.011044367
0000d0 35 b5 89 ba bc 04 2d ba 64 29 14 3b 7d 64 ef b9
       -0.0010506274 -0.0006600132 0.0022607679 -0.00045660502
0000e0 72 15 eb 3b 46 ee 42 3b 1b 96 b6 ba 64 43 02 3c
       0.0071741873 0.0029744073 -0.0013930233 0.0079506375
0000f0 d2 d2 ad bb a9 db a5 3a ff 85 81 bb ab da ed 3b
       -0.0053046728 0.0012653965 -0.003952741 0.0072587333
000100 b4 9f 7b 3b dd 51 3c 3c e6 7c 97 3b f4 f9 ba 3a
       0.003839475 0.011494127 0.0046230434 0.0014265166
000110 08 c9 13 3b 15 f0 8b bb cd ed 00 3a 03 35 b3 3a
       0.0022550244 -0.0042705634 0.00049182476 0.0013672415
000120 3e 8c ae 3a a7 47 30 3a cf f6 ab bc 48 7c 1c 3a
       0.0013316942 0.0006724544 -0.020991711 0.0005969447
000130 c9 dd 63 3a 16 53 7b 3b b7 4d 26 bc c5 aa 26 3b
       0.00086924114 0.0038349084 -0.010150365 0.0025431376
000140 84 f9 df 3b 48 8e 54 3c bf 0c da 3b fe 7d 7a 3b
       0.0068351645 0.012973376 0.0066543515 0.003822207
000150 dd 16 92 bb f9 5c aa bb 17 9a 46 3b 16 32 85 bb
       -0.004458292 -0.0051990715 0.0030304247 -0.0040648086
000160 16 42 1c ba d0 56 44 3b 93 21 80 3b 6c d4 d3 ba
       -0.00059607753 0.002995897 0.0039102524 -0.0016161329
000170 e9 72 ca 39 c4 52 c6 3b ee 9d 5e 3b ad 0c e8 3a
       0.00038614057 0.006052347 0.0033968645 0.0017703973
000180 d3 b7 2d bc 4b a9 29 bb d8 78 a7 3b a8 02 e4 3b
       -0.010602909 -0.002588826 0.0051108412 0.0069583245
000190 5d c4 27 ba d4 63 a2 3b f8 ae 03 bc 8c 18 57 bc
       -0.0006399805 0.004955748 -0.008037321 -0.013128411
0001a0 53 91 25 3c 91 65 5b bb 0a c5 15 38 16 a9 ee 3b
       0.010105449 -0.0033477286 3.5707875e-05 0.00728334
0001b0 be eb 54 3b 80 34 99 bb 55 ac 2d 3b 46 0e 85 ba
       0.0032489146 -0.004675448 0.0026500423 -0.0010151349
0001c0 b6 49 5c 3b 96 77 e1 bb 1d 8c ac 3b 98 e5 8f bb
       0.003361327 -0.006880711 0.0052657262 -0.0043913834
0001d0 dd 42 40 3b 0e 9a 34 ba 56 3b 96 ba 47 ed 97 3b
       0.0029336729 -0.0006889411 -0.0011461775 0.00463644
0001e0 4a 94 af 3a ce e0 c9 bb e6 2f 7f 3c 01 e3 06 bc
       0.0013395634 -0.006160832 0.015575385 -0.008232833
0001f0 0f 94 75 ba 66 ab 80 b9 d1 ad 7e bb 23 50 33 bc
       -0.0009368071 -0.00024541764 -0.0038860927 -0.010944399

encoder.1.weight f4 [128]
000000 be 70 7b 3f f0 98 7b 3f f4 b6 75 3f 81 9e 7f 3f
       0.98218906 0.9828024 0.9598229 0.9985123
000010 7d 06 81 3f 77 9d 81 3f 72 86 84 3f 51 b7 75 3f
       1.0080105 1.012618 1.035353 0.95982844
000020 b4 74 76 3f 37 c8 82 3f ea cd 7c 3f 97 87 7d 3f
       0.96271825 1.0217351 0.987517 0.9903502
000030 7d 06 80 3f 93 02 7d 3f b4 25 7c 3f ea 85 81 3f
       1.000198 0.9883205 0.9849503 1.0118992
000040 cd 4f 80 3f 14 75 83 3f a8 91 7b 3f d9 6f 7f 3f
       1.0024353 1.0270104 0.9826913 0.9978004
000050 35 b8 7a 3f 7c 8f 80 3f 97 99 7a 3f 01 25 7d 3f
       0.9793733 1.0043788 0.9789061 0.9888459
000060 45 ec 7e 3f bc b8 80 3f 2b 65 81 3f 68 88 7a 3f
       0.9957927 1.0056376 1.0108999 0.9786439
000070 7f 2d 85 3f d7 37 7e 3f 06 b2 80 3f 73 12 7d 3f
       1.0404509 0.99303955 1.0054328 0.98856276
000080 54 91 87 3f 9a 42 7f 3f ea c5 7b 3f 8d e0 7d 3f
       1.0591226 0.99711 0.9834887 0.9917076
000090 48 64 79 3f a4 65 83 3f c7 8e 7c 3f d2 04 84 3f
       0.9741864 1.0265393 0.9865536 1.0313971
0000a0 3e f8 81 3f be 41 85 3f b8 8a 82 3f c7 41 82 3f
       1.0153883 1.0410688 1.0198584 1.0176324
0000b0 61 32 77 3f 94 f6 83 3f a2 89 7b 3f 31 d8 7d 3f
       0.9656125 1.0309625 0.98256886 0.99158007
0000c0 e0 52 88 3f 81 bd 81 3f 12 20 83 3f 93 94 7b 3f
       1.0650291 1.0135957 1.0244162 0.9827358
0000d0 f3 55 79 3f 29 c5 7f 3f db 2a 83 3f 92 49 87 3f
       0.97396773 0.9991022 1.0247453 1.0569327
0000e0 ae 93 81 3f 77 c1 80 3f 13 37 7f 3f 37 11 7f 3f
       1.0123193 1.0059041 0.9969341 0.9963564
0000f0 b9 94 7c 3f 39 eb 7d 3f cf ba 80 3f 88 a6 81 3f
       0.9866443 0.99187046 1.005701 1.0128946
000100 b4 49 85 3f ff bc 85 3f 0e eb 81 3f 58 8d 7c 3f
       1.0413117 1.0448302 1.0149858 0.98653173
000110 d8 ff 7d 3f 6b 09 80 3f dd a4 7f 3f e9 43 7c 3f
       0.9921851 1.0002874 0.99860936 0.9854112
000120 f2 7f 7d 3f 97 44 88 3f e6 58 81 3f 3b 20 83 3f
       0.99023354 1.0645932 1.0105255 1.0244211
000130 ef 27 81 3f 71 df 7a 3f 47 10 7f 3f 1a 0a 82 3f
       1.0090312 0.97997195 0.9963421 1.0159333
000140 a0 ca 80 3f 07 d5 82 3f b5 b1 86 3f 14 6a 83 3f
       1.0061836 1.0221261 1.0522982 1.0266747
000150 8b 09 80 3f 5d 65 7b 3f be ae 84 3f 33 5e 7f 3f
       1.0002912 0.98201543 1.0365827 0.9975311
000160 8a 95 80 3f 64 bb 7e 3f c0 2b 83 3f ae 39 80 3f
       1.0045636 0.99504685 1.0247726 1.0017602
000170 fd 26 76 3f 4c 5f 82 3f 39 b8 81 3f c5 2d 7b 3f
       0.9615324 1.0185332 1.0134345 0.98116714
000180 01 74 81 3f 85 0b 7e 3f ff 1f 80 3f 93 01 81 3f
       1.0113527 0.9923633 1.0009764 1.0078605
000190 e1 0b 85 3f b8 0f 82 3f eb 08 77 3f 80 e3 7f 3f
       1.039425 1.0161047 0.9649798 0.9995651
0001a0 ad 42 7d 3f 68 2c 7b 3f a6 f5 80 3f 62 f6 81 3f
       0.98929864 0.98114634 1.0074966 1.0153315
0001b0 fb 10 85 3f 6b bd 81 3f c2 7f 7e 3f 56 48 7e 3f
       1.0395807 1.0135931 0.9941369 0.99329126
0001c0 89 81 80 3f 68 e4 7a 3f 76 0a 8b 3f d4 59 7f 3f
       1.0039531 0.9800477 1.0862567 0.9974644
0001d0 ff 2b 7e 3f c4 8a 7c 3f 00 47 7f 3f a9 48 7e 3f
       0.9928588 0.9864924 0.9971771 0.9932962
0001e0 8b f5 7f 3f 12 53 79 3f f3 72 82 3f fb 15 78 3f
       0.99984044 0.9739238 1.019133 0.9690854
0001f0 e8 e2 82 3f d8 db 7f 3f 4f f8 77 3f 4d 24 78 3f
       1.0225496 0.9994483 0.96863264 0.9693039

encoder.1.bias f4 [128]
000000 2f 96 55 bc 76 68 e1 bc cd d8 d4 bc d6 7b af bc
       -0.013036295 -0.027515631 -0.025982285 -0.021421354
000010 37 9b 93 bc 65 ae 80 bc 9a 9e 8e 3a d9 7d ed bc
       -0.018018348 -0.015708158 0.0010881007 -0.028990673
000020 f8 15 0f bd c5 0d 98 bc 1f b4 e4 bc c8 03 aa bc
       -0.03493306 -0.018561253 -0.02791792 -0.020753756
000030 47 8d 90 bc 3d c3 0a bd 4a 26 00 bd f6 a4 22 bc
       -0.017645491 -0.0338776 -0.031286515 -0.009927025
000040 f3 da 84 bc 5c b5 ce bc 99 57 c2 bc a8 3b b0 bc
       -0.016217684 -0.025232963 -0.02372341 -0.021512821
000050 c8 28 b7 bc ce 42 ec bc 92 e1 02 bd 98 18 be bc
       -0.022358313 -0.028840449 -0.031953402 -0.023205087
000060 58 c2 ec bc e6 48 4b bc a4 0a f1 bc 18 9d 04 bd
       -0.028901264 -0.012407517 -0.02942402 -0.03237638
000070 92 12 08 bc 02 58 99 bc 59 6a 3b bc 72 9e 96 bc
       -0.008305209 -0.018718723 -0.0114389295 -0.0183861
000080 a0 c6 bd bb 1a 02 10 bd c2 44 98 bc 02 77 c6 bc
       -0.0057915 -0.035158254 -0.018587474 -0.02422667
000090 d2 df f2 bc 9d 30 28 bc d9 5a 5c bc 8d 5b b4 bc
       -0.029647741 -0.010265497 -0.013449394 -0.022016311
0000a0 cf ff a7 bc a3 96 a3 bc fd 59 a1 bc 0e 79 db ba
       -0.020507721 -0.01996929 -0.01969623 -0.0016744451
0000b0 34 be c4 bc 33 cb fb bc 33 20 af bc 11 dd 9e bc
       -0.024016477 -0.030736541 -0.021377658 -0.019392522
0000c0 7c b2 db ba 5d c3 6a bc ea f4 cb bc 3b 9a 02 bd
       -0.0016761567 -0.014328805 -0.024897058 -0.031885367
0000d0 d9 29 d1 bc 40 9e 11 bd 6b 37 30 bc 3e 01 bc bc
       -0.02553265 -0.03555131 -0.0107554 -0.022949811
0000e0 d4 9f 0a bc d0 2c a7 bc 96 b2 10 bd eb ce ce bc
       -0.008460958 -0.02040711 -0.035326563 -0.02524515
0000f0 94 55 15 bd a2 af 8f bc 0b b5 4c bc ad 6d 61 bc
       -0.036458567 -0.017539803 -0.012494336 -0.013759059
000100 d2 82 20 bc 75 81 3e bc e4 91 23 bc ed fb c9 bc
       -0.009796815 -0.011627545 -0.0099835135 -0.02465626
000110 0d ef 8b bc 46 52 ef bc 9a c3 88 bc c0 82 7e bc
       -0.017081762 -0.029214036 -0.016694833 -0.015534103
000120 03 cb c2 bc c0 14 be bb 81 36 cb bc f5 55 dd bc
       -0.023778444 -0.0058008134 -0.024806263 -0.027018527
000130 5d 52 56 bc 67 8e bd bc 3b b9 8b bc 3f c5 c5 bc
       -0.01308116 -0.023139192 -0.017056098 -0.024141906
000140 8d c1 f9 bb 61 2a 88 bc 5e c8 1b bc d3 a5 a0 bc
       -0.00762195 -0.01662177 -0.0095082205 -0.019610321
000150 cb 34 dc bc 86 c0 b7 bc 4f 46 51 bc 5f 56 a4 bc
       -0.026880642 -0.02243067 -0.0127731105 -0.020060716
000160 7b 78 38 bc 93 c7 b9 bc 16 d1 49 bc 41 bd 09 bd
       -0.0112591935 -0.022678172 -0.012317916 -0.033627752
000170 8d 6a f4 bc d2 3d 91 bc d9 3d af bc 04 2e af bc
       -0.029835964 -0.017729674 -0.021391796 -0.021384247
000180 06 5e cd bc 8e 0c b4 bc bc 10 70 bc c4 52 a4 bc
       -0.025069248 -0.021978643 -0.014652427 -0.020058997
000190 0b 53 2c bc bc 3d 4c bc ce 2b 0d bd 75 a3 b5 bc
       -0.010517846 -0.0124658905 -0.034465604 -0.022172669
0001a0 58 60 98 bc e7 33 10 bd b4 7a 91 bc d1 8f 45 bc
       -0.018600628 -0.035205748 -0.017758705 -0.012058214
0001b0 4b d7 0c bd 0e fd d7 bc 2e a1 57 bc a7 27 47 bc
       -0.034385007 -0.026365783 -0.013160987 -0.01215545
0001c0 5c 8b a0 bc ef 89 82 bc 4f ad ac bb 38 7d b5 bc
       -0.019597702 -0.015934912 -0.0052696834 -0.022154436
0001d0 67 36 97 bc 32 7f de bc bd 20 97 bc 44 23 26 bc
       -0.018458558 -0.02716026 -0.018448228 -0.010140244
0001e0 ab b1 b7 bc 52 e5 da bc 34 e5 7c bb ba 3e fd bc
       -0.022423586 -0.026720677 -0.0038588764 -0.0309137
0001f0 af b3 f7 bc bd 13 65 bc 07 11 17 bd 46 67 14 bd
       -0.030237047 -0.013981757 -0.036881473 -0.0362313

encoder.3.weight f4 [256, 128]
000000 96 fe 63 3d 7f 6a 8f bc 1c 60 a8 3d 81 22 33 bd
       0.055662714 -0.017506836 0.082214564 -0.043734077
000010 0c a8 ee 3d 10 57 e7 bd bb 7e e6 3d f5 6b 39 3d
       0.11653146 -0.11295903 0.11254641 0.04526897
000020 01 59 11 3d 18 5c 8c bd 05 b4 a0 bd 19 e5 91 bc
       0.03548527 -0.06853503 -0.07846836 -0.017809438
000030 fe 6b 88 bc e4 d3 e3 bc 2d 8b d8 bb 7e 24 3f bc
       -0.016653057 -0.027810998 -0.006608388 -0.011666415
000040 71 30 55 bd 44 74 91 bd ef 3e d3 3c 0a 5f b5 bc
       -0.05204815 -0.07102254 0.025786845 -0.022140045
000050 9c 89 3d 3d f1 55 3c 3d b8 ca dc 3d 4b 7b 94 3d
       0.046273813 0.045980398 0.10780853 0.07250079
000060 f2 b7 c3 3d b6 47 a8 bc bb 31 24 bd 7e 46 13 3d
       0.09556569 -0.020542007 -0.04008649 0.0359559
000070 df 9e 8d bd 66 1a da bd 83 8e bc bd 3c a1 d9 bd
       -0.06915068 -0.10649566 -0.092068695 -0.10626456
000080 9a f0 a4 3d bf ed 8d 3d 34 82 08 bd 6a 0d 75 3b
       0.080537036 0.06930112 -0.033327296 0.0037392029
000090 aa ea 8c 3c a0 28 fc 3d a1 1c e1 bd b2 8b 0f ba
       0.01720174 0.12312436 -0.10991789 -0.00054758333
0000a0 7b 48 00 3d bf a8 2f 3d b5 78 b9 bd 2e 86 23 3b
       0.031319123 0.04288554 -0.09056226 0.0024951803
0000b0 08 60 b3 bb a0 cc 00 3e 77 24 d4 3d ce 67 1b 3d
       -0.0054740943 0.12578058 0.103585176 0.037940793
0000c0 d6 52 b1 3d 7c 59 f6 3d d0 ed bd 3d 07 59 c7 bb
       0.08658378 0.120287865 0.09273875 -0.006083611
0000d0 83 1c a8 3c cc 75 0a 3c 2b 56 bc 3d 54 48 77 3b
       0.020521408 0.0084509365 0.09196123 0.003773232
0000e0 67 74 d1 3c d7 a9 dc bd 73 52 bb bb e0 c5 03 3d
       0.0255682 -0.10774582 -0.005716616 0.03217113
0000f0 e5 9f 0e be 01 90 83 bd 43 2b 78 bd 61 23 93 bc
       -0.13928182 -0.06423951 -0.060588133 -0.017961206
000100 f4 34 fe bb 51 55 47 3d b7 80 ad 3d 14 b7 c0 bd
       -0.0077577773 0.04866535 0.08471816 -0.094099194
000110 03 6d ce 3d 7f 58 f6 bd 3f 06 86 3d b9 59 b6 bd
       0.10079386 -0.12028598 0.0654416 -0.08903832
000120 fc ef 64 bd cb 33 e6 3c 93 0b cc 3d 5d d1 4a bc
       -0.05589293 0.028100869 0.09963145 -0.012379018
000130 78 bc df 3b a0 8c 04 bd 3f fc 51 bd 96 51 79 3d
       0.006827887 -0.032360673 -0.05126595 0.060868822
000140 57 7c c4 bd 1f 3b d3 3d 7f 1d d2 3d 20 1a 9c bc
       -0.095940284 0.10314011 0.10259532 -0.019055426
000150 a8 3f 23 bd 0a 47 5e bb 3c 41 94 bc 60 94 7d 3c
       -0.03985563 -0.0033916854 -0.018097512 0.01547727
000160 12 17 23 bd f2 a8 b9 3d 86 14 b4 bc 43 37 a6 bd
       -0.039816923 0.09065427 -0.021982443 -0.08116009
000170 12 bc dd 3d 42 16 e1 3d f3 4b b0 bd 05 85 ce 3d
       0.10826887 0.109905735 -0.08608236 0.10083965
000180 2b d0 11 3d 49 ee e1 3d 24 c1 6b bb 24 ab c4 bd
       0.035598915 0.110317774 -0.0035973275 -0.09602955
000190 2d 39 33 3d d4 63 ad 3c 9c ce 90 bb b6 d9 c6 bd
       0.0437557 0.021165766 -0.004419161 -0.09709494
0001a0 05 50 d4 3c 8c c8 fc bd 30 91 b8 bd b6 48 14 bd
       0.025917063 -0.12342939 -0.09012067 -0.036202155
0001b0 2e f0 58 3d f3 c4 50 bc 44 03 2b 3c 97 d6 ab 3d
       0.05296343 -0.012742269 0.01043779 0.08390539
0001c0 83 82 3f 3c 9a 31 4a 3d 74 20 87 bc 3e 9e f6 3c
       0.011688831 0.04936371 -0.016494967 0.030104753
0001d0 48 c1 68 bd 3a f8 e3 bb ef ed 5d 3d c6 9c 2b 3d
       -0.056824952 -0.006957081 0.05418199 0.041897558
0001e0 54 9c 00 bd f8 26 61 bd 6b 3a d0 bd 4e b5 81 bd
       -0.031399086 -0.054968804 -0.10167392 -0.06333409
0001f0 35 50 c7 3d 7f df ef bb f4 fd ce 3d 24 e0 cb bd
       0.09732095 -0.007320344 0.101070315 -0.09954861
000200 59 8d f9 3d d3 fb a8 bb e5 6b 1f 3d d0 b8 a6 bb
       0.12185163 -0.005156973 0.038921256 -0.0050879493
000210 6b 17 2f bd 4f 6c 1b 3e af ef 07 be f6 18 8c bd
       -0.042746942 0.15178035 -0.13275026 -0.068406984
000220 f1 65 83 3d 1c 58 84 bd 8b 13 97 3d 99 a3 22 3d
       0.06415928 -0.06462118 0.073767744 0.0397068
000230 3d 9f 8f bb a3 2d be bd 7c eb b0 bd 14 47 a3 3d
       -0.0043829964 -0.09286048 -0.08638665 0.079725415
000240 26 b8 68 bd 49 e9 15 be 6d e7 b0 3d ff 17 c1 3a
       -0.056816243 -0.14639772 0.08637891 0.0014731883
000250 c5 a6 d2 3d ab c3 8e 3d 82 a5 2e 3c c5 4d 27 3d
       0.10285715 0.069709145 0.010659577 0.04084565
000260 00 4d fa bd 17 c3 58 bd c4 70 fe 3d c2 8c b7 3b
       -0.12221718 -0.052920427 0.12423852 0.0056014964
000270 1e 68 11 bd f3 5d e4 3c fe c5 9d 3d b9 da 02 be
       -0.035499685 0.02787683 0.0770378 -0.12778749
000280 7b 7d 23 be 75 7c 8f 3d 64 48 2b bd 77 19 12 3d
       -0.15965836 0.0700616 -0.041817084 0.035668816
000290 be 18 91 bd 24 0b 0d 3d 64 09 aa 3d fe 58 67 3d
       -0.07084797 0.034434453 0.08302572 0.056481354
0002a0 44 68 78 bd 4a 08 03 bd d1 0b 0d 3d d8 61 d6 3d
       -0.06064631 -0.031990327 0.034435097 0.10467881
0002b0 1c 1e 00 be 55 b4 da 3d 09 0f 8c bd e3 d5 c0 3d
       -0.12511486 0.10678927 -0.06838805 0.09415796
0002c0 3b 3a 03 be 9b d3 01 bd fa e9 12 3e a3 3e f8 bd
       -0.12815182 -0.031695943 0.14347067 -0.12121322
0002d0 a6 37 30 3d d3 92 1b bd 8e 5c d8 bd 4b 97 0b bd
       0.04302182 -0.03798182 -0.105645284 -0.03407983
0002e0 6b a4 6b bd 99 38 ff bc e1 28 8c 3c a2 a1 75 3d
       -0.057529848 -0.031154918 0.017109336 0.0599686
0002f0 6f 39 4b bd 80 a8 08 3d 82 b4 e1 bd 79 74 f4 3c
       -0.04961532 0.03336382 -0.11020757 0.029840695
000300 1b ba b6 bc 41 93 20 3d 06 ab 96 3b 7a 96 2f 3c
       -0.022305539 0.039202932 0.0045980243 0.010717029
000310 f3 30 45 3d 77 c8 f8 bd 3f 16 d5 3d 8d ab 7c bc
       0.048142385 -0.12147611 0.10404634 -0.01542176
000320 a7 fb 9c bc 89 80 80 3a 43 46 b5 bd ef 7a 36 3d
       -0.019162966 0.0009803931 -0.08851292 0.044550832
000330 36 89 bc 3d 58 82 09 3e f4 59 b6 bd e2 2a d1 bd
       0.092058584 0.13428628 -0.08903876 -0.10213257
000340 c4 f1 be bd 32 96 e1 3d f0 d8 26 be 91 90 90 bd
       -0.09323457 0.110149756 -0.16293693 -0.07058824
000350 0c ff 23 be 49 7a 83 bd b4 37 d4 bd 3f b3 f2 3d
       -0.16015261 -0.064198084 -0.10362187 0.11850595
000360 54 e8 9b bd a4 02 18 bd 91 a5 06 3e a6 4f 8e bd
       -0.076126724 -0.037111893 0.13149096 -0.069487855
000370 8f 52 b7 bd b4 5b ac 3d 8e aa b1 bd 9b 47 84 3c
       -0.08951294 0.084159285 -0.08675109 0.016147425
000380 9a 48 04 3b 80 41 0e 3d 78 1d 6e 3d 8e b2 e1 3c
       0.0020184875 0.034730434 0.058133572 0.027550962
000390 66 1d 0b 3d 93 ba 14 b9 48 32 fe 3d f2 2a d8 bd
       0.033963583 -0.00014183884 0.12411934 -0.10555066
0003a0 7b 6c c5 bb e3 7a c4 3d 10 fd d5 3d d5 8b bf bd
       -0.006024895 0.09593751 0.104486585 -0.09352843
0003b0 2b 77 b5 bc 09 aa 66 3c aa a2 65 bc cf 5b b0 bd
       -0.02215155 0.0140786255 -0.014015833 -0.08611261
0003c0 5d bb da 3b 2d 3c 96 3d fb 5b ca bd 19 a0 0a be
       0.0066751675 0.07335696 -0.09880825 -0.13537635
0003d0 42 79 0c bd af 4a 59 3d 0e 9c 31 bd ae 3c 10 bc
       -0.034295328 0.05304974 -0.043361716 -0.00880353
0003e0 f6 45 cb 3d e9 61 0f 3b a5 d2 cd 3d b7 b4 91 bd
       0.09925453 0.0021878427 0.10049943 -0.07114547
0003f0 69 14 51 bd 21 8a d5 39 e7 7b 6f 3d c4 67 d1 bc
       -0.051044855 0.0004072944 0.05846777 -0.025562175

encoder.3.bias f4 [256]
000000 c6 81 be b8 89 03 db 3b cd c9 3d bb 03 fb b6 bb
       -9.084078e-05 0.006683771 -0.0028959394 -0.005584122
000010 84 33 97 bb 15 d5 71 3c 2f 50 98 bb dc 6b ae ba
       -0.0046142954 0.014760275 -0.0046482305 -0.0013307291
000020 a8 d1 ca 3b ba 37 69 3b 8c ed 08 bb cf ee cc b9
       0.0061895438 0.0035586194 -0.0020893542 -0.00039087838
000030 d4 ae 12 3a ed 50 e3 bb 15 90 b7 3b 3f 52 d3 bb
       0.00055955094 -0.0069371373 0.0056018927 -0.0064490135
000040 6a d5 f9 39 e5 41 a1 b9 07 75 0f 3b e1 1e 5c ba
       0.00047651987 -0.00030757408 0.0021889822 -0.00083969353
000050 ee 14 c9 3b d7 38 bd bb 13 03 75 3b 1c da 45 3b
       0.006136528 -0.005774598 0.0037385866 0.0030189818
000060 8e 4c ab 3b d2 52 cb ba f0 31 9c 3a ab 77 9e 3b
       0.005227632 -0.0015512353 0.0011916738 0.004836043
000070 38 45 1b 3b 9a 92 89 39 6c 67 be ba 0d 2b f4 39
       0.002369238 0.00026239903 -0.0014526672 0.00046571382
000080 de 5f 17 bb ec 19 37 3a 5b cb 07 3b 49 3b 28 bb
       -0.0023097913 0.00069847587 0.0020720575 -0.0025670102
000090 03 96 38 3b 81 d0 15 ba ed 23 83 ba f5 16 98 bb
       0.0028165586 -0.00057149684 -0.0010005214 -0.0046414086
0000a0 81 9c ee bb c5 59 8e 3b 31 e8 af ba 2d b5 77 39
       -0.0072818403 0.0043441975 -0.0013420639 0.00023623249
0000b0 11 62 e5 3a fd 86 48 3c 28 32 51 3b c3 60 81 3b
       0.001750054 0.012239215 0.0031920765 0.0039483025
0000c0 1c 91 96 3b e8 c1 0b 3c 5d 63 e7 3b 4e 9b 8f 3b
       0.004594935 0.008530118 0.0070614056 0.0043825274
0000d0 90 4c 35 bc ed 9a 9a 3a 4c 9d 4e 3b 96 58 9d 3b
       -0.011065617 0.0011795439 0.0031526862 0.00480182
0000e0 92 bf 69 bb d5 70 91 b9 7f 35 23 bb 5f 0a 20 3c
       -0.0035667163 -0.00027740622 -0.0024903712 0.009768098
0000f0 0c 43 03 3b e1 e1 8c b9 fc 23 80 bb cb fb 17 3c
       0.0020028977 -0.00026871174 -0.0039105397 0.009276341
000100 4d cf 9d ba 56 a6 c7 3b d4 43 7d 3b 85 28 04 ba
       -0.001203993 0.006092827 0.0038645165 -0.0005041438
000110 72 49 37 3b a9 ee 44 3a dc 64 08 bb 40 7f ef 39
       0.002796736 0.000751237 -0.002081207 0.0004568044
000120 2b f2 ea ba 58 b5 ea bb 5a 86 47 ba b2 89 3b bb
       -0.0017924955 -0.007162731 -0.00076112675 -0.0028616008
000130 6c ba 03 3c 71 0e 17 3b 58 43 f4 39 ca 7b ce 3a
       0.008040052 0.002304938 0.00046589482 0.0015753445
000140 5c 76 aa 3b d3 f0 9f 3b 32 76 bf b8 59 5c 64 3b
       0.005202098 0.0048810034 -9.129605e-05 0.0034845083
000150 82 4d 95 3a ad 66 4b 3b 27 15 a1 bb 27 ba 12 3b
       0.0011390897 0.0031036541 -0.0049158516 0.0022388787
000160 44 37 95 bb 59 f4 bd bb 51 0b bf b9 08 15 1e ba
       -0.0045537073 -0.005796951 -0.0003643879 -0.00060303556
000170 aa 6a 3c 3a 9a 16 ce 3a d9 67 50 ba dd e9 ad 3a
       0.0007187525 0.0015723289 -0.0007950045 0.0013268549
000180 6f e3 92 ba ff 24 97 3b e1 5f ff 39 68 ac 96 bb
       -0.0011206697 0.0046125646 0.00048708825 -0.004598189
000190 c2 e7 2c ba 52 ee f2 3b 79 83 ab 39 98 25 75 3b
       -0.0006595814 0.007413664 0.00032713616 0.003740644
0001a0 6a c2 c5 3a 0b d4 a8 3b 7f b6 93 3b 96 bb fd 3b
       0.0015087847 0.0051522306 0.004507839 0.0077433093
0001b0 3d 45 e2 3a 19 3d 09 3b 03 77 f0 3b ff 2e ea b9
       0.0017263066 0.0020940958 0.007338406 -0.00044666973
0001c0 e2 c8 8b 3b 99 22 9b ba 6d 14 66 bb 6a fe 69 ba
       0.0042658905 -0.0011835872 -0.003510739 -0.0008926155
0001d0 bc 46 a0 bb f0 0b c6 ba 49 62 1e bb b3 6b f1 3a
       -0.0048912447 -0.0015109759 -0.002416747 0.0018418938
0001e0 26 37 31 3b e0 4e 45 bb 0c 5b 9b b9 f4 c9 79 3b
       0.0027040928 -0.0030106828 -0.0002963174 0.0038114758
0001f0 06 ed 38 3b 12 6e c0 3b 05 2a 31 3b 18 f6 c2 3a
       0.002821745 0.0058724964 0.0027033102 0.0014874367
000200 c8 f7 51 ba e9 4c 80 bb 05 01 a6 bb 07 dd ea ba
       -0.00080096396 -0.0039154184 -0.0050660395 -0.0017918654
000210 09 94 a0 b9 e0 62 ff 3a 64 ff be b8 a8 fc c2 3a
       -0.00030627873 0.0019484423 -9.107476e-05 0.0014876323
000220 65 a3 a6 3b 81 4f 18 3c d0 25 d0 3a eb 07 98 3a
       0.005085396 0.009296299 0.001588041 0.001159904
000230 1e 39 38 3a 16 6d d8 3b 57 76 bd bb fa 0e 97 3a
       0.0007027554 0.006604801 -0.0057819295 0.0011524849
000240 29 52 92 bb d0 c1 da b9 70 ba 7b 3b 94 ba 0d bb
       -0.0044653607 -0.00041724602 0.0038410686 -0.0021626102
000250 d3 65 92 ba 60 ac c5 ba a8 02 cc 39 ab 23 39 3b
       -0.0011169262 -0.0015081279 0.0003891189 0.002825002
000260 3a ec 69 3a 87 cc 24 3b 70 92 e7 3a c3 2c b0 ba
       0.0008923445 0.0025146322 0.0017667543 -0.0013441074
000270 78 ed 6b bb 44 81 eb bb a9 99 3e 3b 86 ed 17 bb
       -0.0035999697 -0.0071870405 0.0029083288 -0.0023182346
000280 84 fc f1 3b 62 8a 37 3c 6a ae 97 39 88 04 71 ba
       0.0073848385 0.011202427 0.00028930913 -0.00091940956
000290 18 61 4b 3b a7 79 b6 38 b7 82 05 3a 7b df 18 bb
       0.0031033214 8.701096e-05 0.00050930254 -0.0023326564
0002a0 46 60 13 3a 71 3e c6 3b b6 a7 4d 39 a3 83 f0 3a
       0.0005621951 0.006049924 0.000196128 0.0018349778
0002b0 c7 a7 a0 3b 53 32 13 bb 10 f4 56 3c b6 f7 37 ba
       0.004902813 -0.0022460415 0.0131197125 -0.0007017808
0002c0 60 d5 0a bb 57 83 c0 bb 5f af 8f 3a 08 54 c2 bb
       -0.002118431 -0.005875032 0.0010962299 -0.0059304275
0002d0 7b 6f a8 ba 87 c9 b4 bb 26 b9 13 bb b6 b1 65 3a
       -0.0012850607 -0.005517188 -0.0022540777 0.0008762138
0002e0 c1 5a 3c bb 44 de ab bb 05 eb ac 3a dc 48 62 b9
       -0.0028740617 -0.005245002 0.00131926 -0.00021580182
0002f0 0f 89 86 b9 3f 62 91 ba e7 08 80 3c 56 ca 6e bb
       -0.00025660588 -0.0011091902 0.015629245 -0.003643652
000300 83 7d de bb 34 95 a7 bb d9 18 c6 bb d3 11 48 ba
       -0.0067898645 -0.005114222 -0.0060454425 -0.00076320505
000310 b1 40 65 3b c7 3d ce 3a 1a da 75 3a 97 90 87 bb
       0.0034981186 0.0015734964 0.0009378508 -0.0041371095
000320 e9 a9 6e 3b db fb 05 bb 68 0d 5c 3b b5 90 05 3b
       0.0036417192 -0.0020444307 0.0033577327 0.0020380442
000330 9b cf e4 ba cb c0 6b 3c 73 de ec 3b c8 66 22 bb
       -0.0017456891 0.014389227 0.0072286665 -0.00247805
000340 1b c8 18 3b 45 f3 e1 3a 1b c7 23 3b 2b d9 13 bb
       0.0023312632 0.0017238638 0.0024990502 -0.0022559862
000350 e0 69 24 bb e2 31 99 3b 60 16 d5 3b c1 6c eb b9
       -0.002508752 0.004675136 0.0065029114 -0.0004490372
000360 50 d4 bf bb f7 27 d6 3b b9 9f 2e 3b 0a b4 8f bb
       -0.005854167 0.006535526 0.0026645495 -0.004385476
000370 98 80 17 3b 5d b5 78 bb 38 64 b9 3a 56 dd be ba
       0.002311742 -0.0037949898 0.0014144247 -0.0014561813
000380 94 3a e4 b9 69 be ba b9 5d df 7f 3a 75 21 c1 3a
       -0.00043531193 -0.0003561855 0.0009760762 0.0014734702
000390 89 41 67 ba 6d e9 07 3c 7c c8 fe 39 fa eb e2 3b
       -0.0008821716 0.008295399 0.00048596028 0.0069251033
0003a0 14 5d 5d 3b c1 fb 32 3c 65 b3 e3 3a 7a c4 a7 3a
       0.0033777403 0.010924281 0.0017372189 0.0012799643
0003b0 3c ab c2 bb 44 5b 84 3a 91 f9 dc bb 88 3b ec 38
       -0.005940823 0.0010098 -0.006743618 0.000112644455
0003c0 fa 90 84 3b 24 fd 8c 3b f4 d3 3f bb d3 aa ce ba
       0.004045603 0.0043026377 -0.002927062 -0.0015767462
0003d0 e8 3d 32 3a 25 53 cc 3b 6e 69 f9 3a fa 1a b0 bb
       0.0006799386 0.0062354975 0.0019028613 -0.0053743096
0003e0 18 a7 9d 3b 1b ca 79 3b ed c0 df 3a d7 14 75 3c
       0.004811179 0.003811485 0.0017071046 0.014958582
0003f0 05 5c 7c 3a b5 9b 91 bb e4 4c c8 3b e9 9f 2b bb
       0.0009626749 -0.0044436106 0.0061126817 -0.0026187843

encoder.4.weight f4 [256]
000000 a9 03 74 3f c2 7b 87 3f 0f f8 7a 3f e1 1a 81 3f
       0.95318085 1.0584643 0.9803476 1.0086328
000010 d2 92 80 3f c0 f4 8b 3f 7d 6c 7c 3f c1 03 7c 3f
       1.0044806 1.0934067 0.9860304 0.9844323
000020 71 dd 82 3f d1 29 83 3f 99 f1 80 3f 11 e7 7b 3f
       1.0223829 1.0247136 1.007373 0.98399454
000030 de 29 87 3f 5c 04 7a 3f d7 5e 81 3f c7 38 79 3f
       1.0559652 0.976629 1.0107068 0.9735226
000040 96 ab 7c 3f 22 6e 7e 3f 1e bf 87 3f 82 de 7a 3f
       0.9869932 0.993868 1.0605199 0.9799577
000050 10 75 81 3f 53 9a 7b 3f ed 24 80 3f 23 d0 7c 3f
       1.011385 0.98282355 1.0011269 0.9875509
000060 95 3f 92 3f 86 d3 81 3f f6 31 8a 3f 77 47 88 3f
       1.1425654 1.0142677 1.0796497 1.0646809
000070 63 42 79 3f c6 8f 7c 3f 12 70 7e 3f d9 5a 8d 3f
       0.97366923 0.9865688 0.99389756 1.104335
000080 a7 f9 7d 3f 06 81 7f 3f 40 cf 81 3f ee 29 7b 3f
       0.99209064 0.9980625 1.0141373 0.98110855
000090 cf fb 8b 3f a3 bd 7b 3f eb 21 80 3f 56 09 7b 3f
       1.0936221 0.9833624 1.0010351 0.9806112
0000a0 f0 d8 7b 3f 03 22 8f 3f 93 17 73 3f 51 71 83 3f
       0.98377895 1.1182255 0.94957846 1.0268956
0000b0 c3 7e 82 3f 94 02 8b 3f 2f a0 7f 3f 81 62 84 3f
       1.0194935 1.0860162 0.99853796 1.0342561
0000c0 f7 86 82 3f 3f 39 89 3f b1 8f 83 3f c1 c6 89 3f
       1.0197438 1.0720595 1.0278226 1.076378
0000d0 6b 44 79 3f 17 13 7c 3f be 90 7e 3f 43 e6 81 3f
       0.9737002 0.9846663 0.9943961 1.0148395
0000e0 b6 58 7a 3f 2d 8a 82 3f d8 96 80 3f a4 94 84 3f
       0.9779161 1.0198418 1.0046034 1.0357862
0000f0 80 e7 8b 3f a6 70 7a 3f e2 c0 82 3f 11 40 85 3f
       1.0930023 0.9782814 1.0215113 1.0410177
000100 af 2c 7e 3f 67 61 89 3f a6 3f 81 3f 2c 84 7a 3f
       0.9928693 1.073285 1.0097549 0.9785793
000110 32 cd 85 3f 22 bf 81 3f 26 72 76 3f 04 b7 7f 3f
       1.0453246 1.0136454 0.96267927 0.99888635
000120 d2 ca 7b 3f ac e9 76 3f d1 99 7f 3f 0c 36 82 3f
       0.98356354 0.96450305 0.9984408 1.0172744
000130 e8 70 88 3f 2a 7b 89 3f b6 1c 7c 3f a4 ca 83 3f
       1.0659456 1.0740712 0.9848131 1.0296216
000140 1c 99 90 3f c8 b5 8f 3f d1 51 7f 3f 16 04 7e 3f
       1.1296725 1.122735 0.99734217 0.99224985
000150 38 6c 7a 3f 27 f4 83 3f bb 7e 79 3f 09 58 7f 3f
       0.9782138 1.0308884 0.97459 0.99743706
000160 92 15 81 3f b4 bc 7b 3f 4b 6b 80 3f f2 aa 7b 3f
       1.0084708 0.98334813 1.0032743 0.98307717
000170 de 63 7d 3f 25 02 86 3f b7 ef 7e 3f 3d 89 80 3f
       0.9898051 1.0469404 0.99584526 1.0041882
000180 e7 1c 7e 3f 69 6c 89 3f e3 2d 80 3f 45 70 7b 3f
       0.9926285 1.0736209 1.0014004 0.98218185
000190 0d 6c 80 3f a6 ce 85 3f 64 38 81 3f ee e2 84 3f
       1.0032974 1.0453689 1.0095334 1.0381753
0001a0 8f a0 83 3f 14 e0 81 3f 17 c7 85 3f f0 2d 8f 3f
       1.0283374 1.0146508 1.0451382 1.1185894
0001b0 36 2f 81 3f d2 c1 80 3f d9 8a 83 3f e7 72 7f 3f
       1.0092533 1.0059149 1.0276748 0.997847
0001c0 d4 35 78 3f 89 77 79 3f 96 70 80 3f 8f 24 7d 3f
       0.96957135 0.9744802 1.0034359 0.9888391
0001d0 a2 1a 81 3f e1 42 81 3f 80 d4 82 3f 70 49 89 3f
       1.0086253 1.0098535 1.02211 1.0725536
0001e0 55 8c 7d 3f 42 11 7b 3f d7 f8 7f 3f 90 06 84 3f
       0.99042255 0.9807321 0.99989074 1.0314503
0001f0 c6 a4 81 3f c5 b7 80 3f 27 4f 78 3f 71 af 7e 3f
       1.012841 1.0056082 0.96995777 0.9948645
000200 76 20 7d 3f 20 db 77 3f 84 9c 89 3f f9 85 82 3f
       0.98877656 0.96818733 1.075089 1.0197135
000210 6b e1 7b 3f 7d d1 80 3f ce be 7c 3f 43 d6 7f 3f
       0.98390836 1.0063931 0.98728645 0.9993631
000220 d7 e1 80 3f 7f 14 8a 3f cd c1 80 3f d1 5d 84 3f
       1.0068921 1.0787505 1.0059143 1.034113
000230 52 99 79 3f 2e 80 7f 3f d7 3d 80 3f 5d be 81 3f
       0.97499573 0.9980496 1.0018872 1.0136219
000240 84 09 8a 3f 32 c5 7b 3f 86 42 81 3f 6f 6a 7c 3f
       1.0784154 0.9834777 1.0098426 0.98599905
000250 99 62 7f 3f ad 03 77 3f cf 80 7b 3f c5 8e 7a 3f
       0.99759823 0.96489984 0.9824342 0.978741
000260 d4 36 7e 3f 49 84 81 3f 27 8e 7b 3f 7e c3 8f 3f
       0.9930241 1.0118495 0.9826378 1.1231534
000270 96 38 7b 3f eb 11 7f 3f 40 21 82 3f bd 47 85 3f
       0.9813322 0.99636716 1.0166397 1.0412518
000280 47 99 88 3f de c1 88 3f ac 13 78 3f a5 ed 7b 3f
       1.0671777 1.0684164 0.96905017 0.9840949
000290 e3 cc 81 3f c1 bf 7f 3f bd e8 7e 3f ce dd 80 3f
       1.0140651 0.9990197 0.9957388 1.006769
0002a0 f4 94 7f 3f 80 06 82 3f f0 2f 7c 3f 64 f3 7c 3f
       0.9983666 1.0158234 0.98510647 0.98808885
0002b0 b4 45 87 3f 27 c7 77 3f 7a c0 89 3f 3b 00 7e 3f
       1.0568147 0.9678826 1.0761864 0.992191
0002c0 6c 5c 7b 3f c2 b5 7b 3f 3c 64 80 3f 4d 7f 79 3f
       0.981879 0.98324215 1.0030589 0.9745987
0002d0 a6 81 7e 3f 10 76 7c 3f 6d c4 7c 3f d7 c4 81 3f
       0.9941658 0.9861765 0.9873722 1.0138196
0002e0 09 bd 7a 3f a8 fa 79 3f d4 c2 80 3f 8d 65 81 3f
       0.97944695 0.97648096 1.0059457 1.0109116
0002f0 22 07 7e 3f 94 0f 6b 3f 74 2a 82 3f b8 db 81 3f
       0.99229634 0.91820645 1.0169206 1.0145178
000300 b3 39 7a 3f 60 bf 80 3f a8 fa 7b 3f 70 90 81 3f
       0.9774429 1.0058403 0.98429346 1.0122204
000310 f7 3c 87 3f 00 04 86 3f a8 a6 89 3f f7 08 7a 3f
       1.056548 1.0469971 1.0753984 0.9766993
000320 7b f0 84 3f bc 4e 80 3f c1 20 81 3f a3 9a 82 3f
       1.0385889 1.0024028 1.0088121 1.0203441
000330 52 d5 7f 3f af 6b 88 3f b4 b6 86 3f 21 71 7f 3f
       0.99934876 1.0657862 1.0524507 0.99781996
000340 3a b7 7e 3f a8 f3 83 3f 3d bf 88 3f e5 9c 7c 3f
       0.9949833 1.0308733 1.0683361 0.986769
000350 aa d9 7a 3f 15 0d 74 3f 97 ee 83 3f 1a 57 7d 3f
       0.9798838 0.9533246 1.0307187 0.9896103
000360 99 8f 7f 3f bc c4 80 3f bb b5 83 3f 44 71 7a 3f
       0.9982849 1.0060039 1.0289835 0.9782908
000370 5e c7 81 3f 94 a6 7e 3f a3 4a 81 3f aa 5f 7d 3f
       1.0138967 0.9947293 1.0100902 0.98974097
000380 38 15 7f 3f f9 2a 7d 3f 02 65 81 3f 57 60 81 3f
       0.9964175 0.98893696 1.010895 1.0107526
000390 f3 90 88 3f a7 73 87 3f 68 e1 81 3f 88 96 81 3f
       1.0669235 1.0582169 1.0146914 1.0124063
0003a0 30 fa 89 3f 17 79 87 3f 8b c0 7c 3f fd d9 7e 3f
       1.0779476 1.0583829 0.987313 0.99551374
0003b0 b6 5c 7a 3f 6d 15 80 3f b9 f6 7a 3f d8 dc 87 3f
       0.97797716 1.0006539 0.9803272 1.0614271
0003c0 7d 1c 85 3f 9f 76 86 3f ae c6 7a 3f 30 84 7d 3f
       1.0399319 1.050495 0.9795941 0.9902983
0003d0 1c f2 7a 3f de aa 8a 3f cd c2 80 3f 3a 57 7b 3f
       0.9802568 1.0833395 1.0059448 0.9817997
0003e0 bb 9d 81 3f 40 0e 7e 3f fb 04 7e 3f eb b8 88 3f
       1.012626 0.99240494 0.9922635 1.0681432
0003f0 b4 a5 81 3f ba 5e 84 3f 07 14 85 3f d5 2d 7b 3f
       1.0128694 1.0341408 1.0396737 0.9811681

encoder.4.bias f4 [256]
000000 51 bc 46 bd 8b 9c a6 bc 93 3c f3 bc d5 1e 03 bd
       -0.048519436 -0.020338317 -0.02969197 -0.032011826
000010 d9 28 0b bd 6c bb 89 bc 2e 2a e9 bc ce 19 20 bd
       -0.033974502 -0.016813003 -0.028462496 -0.03908711
000020 de c0 e2 bc e4 94 fc bc cb a1 21 bd 0e e6 2a bd
       -0.027679857 -0.030832715 -0.03946094 -0.041723303
000030 92 d1 d9 bc 0e d4 1d bd e0 55 0e bd f2 a0 00 bd
       -0.026589189 -0.03853231 -0.034749866 -0.03140349
000040 17 d5 ed bc bf 5a 0f bd 61 26 d6 bc 58 b7 fc bc
       -0.029032273 -0.03499865 -0.026141347 -0.030849144
000050 e9 c0 c7 bc d4 66 01 bd ac 83 b9 bc de 7b df bc
       -0.024383979 -0.031592205 -0.022645794 -0.027280744
000060 d2 1e 01 bd 1e 2b e5 bc 86 d7 c3 bc 0d 68 21 bd
       -0.031523533 -0.027974661 -0.02390648 -0.03940587
000070 3f 1b e4 bc 50 c4 b4 bc a2 71 9a bc c7 d2 cf bc
       -0.027845023 -0.022066265 -0.018853012 -0.025369061
000080 62 df 6f bd 56 2c a0 bc 57 c8 8d bc 52 9a 07 bd
       -0.058562644 -0.019552391 -0.017307444 -0.033106156
000090 7d 14 d3 bc 39 2b 24 bd 82 b4 0e bd c7 f9 05 bd
       -0.025766606 -0.040080283 -0.034840114 -0.03270891
0000a0 00 45 0c bd 0b a1 1a bd d3 02 29 bd 5b 02 15 bd
       -0.03424549 -0.03775124 -0.04126246 -0.0363792
0000b0 1c dc af bc 42 33 6f bc 38 d7 3c bd bf 5b d4 bc
       -0.021467261 -0.014599623 -0.046103686 -0.025922654
0000c0 e2 5e b6 bc 84 d7 6f bc 25 47 da bc 5f 85 ae bc
       -0.02226204 -0.014638785 -0.026645252 -0.02130383
0000d0 dd 07 11 bd 31 a2 b8 bc 85 b4 92 bc 96 8a 5e bc
       -0.03540789 -0.022538276 -0.017908344 -0.013582846
0000e0 4c 26 1f bd 47 89 0d bd 72 e4 d9 bc f9 53 e3 bc
       -0.038854882 -0.034554746 -0.026598189 -0.027750002
0000f0 47 5e bd bc 56 71 06 bd 07 ad 42 bd 6b 8b 21 bd
       -0.023116244 -0.03282293 -0.047528293 -0.0394396
000100 ae 39 26 bd 34 16 85 bc c3 76 a4 bc 8f 4a 08 bd
       -0.04058235 -0.016245939 -0.020076161 -0.03327423
000110 2a 93 b1 bc 27 fe a7 bc 51 ef 3d bd 0b 04 aa bc
       -0.021676619 -0.020506931 -0.046370808 -0.020753881
000120 3c ac c6 bc fe 42 0f bd ab 5e 9d bc a2 eb 06 bd
       -0.02425205 -0.034975998 -0.01921018 -0.03293956
000130 66 04 9f bc f8 40 b2 bc 4e 3a cd bc e7 17 00 bd
       -0.019411277 -0.021759495 -0.025052216 -0.031272795
000140 cc ec cc bc bb bb da bc b4 15 aa bc 20 8c a5 bc
       -0.025015257 -0.026700845 -0.020762302 -0.020208418
000150 bc 47 08 bd be 05 ba bc 07 ea 11 bd e1 eb c7 bc
       -0.033271536 -0.022707816 -0.035623576 -0.024404468
000160 4c 15 1c bd 78 72 fa bc 94 a6 35 bd 4e dc c8 bc
       -0.038106248 -0.030572161 -0.044348314 -0.024519112
000170 ac f1 1b bd 60 69 c5 bc c0 dc eb bc 46 23 7d bc
       -0.038072273 -0.024098098 -0.028791785 -0.015450304
000180 54 a0 bb bc 85 1a 13 bd 4a c4 a1 bc 81 f1 0b bd
       -0.022903599 -0.035913963 -0.019746918 -0.034165863
000190 db a0 d0 bc 5b af d9 bc 7f 88 e7 bc 6f 13 84 bc
       -0.025467327 -0.026572874 -0.028263329 -0.016122548
0001a0 1b d3 db bc 94 6c 0a bd 4a 5b 02 bd 9c 99 90 bc
       -0.026834061 -0.033794954 -0.03182534 -0.017651372
0001b0 f1 79 0a bd 2b 90 2a bd 69 c7 0c bd a6 0f eb bc
       -0.0338077 -0.041641396 -0.03436986 -0.028693985
0001c0 3a 7f 58 bd ef 4a 21 bd 7c 7a 1a bd 93 e8 e8 bc
       -0.052855708 -0.039378103 -0.037714466 -0.028431213
0001d0 39 e4 20 bd 95 f2 08 bd 7e 0b fe bc 83 18 a8 bc
       -0.03928015 -0.03343447 -0.03101134 -0.0205195
0001e0 18 44 f2 bc dc 89 03 bd 33 26 fc bc 74 3d 83 bc
       -0.029573485 -0.032113895 -0.030779934 -0.016020514
0001f0 53 fb cc bc cc cc af bc 40 20 15 bd 69 56 a0 bc
       -0.025022184 -0.02145996 -0.03640771 -0.019572454
000200 c1 09 eb bc 44 a5 12 bd 04 3c 55 bd 28 7d db bc
       -0.028691174 -0.03580214 -0.05205919 -0.026793078
000210 5f 2b ce bc 40 6c 8c bc c8 c0 da bc 10 7c 84 bc
       -0.025167165 -0.017141461 -0.026703253 -0.016172439
000220 2f cd 8f bc 7f 05 97 bc 40 17 d2 bc 25 69 e7 bc
       -0.017553894 -0.018435238 -0.025645852 -0.028248379
000230 66 2a 00 bd 4f 44 c7 bc b9 24 40 bd d4 f8 e1 bc
       -0.031290434 -0.024324564 -0.04691002 -0.02758447
000240 57 f2 5f bd e2 1d ee bc 11 6d 66 bc 22 e7 1f bd
       -0.054674473 -0.029066984 -0.014064089 -0.039038785
000250 02 ad f0 bc 46 f6 12 bd d4 ce b7 bc 66 39 15 bd
       -0.029379372 -0.035879396 -0.02243749 -0.036431693
000260 a3 b8 97 bc 89 99 27 bd 45 c6 0d bd 02 61 1e bd
       -0.018520659 -0.040917907 -0.034612913 -0.038666733
000270 0a 2a cd bc aa 1a e9 bc 46 65 31 bd bc 75 78 bd
       -0.02504446 -0.028455097 -0.043309473 -0.060659155
000280 0f 2b 3d bc 43 ab ac bc eb 36 f3 bc f2 2e 12 bd
       -0.0115459105 -0.021077758 -0.029689273 -0.0356893
000290 fb 24 97 bc 4b 1c c7 bc fe f2 c1 bc 31 18 f0 bc
       -0.01845025 -0.024305483 -0.023675438 -0.02930841
0002a0 6e 42 b7 bc 6d 5c a6 bc a2 e2 d2 bc 6e 34 03 bd
       -0.022370543 -0.020307744 -0.025742833 -0.032032423
0002b0 eb 8c a0 bc 0e e0 34 bd ac da ae bc 69 a5 ad bc
       -0.019598445 -0.044158988 -0.021344505 -0.021197038
0002c0 12 d3 d9 bc ae 7d c8 bc df 98 b4 bc a0 0e fd bc
       -0.026589904 -0.024473991 -0.02204555 -0.030890763
0002d0 48 55 e6 bc 48 e8 cd bc 8e 23 ff bc a2 18 cc bc
       -0.028116837 -0.025135174 -0.031144883 -0.02491409
0002e0 5b 39 e2 bc de 45 d3 bc 89 4d 00 bd 30 8e b7 bc
       -0.02761524 -0.025790151 -0.031323943 -0.022406667
0002f0 30 43 07 bd 40 8d 8f bd 37 7c 2f bd fa 0f 0c bd
       -0.03302306 -0.07009363 -0.04284307 -0.034194924
000300 4c 53 ec bc b0 20 fb bc 72 3b e8 bc 5d 61 de bc
       -0.028848313 -0.030655235 -0.028348658 -0.027146036
000310 e7 fb de bc 0a c0 fe bc ed e2 36 bd b6 5a f2 bc
       -0.027219726 -0.03109743 -0.044650007 -0.02958427
000320 a2 25 ae bc 2b 06 b7 bc 6b 4b 40 bc 05 c4 c0 bc
       -0.02125818 -0.022341808 -0.011736731 -0.02353097
000330 e4 36 c3 bc 17 22 96 bc b2 10 f0 bc 5b af a4 bc
       -0.023829885 -0.018326802 -0.029304836 -0.020103147
000340 ac 2d bd bc 79 1f f2 bc 55 da af bc 48 3d fe bc
       -0.023093067 -0.029556023 -0.021466414 -0.03103508
000350 f3 1f e7 bc e0 f0 0e bd 5e 16 59 bc d8 a5 cd bc
       -0.028213477 -0.034897685 -0.013249962 -0.025103495
000360 ed b7 63 bd 67 fa 9f bc 00 76 c4 bc c9 2a 14 bd
       -0.055595327 -0.01952858 -0.023982048 -0.036173616
000370 95 77 c4 bc 9e 36 c1 bc a6 f4 13 bd 2c b3 ff bc
       -0.023982802 -0.023585614 -0.036121987 -0.031213365
000380 3f 76 e4 bc ed c3 db bc 4f f0 a7 bc c9 34 a5 bc
       -0.027888415 -0.026826823 -0.02050033 -0.020166771
000390 36 fb 57 bd 37 51 34 bc 67 6b 05 bd a2 fc ba bc
       -0.052729808 -0.011005691 -0.03257313 -0.022825543
0003a0 49 3d ef bc c3 d1 61 bc 60 b5 45 bd ab fa 87 bc
       -0.029204028 -0.013782921 -0.048268676 -0.01659902
0003b0 90 2f 0f bd fd 01 bd bc 23 c2 ff bc 1a dd 02 bd
       -0.03495747 -0.023072237 -0.031220501 -0.03194914
0003c0 2f 42 9f bc c0 4e e8 bc 86 6c c0 bc 13 15 de bc
       -0.019440738 -0.028357863 -0.023489248 -0.027109658
0003d0 45 e6 c9 bc ff 71 d8 bc e2 64 82 bc 40 6a 17 bd
       -0.024645934 -0.026421545 -0.015917245 -0.036966562
0003e0 03 fb fc bc c1 cc ce bc 62 c3 be bc fd 37 dc bc
       -0.03088141 -0.025244119 -0.023286525 -0.026882166
0003f0 6d 23 2f bd 7d d1 83 bd 4f c4 d5 bc 7d 5a 29 bd
       -0.042758394 -0.06436441 -0.026094584 -0.041346062
