modelparameter/autoencoder_lognormal8_1.pth (torch, 762367 bytes, 36 tensors)

encoder.0.weight f4 [128, 10]
0	0x3e560d52	0.20903519
1	0xbd75eb89	-0.060039077
2	0x3d9fbbbe	0.07799481
3	0x3e0f714c	0.14008063
4	0x3e1de7f1	0.1542051
5	0x3d5f5667	0.05452576
6	0x3daa964c	0.08329448
7	0x3db71146	0.089388415
8	0xbe2e9f0d	-0.1705286
9	0xbcde03bd	-0.027101392
10	0xbdc7e12c	-0.09759745
11	0x3dfa55c2	0.12223388
12	0x3e58c8b9	0.2117032
13	0x3de52d59	0.1119029
14	0xbe671ed7	-0.22570358
15	0xbdd9b5f5	-0.10630409
16	0x3e1dac21	0.15397693
17	0x3dfc8375	0.12329761
18	0x3d84f9d8	0.064929664
19	0xbaf86609	-0.0018951307
20	0x3da6c961	0.08143879
21	0xbe12c307	-0.1433221
22	0x3e8c1d2a	0.27366
23	0x3cb29f4d	0.021804476
24	0x3d2b9855	0.041893322
25	0xbdd481f8	-0.10376352
26	0xbdb139b4	-0.08653584
27	0x3deb962f	0.115032546
28	0xbe50b76e	-0.20382473
29	0xbe410697	-0.1885017
30	0xbdf4bd9c	-0.119502276
31	0x3e344c95	0.17607339
32	0x3d89bf45	0.06725935
33	0xbc2dffc2	-0.010620059
34	0x3df8177a	0.12113853
35	0xbd5bf701	-0.05370236
36	0xbe016770	-0.12637115
37	0xbe122fde	-0.14276072
38	0xbe57f56e	-0.21089718
39	0x3e32b95f	0.17453526
40	0x3e3d6cdc	0.18498558
41	0xbea2934d	-0.31753007
42	0xbe1a7bd4	-0.15086299
43	0xbcec0f6a	-0.028815944
44	0x3de788b5	0.11305372
45	0x3db1276f	0.086500995
46	0x3e026333	0.12733154
47	0xbdff83c1	-0.12476302
48	0xbe2b46bd	-0.16726203
49	0x3da1cb92	0.07900156
50	0x3e086b24	0.13322121
51	0x3c455320	0.012043744
52	0x3e3120df	0.17297696
53	0x3e3f96ab	0.18709819
54	0xbd0cd686	-0.034384273
55	0x3e33eb47	0.1757022
56	0xbd9c53ba	-0.07633157
57	0x3e11ecd1	0.14250495
58	0xbd904d51	-0.07045997
59	0xbdb16542	-0.086618915
60	0x3e3c2780	0.18374443
61	0x3d9f66f1	0.077833064
62	0x3bd06d65	0.006360697
63	0xbe0430c9	-0.12909235
64	0x3d02ce68	0.031935126
65	0xbcdec33b	-0.027192703
66	0x3e2126db	0.15737478
67	0x3dd15cfb	0.10222813
68	0xbcd3389f	-0.025783835
69	0xbe0ca33e	-0.13734147
70	0x3e33448c	0.17506617
71	0x3cf16d63	0.029471105
72	0xbdfd8cb1	-0.123803504
73	0xbe693b4a	-0.22776523
74	0xbdabdfd3	-0.083923005
75	0xbe322e2f	-0.1740043
76	0xbe71a77f	-0.23599051
77	0xbd032054	-0.032013252
78	0xbe109452	-0.1411908
79	0x3e1de460	0.1541915
80	0x3dbcf5f3	0.092265986
81	0xbe52d511	-0.20589091
82	0xba9b4a55	-0.0011847714
83	0xbe388d79	-0.18022718
84	0xbe2deb28	-0.16984236
85	0xbe11a71c	-0.14223903
86	0x3e23884b	0.1596996
87	0x3d8daef3	0.069181345
88	0xbde415b6	-0.111369535
89	0x3e032aa8	0.12809241
90	0x3cdd4311	0.027009519
91	0x3e523a1a	0.20529976
92	0x3e2b88e3	0.16751437
93	0x3e026761	0.12734748
94	0xbc8c06e5	-0.017093131
95	0x3c416fab	0.011806409
96	0x3d866801	0.06562806
97	0xbe2b3e2a	-0.16722932
98	0xbe455743	-0.19271569
99	0x3e03b266	0.12861022
100	0xbdd5ae5c	-0.10433647
101	0xbdf4bf94	-0.11950603
102	0xbd71f903	-0.059075367
103	0xbe61bf21	-0.22045566
104	0xbe03b36f	-0.12861417
105	0xbe4df78a	-0.2011396
106	0xbded3143	-0.115816616
107	0x3d08ef4e	0.033431344
108	0xbe5e4607	-0.21706401
109	0x3e76a9d1	0.24088217
110	0xbe716489	-0.23573507
111	0x3e27ee54	0.16399509
112	0xbd157302	-0.036486633
113	0xbcb5f384	-0.022210844
114	0x3d73d6b0	0.059530914
115	0x3e2160ea	0.15759626
116	0xbe87e5db	-0.26542553
117	0x3cd95ebc	0.02653443
118	0x3dbbe4f9	0.091745324
119	0x3cb77330	0.022393793
120	0xbe009414	-0.12556487
121	0x3d767961	0.06017435
122	0xbe09699f	-0.13419197
123	0xbdd37ae7	-0.10326176
124	0x3c75bdcf	0.014998867
125	0x3dfb7b64	0.12279394
126	0x3df85842	0.12126209
127	0x3e2c62b6	0.1683453
128	0x3e431d85	0.1905423
129	0xbe511df5	-0.20421584
130	0x3ca7aadc	0.020467214
131	0x3ddcbb89	0.10777957
132	0x3c34c691	0.01103367
133	0x3dc75dc5	0.09734682
134	0xbe3d84d0	-0.18507695
135	0x3e055fd4	0.13024837
136	0x3e22d56c	0.15901726
137	0xbd510626	-0.051031254
138	0xbbe4715d	-0.006971522
139	0x3d2ac382	0.041690357
140	0x3dfbea65	0.123005666
141	0x3e5088d3	0.20364694
142	0x3e12359a	0.1427826
143	0xbdcc582d	-0.09977756
144	0xbe0d2232	-0.13782576
145	0xbe02c6f6	-0.1277121
146	0xbe13171c	-0.14364284
147	0x3dbd5440	0.09244585
148	0xbd9ddfb3	-0.07708683
149	0x3dbb604c	0.091492265
150	0xbe7ef3e5	-0.24897726
151	0x3e24841c	0.1606602
152	0x3e2a0802	0.16604617
153	0x3d981c39	0.07427258
154	0xbdf80f67	-0.12112313
155	0x3d23f766	0.04003086
156	0xbe70ddd8	-0.23522127
157	0x3c950ec7	0.018195523
158	0xbe5ccfcc	-0.21563643
159	0x3d25871c	0.040412053
160	0x3d86b979	0.06578345
161	0x3d90b3de	0.07065557
162	0x3c543f32	0.01295452
163	0x3dc557d7	0.09635895
164	0x3e0c721a	0.13715401
165	0xbe0c3842	-0.13693336
166	0x3dc070d5	0.09396521
167	0x3cb832cd	0.022485161
168	0x3e23a7e6	0.15982017
169	0xbda14707	-0.078748755
170	0x3d9737d2	0.07383694
171	0x3e363377	0.1779307
172	0xbdf1438e	-0.11780463
173	0x3de2e456	0.11078708
174	0xbd2a2cd1	-0.041546647
175	0xbe3d2e99	-0.18474807
176	0xbdef6a05	-0.116901435
177	0x3d949df5	0.072566904
178	0x3e6171d7	0.22016083
179	0x3e359382	0.17732051
180	0xbd3a8549	-0.045537267
181	0x3e2e618b	0.17029397
182	0x3e57bd32	0.21068266
183	0xbd344b1a	-0.044016935
184	0xbe32da25	-0.17466028
185	0xbd324498	-0.043522447
186	0xbc0aff67	-0.008483744
187	0x3de72e1d	0.11288092
188	0xbdbcbd39	-0.09215779
189	0xbdca2f25	-0.09872273
190	0x3da42484	0.08014777
191	0xbddbeb9b	-0.107382976
192	0x3c036618	0.0080199465
193	0x3dcffa9e	0.10155223
194	0x3e56117f	0.20905112
195	0x3e39ce91	0.18145205
196	0xbd8bb28b	-0.06821164
197	0xbbec91d1	-0.007219531
198	0x3e243c05	0.1603852
199	0xbe0cefe2	-0.13763383
200	0xbc81aa4f	-0.01582828
201	0xbda97770	-0.08274734
202	0xbe26d12d	-0.16290732
203	0x3d4d0e0c	0.050062224
204	0x3e0efe90	0.13964295
205	0xbe6325c9	-0.22182383
206	0x3d35474c	0.044257447
207	0x3c644b90	0.013934031
208	0x3e52cd70	0.2058618
209	0x3e2b4cf6	0.16728577
210	0xbe4780f5	-0.19482787
211	0x3e033ebb	0.12816899
212	0x3d88efde	0.06686376
213	0xbe2769d7	-0.16348968
214	0xbe048655	-0.12941869
215	0x3a7863da	0.0009475328
216	0xbe6e45e6	-0.23268852
217	0xbcb0ac25	-0.02156646
218	0xbde4bd0a	-0.11168869
219	0xbe05d359	-0.13068904
220	0x3d8afcfb	0.067865334
221	0x3df65fd0	0.120299935
222	0xbdaea28c	-0.08527097
223	0xbd777dce	-0.06042271
224	0xb936e23b	-0.0001744115
225	0x3e48663e	0.19570252
226	0xbe2210f7	-0.15826784
227	0xbde775a9	-0.11301739
228	0xbe347e3c	-0.1762628
229	0xbd923c99	-0.07140464
230	0xbe3f5456	-0.18684515
231	0xbaf52703	-0.0018703643
232	0x3e2aac69	0.16667332
233	0xbe370551	-0.17873122
234	0x3c4ccbcb	0.01249976
235	0xbe57261b	-0.2101063
236	0x3e189ccc	0.14903563
237	0x3da81b34	0.082083136
238	0xbde2474a	-0.110487536
239	0x3d7311ab	0.05934302
240	0xbe29065c	-0.16506332
241	0x39e70dc9	0.00044070024
242	0xbe50cff5	-0.2039183
243	0xbe2301fc	-0.15918726
244	0x3cd76dea	0.026297528
245	0x3d52b69c	0.05144368
246	0xbe424de2	-0.18975022
247	0x3e006f86	0.12542543
248	0xbe08170a	-0.13290039
249	0xbd4e1508	-0.050313026
250	0x3e226ac1	0.15861036
251	0xbe22b0ab	-0.15887706
252	0x3de53336	0.11191408
253	0x3e1788be	0.14798257
254	0xbe1f3735	-0.15548404
255	0x3d974d97	0.07387846

encoder.0.bias f4 [128]
0	0xbb884e20	-0.004159704
1	0xbbacf8ea	-0.0052786963
2	0x3c4d15fa	0.012517447
3	0xbaac3fa8	-0.001314153
4	0xbcfd501b	-0.030921986
5	0xbbbb4647	-0.005715165
6	0xbcbfdb53	-0.023420012
7	0x3b8acce7	0.004235852
8	0x3c3853b0	0.011250421
9	0xb716f0d2	-8.996767e-06
10	0x3c7c1419	0.015385651
11	0xbc7bd378	-0.015370242
12	0x3bc2dbd7	0.005946617
13	0x3bc2a11e	0.005939617
14	0xbbb2bef1	-0.005454891
15	0xbc5cb336	-0.013470462
16	0xbb930c59	-0.004487556
17	0x3916138f	0.00014312401
18	0xbca0de79	-0.019637333
19	0xbbf7356e	-0.007544211
20	0x3beb0a07	0.007172826
21	0xbb2683ba	-0.0025408105
22	0xbbcf6cd4	-0.006330112
23	0x3ac18c72	0.0014766587
24	0x3ac1e8cd	0.0014794111
25	0xbc34f366	-0.011044359
26	0x3bb4f1ef	0.005522005
27	0xbc90785e	-0.01763552
28	0x3b704b74	0.0036666067
29	0x3ad0726f	0.0015903244
30	0x3c42c3ef	0.0118875345
31	0xbc9aef77	-0.018913014
32	0x3c33dbed	0.010977727
33	0x3b24f905	0.0025172841
34	0xbc2b85df	-0.010468929
35	0x3c46d982	0.012136819
36	0xbaf39d1d	-0.0018586252
37	0x3c5e6de6	0.0135760065
38	0x3c9bc8ed	0.019016707
39	0x3c39f94e	0.011350943
40	0xbb083f29	-0.00207896
41	0xbb886607	-0.004162553
42	0x3c63e775	0.013910164
43	0x3b8ff848	0.004393611
44	0xbce589ae	-0.028019752
45	0xbc060a19	-0.008181118
46	0x3c1bbbf0	0.009505257
47	0x3ada6714	0.00166628
48	0xbbcab8cf	-0.0061865817
49	0xbb9a2b98	-0.004704904
50	0xbc1ac50e	-0.009446396
51	0x3b6e6961	0.0036378729
52	0x3beef1c1	0.007292003
53	0x3d10b514	0.03532894
54	0x3b0cdca2	0.0021493812
55	0x3c3622dd	0.0111167105
56	0x3c05503f	0.008136808
57	0x3c4df68a	0.0125709865
58	0x398bb704	0.00026648503
59	0xbc291eea	-0.010322312
60	0xbb4eae80	-0.0031537116
61	0x3c358da4	0.011081133
62	0xbc82ed66	-0.015982341
63	0xbc1573f9	-0.009121888
64	0x3c06d5da	0.008229697
65	0x3bf39a2b	0.0074341497
66	0x3c635cda	0.013877118
67	0xbc29d793	-0.010366338
68	0x3bea4784	0.0071496386
69	0x3aad7b40	0.0013235584
70	0xbbe1030a	-0.0068668174
71	0x3c1be285	0.009514456
72	0x3b7aa319	0.0038244186
73	0x3c37fcb6	0.011229685
74	0xbae23bee	-0.0017260292
75	0xb9ea8ffe	-0.0004473924
76	0xbcaf217c	-0.021378271
77	0xbb8e3047	-0.004339251
78	0x3b862e8c	0.0040949043
79	0xb99271ac	-0.00027931982
80	0x3aa3a585	0.0012485242
81	0xbc0d0e4d	-0.008609367
82	0x3cd58ed9	0.026069092
83	0x3c62ba21	0.013838322
84	0xba8d6d02	-0.0010789933
85	0x3b985abd	0.0046494887
86	0xbbd5780c	-0.006514555
87	0xbb891dcf	-0.0041844617
88	0x3a020e63	0.000496125
89	0x3ae70958	0.0017626686
90	0xbb4de754	-0.00314184
91	0x3c322122	0.010872157
92	0x3a84daa7	0.0010135964
93	0xbc8169e3	-0.015797561
94	0x3c763322	0.015026839
95	0xbbc8f91b	-0.0061332113
96	0x3c897fb7	0.016784532
97	0xbcaf85c9	-0.021426098
98	0xba9f37df	-0.0012147388
99	0xbb1412f6	-0.002259431
100	0x3a72030d	0.0009232022
101	0xbb06f52e	-0.0020592916
102	0xbc25a834	-0.0101109035
103	0x3b228f5c	0.0024804687
104	0x3c65f02e	0.014034314
105	0xbc86f57e	-0.016474482
106	0x3a26981f	0.0006355065
107	0x3b6a11da	0.0035716207
108	0xbba8cf91	-0.005151697
109	0xbc493b97	-0.012282274
110	0xbcd8c18c	-0.026459478
111	0x3ad67f31	0.001636481
112	0xbc02a394	-0.00797357
113	0x3c6d0c71	0.014468298
114	0x3ba423f1	0.0050091674
115	0x3a0d52ce	0.0005391062
116	0xbb132cfd	-0.0022457235
117	0x3c26d09c	0.010181572
118	0x3ca16907	0.019703401
119	0xbb955f02	-0.004558445
120	0xbc12adf7	-0.008952609
121	0xbc41099b	-0.011782075
122	0xbb694620	-0.0035594776
123	0x3ca33b29	0.01992567
124	0xbbfdfe58	-0.0077512674
125	0x3aebedbf	0.0017999931
126	0x3b37ae1f	0.0028027368
127	0xbb2ebbff	-0.0026662347

encoder.1.weight f4 [128]
0	0x3f77acad	0.9674786
1	0x3f820772	1.0158522
2	0x3f83cafa	1.0296319
3	0x3f80a3fc	1.0050044
4	0x3f8a5aa6	1.0808914
5	0x3f781fbd	0.9692343
6	0x3f73c9ac	0.952296
7	0x3f7be59c	0.9839723
8	0x3f87aa1e	1.0598791
9	0x3f7e1522	0.99250996
10	0x3f8a697b	1.081344
11	0x3f84f0b5	1.0385958
12	0x3f802eb4	1.0014253
13	0x3f7a308b	0.9773032
14	0x3f784555	0.9698079
15	0x3f87cf72	1.0610182
16	0x3f74da09	0.95645195
17	0x3f7e60de	0.9936656
18	0x3f7ad364	0.97978806
19	0x3f7b600c	0.9819343
20	0x3f81a81e	1.012943
21	0x3f7f148d	0.99640733
22	0x3f734f71	0.9504309
23	0x3f8b1672	1.0866225
24	0x3f81dc15	1.0145289
25	0x3f771347	0.9651379
26	0x3f80b294	1.0054498
27	0x3f77e1a9	0.96828705
28	0x3f7f85f0	0.9981375
29	0x3f797ae4	0.9745314
30	0x3f763326	0.96171796
31	0x3f7a874a	0.97862685
32	0x3f8086ef	1.0041178
33	0x3f7c7cee	0.9862813
34	0x3f7a7ada	0.97843707
35	0x3f9562d3	1.1670784
36	0x3f74f7f1	0.9569083
37	0x3f89cea6	1.0766189
38	0x3f80cc3a	1.0062325
39	0x3f8433fe	1.0328367
40	0x3f819836	1.0124576
41	0x3f85f8d7	1.0466565
42	0x3f80faaa	1.0076497
43	0x3f811407	1.0084237
44	0x3f8aca24	1.0842938
45	0x3f6db518	0.9285445
46	0x3f8302c6	1.0235221
47	0x3f7fd0f3	0.99928206
48	0x3f79ac01	0.9752808
49	0x3f827f78	1.019515
50	0x3f7910dc	0.9729135
51	0x3f8369e1	1.0266687
52	0x3f777422	0.9666158
53	0x3f86ca8f	1.0530566
54	0x3f80dfb7	1.0068272
55	0x3f7f6336	0.9976076
56	0x3f84ee63	1.038525
57	0x3f8230b7	1.0171117
58	0x3f893567	1.0719422
59	0x3f8274e4	1.0191922
60	0x3f85175d	1.0397755
61	0x3f803eb0	1.0019131
62	0x3f89b31f	1.0757788
63	0x3f79d3e0	0.9758892
64	0x3f86b814	1.0524926
65	0x3f844111	1.0332357
66	0x3f8b2211	1.0869771
67	0x3f71f373	0.945121
68	0x3f84c20d	1.037172
69	0x3f807287	1.0034951
70	0x3f93a08b	1.1533369
71	0x3f81197f	1.0085906
72	0x3f77e089	0.9682699
73	0x3f8c9582	1.0983126
74	0x3f7e0ecf	0.99241346
75	0x3f870e41	1.0551225
76	0x3f73dd3a	0.9525944
77	0x3f75a3ec	0.9595325
78	0x3f9367ff	1.1516112
79	0x3f79949c	0.97492385
80	0x3f8dc5ec	1.1076026
81	0x3f798918	0.97474813
82	0x3f7fabd9	0.99871594
83	0x3f8236a3	1.0172924
84	0x3f77e11e	0.96827877
85	0x3f85eed0	1.0463505
86	0x3f8416a9	1.0319415
87	0x3f7c22f7	0.9849085
88	0x3f7e2d09	0.9928747
89	0x3f7deb64	0.991873
90	0x3f819e0e	1.012636
91	0x3f872b9c	1.0560184
92	0x3f7d2993	0.9889156
93	0x3f7f100b	0.99633855
94	0x3f880a95	1.0628229
95	0x3f7a3787	0.9774098
96	0x3f8381de	1.0274007
97	0x3f740d91	0.953332
98	0x3f81f2e5	1.015225
99	0x3f7deac6	0.9918636
100	0x3f85c36b	1.0450262
101	0x3f80c156	1.0059001
102	0x3f722a68	0.94595957
103	0x3f8c89d5	1.0979563
104	0x3f8ff626	1.1246994
105	0x3f74d9e7	0.9564499
106	0x3f6e1062	0.9299375
107	0x3f895afc	1.0730891
108	0x3f7d518b	0.9895255
109	0x3f77fecc	0.96873164
110	0x3f7371ec	0.95095706
111	0x3f7ca1f0	0.98684597
112	0x3f6a001f	0.91406435
113	0x3f864f1a	1.049289
114	0x3f87e311	1.061617
115	0x3f796cc2	0.97431576
116	0x3f7e4bc6	0.9933437
117	0x3f7a271f	0.97715944
118	0x3f877d5c	1.0585132
119	0x3f7c0f9c	0.9846132
120	0x3f824c5d	1.0179554
121	0x3f798de9	0.9748216
122	0x3f73728a	0.9509665
123	0x3f886c8a	1.0658123
124	0x3f855066	1.0415161
125	0x3f84f779	1.0388023
126	0x3f74886f	0.9552068
127	0x3f7aefa1	0.98021895

encoder.1.bias f4 [128]
0	0xbd8bb15c	-0.06820938
1	0xbd1d856d	-0.038457323
2	0xbcc5565e	-0.024089035
3	0xbd33cc24	-0.043895856
4	0xbd09e53f	-0.03366589
5	0xbd89e96c	-0.06733975
6	0xbd994798	-0.074843585
7	0xbd53a066	-0.05166664
8	0xbca4d78e	-0.020122316
9	0xbd325e01	-0.04354668
10	0xbca6a36a	-0.020341594
11	0xbce94319	-0.028474377
12	0xbd2acf36	-0.041701518
13	0xbd407b93	-0.04699285
14	0xbd747c84	-0.05968906
15	0xbd29e535	-0.041478354
16	0xbd778d1e	-0.060437314
17	0xbd0d0d20	-0.034436345
18	0xbd658720	-0.05603707
19	0xbd70dbf6	-0.05880352
20	0xbd293996	-0.041314684
21	0xbd33f528	-0.04393497
22	0xbd92d6c0	-0.071698666
23	0xbd11b7f9	-0.03557584
24	0xbd12571f	-0.035727616
25	0xbdb90ac0	-0.090352535
26	0xbd01b2e6	-0.03166475
27	0xbd61e557	-0.055150356
28	0xbd1f28d3	-0.038857292
29	0xbd638b9d	-0.055553067
30	0xbd8c3ddc	-0.06847736
31	0xbd6ce022	-0.057830937
32	0xbd4b0f4c	-0.049575135
33	0xbd38ee0d	-0.045148898
34	0xbd615c6c	-0.05501978
35	0xbc59a8d5	-0.013284882
36	0xbd9be06e	-0.07611166
37	0xbd12e590	-0.03586346
38	0xbcdc48e7	-0.026890231
39	0xbd1f2b25	-0.038859505
40	0xbd255900	-0.04036808
41	0xbd2baaa2	-0.041910775
42	0xbd1b1ec9	-0.037871156
43	0xbd162c6d	-0.03666346
44	0xbd3bf583	-0.045888435
45	0xbdc34283	-0.095341705
46	0xbd6d01cb	-0.057863038
47	0xbd406585	-0.046971817
48	0xbd6d91ea	-0.058000483
49	0xbd4dcce6	-0.050244235
50	0xbd900708	-0.07032591
51	0xbcd770ae	-0.026298847
52	0xbd7999d4	-0.060937718
53	0xbcc52088	-0.024063364
54	0xbd51dea2	-0.05123771
55	0xbd114938	-0.035470217
56	0xbd0b410a	-0.033997573
57	0xbd138159	-0.036012027
58	0xbd18bafa	-0.03728769
59	0xbd1cc472	-0.038273282
60	0xbd0c91c4	-0.0343187
61	0xbd1b9bcf	-0.037990388
62	0xbd13f501	-0.036122326
63	0xbd7cc192	-0.06170804
64	0xbb339d95	-0.0027407159
65	0xbd551ea2	-0.052031167
66	0xbca5f880	-0.020260096
67	0xbd8dc0e5	-0.06921557
68	0xbcf5b01f	-0.029991208
69	0xbd4867c8	-0.0489271
70	0xbcd6d862	-0.026226226
71	0xbd2d1022	-0.042251714
72	0xbd6e2c9f	-0.058148023
73	0xbcd506ee	-0.02600428
74	0xbd316d21	-0.043316964
75	0xbcf2c337	-0.029634101
76	0xbda47082	-0.08029272
77	0xbd6db0ad	-0.05802982
78	0xbcb6b813	-0.02230457
79	0xbd482385	-0.048862
80	0xbca7fc95	-0.020506183
81	0xbd57951c	-0.052632436
82	0xbcf88d29	-0.030340748
83	0xbd2c7f80	-0.04211378
84	0xbd5ae39e	-0.05343973
85	0xbcef89a5	-0.029240439
86	0xbd27cbdb	-0.040965896
87	0xbd526872	-0.051369138
88	0xbd5db6ee	-0.054129533
89	0xbd417d0d	-0.0472384
90	0xbd1b2903	-0.03788091
91	0xbd4e071f	-0.05029976
92	0xbd4034c9	-0.04692534
93	0xbd57a9d8	-0.05265221
94	0x3ad67c7f	0.0016364007
95	0xbd8b5cd8	-0.06804818
96	0xbd297593	-0.041371893
97	0xbd8fb54f	-0.07017004
98	0xbd4e329b	-0.05034123
99	0xbd76bff2	-0.060241647
100	0xbce6ddd9	-0.028181957
101	0xbd24f25e	-0.0402702
102	0xbda4d3e8	-0.080482304
103	0xbd1146f3	-0.035468053
104	0xbba9bee2	-0.0051802257
105	0xbd9d0f97	-0.07668989
106	0xbdc39846	-0.09550528
107	0xbcd4be02	-0.025969509
108	0xbd3a9ae3	-0.045557868
109	0xbd69caea	-0.05707828
110	0xbda2273f	-0.07917642
111	0xbd5f27ab	-0.05448119
112	0xbdd694f9	-0.10477633
113	0xbcdf3d9d	-0.02725106
114	0xbcfdbc83	-0.030973678
115	0xbd83a4fa	-0.06427951
116	0xbd39f212	-0.045396872
117	0xbd8dadc4	-0.06917909
118	0xbcb0f916	-0.021603148
119	0xbd4761ab	-0.048677128
120	0xbd485f00	-0.048918724
121	0xbd47cac3	-0.048777353
122	0xbd86aeab	-0.06576284
123	0xbcca40df	-0.024689136
124	0xbd2f8183	-0.04284812
125	0xbd07b21f	-0.033128854
126	0xbda6a5d6	-0.081370994
127	0xbd5fdeb2	-0.05465574

encoder.3.weight f4 [256, 128]
0	0xbc5f2b65	-0.013621186
1	0x3d87e1ef	0.0663489
2	0x3d2a56c2	0.041586645
3	0xbe1c8c4b	-0.15287893
4	0x3da1716d	0.078829624
5	0x3c0e03eb	0.008667926
6	0x3e13b0d9	0.14422931
7	0xbcd972b2	-0.026543949
8	0x3e1efad3	0.1552537
9	0xbda813cf	-0.08206903
10	0xbdebafba	-0.115081266
11	0xbdb74536	-0.08948748
12	0x3d812c72	0.063073054
13	0xbdb14625	-0.08655957
14	0x3de6534a	0.11246355
15	0x3d1dc7f4	0.03852077
16	0x3d3dcbe3	0.04633702
17	0xbd716c5e	-0.058941238
18	0xbc22a17d	-0.009926197
19	0xbe00428e	-0.12525389
20	0x3c26f4bf	0.010190188
21	0x3deb36f2	0.11485089
22	0x3d8640e1	0.065553434
23	0x3e0f87a3	0.14016585
24	0xbd3bbc41	-0.04583383
25	0x3e219035	0.15777667
26	0x3e147e81	0.14501382
27	0xbcd896bd	-0.026439065
28	0xbe09c13c	-0.1345262
29	0xbdc5cca6	-0.09658174
30	0x3c8649ed	0.016392672
31	0x3dc17017	0.094452076
32	0x3bde0706	0.0067757396
33	0x3de2770e	0.11057864
34	0x3d9433f9	0.072364755
35	0xbe12451b	-0.14284174
36	0x3d4eea40	0.050516367
37	0xbe65f5cf	-0.2245705
38	0x3c47eb1b	0.01220205
39	0xbe08ba13	-0.13352232
40	0xbccae5f3	-0.024767851
41	0xbdd4cb50	-0.10390341
42	0x3bfe45d6	0.00775979
43	0x3db1c2bd	0.086797215
44	0xbe38b67e	-0.18038365
45	0xbc9b39ba	-0.018948425
46	0x3e14c5a7	0.14528523
47	0xbe12e3e4	-0.14344746
48	0xbc9312d6	-0.017953318
49	0xbd808d84	-0.06276992
50	0x3e0e68f5	0.13907225
51	0xbe14f4dd	-0.14546533
52	0x3b81577b	0.003947196
53	0xbe4cfe18	-0.20018804
54	0x3db0fdb3	0.08642139
55	0xbce7acf6	-0.028280716
56	0xbde029d2	-0.109454766
57	0xbd884a57	-0.06654804
58	0xbe28d08c	-0.16485804
59	0x3e0fe401	0.1405182
60	0xbe1ecccf	-0.15507816
61	0xbe19eb27	-0.1503111
62	0x3a691a7e	0.0008892192
63	0xbc5db701	-0.013532401
64	0x3d78b381	0.060718063
65	0xbbb114c3	-0.0054040863
66	0x3c9068a0	0.017628014
67	0xbce9262a	-0.02846058
68	0x3d30cff0	0.043167055
69	0xbd482b7c	-0.048869595
70	0x3d5f1811	0.05446631
71	0xbdd20e39	-0.10256619
72	0xbe0ab1c4	-0.13544375
73	0xbcfd685a	-0.030933548
74	0x3dda5a09	0.10661704
75	0xbdb11e51	-0.086483605
76	0xbda06b60	-0.0783298
77	0x3dbb28f8	0.091386735
78	0xbcb3a0a3	-0.021927183
79	0x3dfc517f	0.12320232
80	0xbe1fb0dd	-0.15594812
81	0x3cc0d973	0.023541188
82	0x3da58b1e	0.08083175
83	0xbd0d5ecd	-0.034514237
84	0xbdca8333	-0.098883055
85	0x3d7ec56d	0.0622
86	0x3de1d6ab	0.11027273
87	0x3d2329f0	0.039834917
88	0xbdfa4473	-0.12220087
89	0xbdd8eedc	-0.10592434
90	0x3dd96adb	0.10616084
91	0xbb9ceed2	-0.004789212
92	0xbd464a50	-0.048410714
93	0xbe02e70a	-0.12783447
94	0xbdb6e787	-0.08930879
95	0x3daf2324	0.085516244
96	0xbe22eb41	-0.15910055
97	0x3d2c230a	0.042025603
98	0x3de5dc40	0.1122365
99	0xbdccf218	-0.10007113
100	0x3c5a8892	0.013338225
101	0x3d078496	0.03308543
102	0x3c5177bf	0.012784897
103	0xbe53b065	-0.20672758
104	0x3d400708	0.046881706
105	0xb9cc6ddd	-0.00038991767
106	0x3c6a3595	0.0142950015
107	0xbdef8fcd	-0.1169735
108	0xbda9d2c4	-0.082921535
109	0x3c1efc4e	0.009703709
110	0xbd98c665	-0.07459716
111	0x3d1b0db2	0.037854858
112	0x3bea84a4	0.0071569253
113	0x3e714948	0.23563111
114	0xbc928c89	-0.017889278
115	0xbddea45f	-0.10871195
116	0xbc07acad	-0.008280915
117	0x3d5dee11	0.054182116
118	0xbd19b537	-0.037526336
119	0xbd0b109c	-0.033951387
120	0xbcab89a2	-0.020939652
121	0xbc53f0fe	-0.012935875
122	0xbd1e38c4	-0.038628355
123	0xbe57c634	-0.21071702
124	0xbda44c75	-0.080223955
125	0x3da3a85b	0.07991096
126	0x3d15666c	0.03647463
127	0x3e157dc5	0.14598759
128	0xbd204324	-0.03912653
129	0xbdfe9a14	-0.12431732
130	0xbe2b3588	-0.1671964
131	0xbcab420b	-0.020905515
132	0xbb504ada	-0.0031782896
133	0xbe0e359c	-0.13887638
134	0x3dac4557	0.08411663
135	0xbdb1e858	-0.08686894
136	0xbdc9f363	-0.098608755
137	0x3d0a30d0	0.033737957
138	0xbd333c75	-0.04375883
139	0x3ae2c0b9	0.0017299867
140	0x3db9a317	0.0906431
141	0x3d839c6d	0.0642632
142	0xbcb4996d	-0.022045815
143	0xbe39c907	-0.18143092
144	0x3d727a7a	0.059198834
145	0xbdce7109	-0.100801535
146	0xbdc52233	-0.096256636
147	0xbd68f42b	-0.05687348
148	0x3ccdf286	0.025140058
149	0xbdadd25b	-0.08487388
150	0xbdadb489	-0.084817
151	0xbd072c76	-0.033001386
152	0x3d59d522	0.053181775
153	0xbe08f1a0	-0.13373423
154	0xbdfe7d23	-0.12426212
155	0x3d769f8a	0.060210742
156	0x3ddbf3aa	0.107398346
157	0x3d6c34de	0.057667606
158	0xbd14f4c4	-0.03636624
159	0xbcf4350c	-0.029810451
160	0xbd9241b4	-0.07141438
161	0xbce509f6	-0.027958851
162	0x3dc83e6e	0.097775325
163	0xbe3016db	-0.17196219
164	0x3bbfb757	0.0058507132
165	0x3dd97684	0.10618308
166	0xbe1d0a29	-0.15335907
167	0x3d966469	0.073433705
168	0xbd877a31	-0.06615103
169	0x3dc6aff3	0.097015284
170	0x3d890e42	0.066921726
171	0x3ce1ea67	0.027577592
172	0xbcc22c74	-0.023702838
173	0xbe2300d0	-0.15918279
174	0xbde47878	-0.1115579
175	0x3d16ea57	0.036844578
176	0x3d13bb27	0.036067154
177	0x3db1a720	0.08674455
178	0xbbd368e9	-0.0064517152
179	0x3d882970	0.066485286
180	0x3dd84dd6	0.10561721
181	0x3de2ef26	0.1108077
182	0x3b17e86c	0.0023179306
183	0xbd79a2e5	-0.060946364
184	0x3dd5a1ef	0.10431277
185	0xbd6191b0	-0.05507058
186	0x3e0cd19f	0.13751839
187	0xbdbf219c	-0.09332582
188	0x3d1cafb8	0.038253516
189	0xbd77a75f	-0.060462352
190	0xbc203047	-0.009777135
191	0x3c82bbe0	0.015958726
192	0xbe02ee4c	-0.12786216
193	0x3d52db20	0.051478505
194	0xbdb12fb8	-0.0865168
195	0x3d9e12d3	0.07718434
196	0x3b3a2706	0.0028404607
197	0x3d6c9c0d	0.05776601
198	0x3d979c9d	0.074029185
199	0xbae93181	-0.0017791243
200	0x3dcb4371	0.09924973
201	0xbd8062f6	-0.06268875
202	0xbd6e565a	-0.05818782
203	0xbdb1311b	-0.08651944
204	0x3dc8b29a	0.097996905
205	0xbcb54a89	-0.022130268
206	0xbd9d3f79	-0.07678122
207	0x3da9eb88	0.08296877
208	0xbd470740	-0.0485909
209	0xbde2db76	-0.11077015
210	0xbcd985f2	-0.026553128
211	0xbe3573ae	-0.1771991
212	0x3d9f8094	0.07788196
213	0xbd724397	-0.05914649
214	0xbe2f3135	-0.17108615
215	0xbc616073	-0.013755905
216	0xbde6dcdb	-0.112725936
217	0x3d25142c	0.04030244
218	0xbd557972	-0.052117772
219	0x3dea1481	0.11429692
220	0x3dd9cdf3	0.10634985
221	0xbd8d0557	-0.06885784
222	0xbc54a090	-0.012977734
223	0x3e04b9af	0.12961458
224	0x3e02cafd	0.12772746
225	0xbd0f5f50	-0.035003006
226	0xbd2aeaf5	-0.04172798
227	0x3d414403	0.047184
228	0xbd01dfe7	-0.03170767
229	0x3c34fbee	0.011046393
230	0x3cc4a031	0.024002166
231	0xbbff4666	-0.0077903746
232	0x3af85f95	0.0018949384
233	0xbcb9692e	-0.022633161
234	0xbd9282ed	-0.07153878
235	0xbdc0eb21	-0.09419847
236	0xbdbcb149	-0.09213502
237	0xbca64146	-0.020294797
238	0x3d32fd3b	0.04369853
239	0xbb834791	-0.004006334
240	0xbd625ec4	-0.055266157
241	0xbcf315e4	-0.029673524
242	0xbda0baa1	-0.07848097
243	0x3d307625	0.04308142
244	0xbbe14b9f	-0.00687547
245	0x3dc865c6	0.09785037
246	0x3dc54b94	0.09633556
247	0xbd998978	-0.07496923
248	0x3c977850	0.018489987
249	0x3de78a5e	0.11305688
250	0x3e06cff3	0.13165264
251	0x3e0270ac	0.12738293
252	0xbbba7e71	-0.0056913425
253	0xbb7100b4	-0.00367741
254	0xbd842f97	-0.064543895
255	0x3ba67717	0.0050801146

encoder.3.bias f4 [256]
0	0x3b48f53d	0.0030663752
1	0x3befb4a8	0.007315237
2	0xbb96422b	-0.0045855246
3	0x3b28605e	0.0025692205
4	0x3b674611	0.0035289566
5	0x3c0a55bd	0.008443293
6	0x3b89ccd1	0.004205324
7	0xb9a4b829	-0.00031417728
8	0x3ba3fbbb	0.005004374
9	0x3c4b3a1c	0.012403991
10	0xbaaa59f0	-0.0012996774
11	0x3a6c2b7b	0.00090091646
12	0xbbfbb171	-0.007681065
13	0x3ba72699	0.0051010367
14	0xbc20ac84	-0.009806756
15	0xbb6ba866	-0.0035958528
16	0xba1e4d14	-0.0006038707
17	0x3a93e29b	0.0011282744
18	0xbb8ada27	-0.0042374316
19	0x3bd48b5d	0.00648634
20	0xbadb47df	-0.0016729793
21	0xbbfd0923	-0.0077220364
22	0xbbbb085d	-0.005707784
23	0xbbc38d86	-0.0059677986
24	0x3b63c74d	0.0034756244
25	0xbb1726ba	-0.0023063854
26	0xbad4c2c0	-0.0016232356
27	0xba96ba05	-0.001149953
28	0xbad0777e	-0.0015904752
29	0xbb24ea4e	-0.002516407
30	0x3b4f0926	0.0031591146
31	0xbb833e76	-0.0040052487
32	0x3b935146	0.0044957725
33	0xbb482474	-0.0030539306
34	0xbb21b06b	-0.0024671804
35	0x3b4e3d1d	0.0031469532
36	0x3b8f87fe	0.004380225
37	0xbac88be3	-0.0015300479
38	0x3ac3f065	0.0014948962
39	0x3b14a6a1	0.0022682326
40	0xbbfdc8e7	-0.0077448967
41	0x3c7e3afc	0.015516993
42	0xbb95e390	-0.0045742467
43	0xba53de16	-0.00080821046
44	0x3c83daf0	0.016095608
45	0x3ba5f26a	0.0050642984
46	0x3c178e7b	0.009250279
47	0x3cbea3d4	0.023271479
48	0xbb852fa9	-0.0040645194
49	0xbb72fe76	-0.003707794
50	0x3c986b87	0.01860596
51	0xbb073833	-0.0020632863
52	0xbbd3ed4f	-0.0064674984
53	0x3bbde370	0.005794935
54	0x3b133e91	0.0022467712
55	0xba5038a8	-0.0007943013
56	0xba44176a	-0.00074802956
57	0xbbdaa8e1	-0.006672964
58	0x3c027c4f	0.007964208
59	0xbb11df34	-0.0022258284
60	0x3bc12b77	0.005895074
61	0xbb1d3392	-0.0023987037
62	0xbba261eb	-0.0049555204
63	0x3b9e838c	0.004837459
64	0x3903e86e	0.0001257972
65	0x3c1dbb21	0.009627135
66	0x3b487b21	0.0030590969
67	0xba2fa100	-0.0006699711
68	0x3c70cfc1	0.01469797
69	0x3b0b670e	0.0021271142
70	0xb925f466	-0.00015826672
71	0xbbdb6138	-0.006694939
72	0x3b08e826	0.0020890324
73	0xbb49391b	-0.0030704204
74	0x3c36d700	0.011159658
75	0xbbf83882	-0.0075750956
76	0x3a12d795	0.0005601582
77	0x3bf4e6d2	0.007473805
78	0xbc1591c3	-0.009128991
79	0x3bd1f01e	0.006406798
80	0x3c4cfbe1	0.0125112245
81	0x3c179830	0.009252593
82	0xbb57367f	-0.0032838879
83	0x3b7b8d42	0.0038383757
84	0xbb98d053	-0.004663506
85	0x3c415ad3	0.011801439
86	0x3bf82421	0.0075726663
87	0x3986b0fa	0.0002569033
88	0xbbc039cb	-0.0058662645
89	0xbb737f03	-0.0037154562
90	0x3b4a66f0	0.003088411
91	0xbbed2ad7	-0.007237773
92	0xbc70d744	-0.014699761
93	0x3c279fc6	0.010230964
94	0xbaecc285	-0.0018063342
95	0x3b96a22f	0.0045969705
96	0x3acbbbb1	0.0015543607
97	0xbb784d83	-0.0037887997
98	0xbb536b44	-0.003225998
99	0x3b3108a6	0.0027013212
100	0x3acb4a48	0.0015509808
101	0xbb02b1e4	-0.0019942457
102	0x3b059bae	0.0020386982
103	0xba591460	-0.0008280929
104	0xbbeed7b0	-0.0072888955
105	0xbb59dd7a	-0.0033243583
106	0x3ba5ce2f	0.0050599794
107	0xba8bd10f	-0.0010667163
108	0xbb77f311	-0.0037834088
109	0x3af8cfcf	0.001898283
110	0xb8c4b4b7	-9.379669e-05
111	0xbb4101c5	-0.0029450518
112	0x38aa8203	8.130448e-05
113	0xbbe51739	-0.0069912937
114	0x3b046e5d	0.0020207383
115	0x3c77aa2d	0.015116257
116	0xbba20ef5	-0.0049456307
117	0x3b0be3b7	0.0021345445
118	0x3be02967	0.006840873
119	0xbb03c7d9	-0.0020108132
120	0xb98635f2	-0.00025598664
121	0x3b498c20	0.0030753687
122	0x3c25abaa	0.010111729
123	0x3be058f0	0.0068465397
124	0x3ad16cb1	0.0015977827
125	0x3a0d56f4	0.000539168
126	0xb93c7016	-0.00017970832
127	0xbbbf6d7e	-0.00584191
128	0xbb000b70	-0.0019538067
129	0x3b2df7ea	0.0026545473
130	0x3c4868a0	0.012231976
131	0xb6418ba3	-2.884052e-06
132	0x3c3be0b0	0.011467144
133	0x388cf1f7	6.72079e-05
134	0x397ab3e3	0.00023908871
135	0xbbccea76	-0.006253536
136	0xba96cff2	-0.0011506064
137	0xbb73eff7	-0.0037221888
138	0x3b821d73	0.003970796
139	0x3c262c58	0.010142408
140	0x3b894ab7	0.004189815
141	0x3b791a8f	0.0038010215
142	0x3ab08872	0.0013468398
143	0xbb9c6d24	-0.0047737528
144	0x3b70fe4c	0.0036772666
145	0x3bb7fe82	0.0056150565
146	0x3c1d03fa	0.009583468
147	0x3b0d575f	0.002156697
148	0x3c187d90	0.00930728
149	0x3b683ceb	0.00354367
150	0xbbe505e0	-0.0069892257
151	0xbb9d9b82	-0.0048097977
152	0xbb5c6351	-0.0033628533
153	0x3a081ae9	0.0005191998
154	0xba6f8548	-0.0009136987
155	0x3bb188b8	0.0054179095
156	0xbbc1f125	-0.0059186392
157	0xbadd6979	-0.0016892395
158	0x3cdd9f1d	0.02705341
159	0x3bb0e3c3	0.005398245
160	0x3ba50932	0.0050364966
161	0x3c8c5205	0.017128954
162	0x3aef7734	0.0018269778
163	0x385b62dc	5.230574e-05
164	0x3bfe6e54	0.007764617
165	0xbc15729b	-0.009121562
166	0xb92fda2c	-0.00016770576
167	0xbc000cbf	-0.007815539
168	0x3b7775a6	0.0037759333
169	0xbb85d404	-0.004084112
170	0x39b7a426	0.0003502678
171	0xbc7248ea	-0.014787892
172	0xbb6991fc	-0.0035639992
173	0x3b570416	0.0032808832
174	0x3b50f893	0.0031886443
175	0x3b0448e4	0.0020185048
176	0x3c790add	0.015200344
177	0xbb6dd710	-0.0036291517
178	0x3bb66aa8	0.0055669136
179	0x3c4ea0ab	0.012611548
180	0x3b2f5531	0.002675366
181	0xba6d17ba	-0.0009044368
182	0x3c458d99	0.012057685
183	0xbb61d065	-0.0034456488
184	0xbbbec378	-0.0058216415
185	0xb9d2c927	-0.00040204191
186	0x3bf406fd	0.007447122
187	0xbaec7d8e	-0.0018042789
188	0x39ffa84c	0.0004876278
189	0xbbe82c19	-0.007085335
190	0xbb31ef29	-0.0027150607
191	0x3a389b6f	0.00070422044
192	0xbbef7ee9	-0.00730883
193	0xbbd8135a	-0.0065941038
194	0xba4cabe2	-0.0007807595
195	0xbc2285f6	-0.009919634
196	0x3bad1b42	0.0052827904
197	0xbae5eae6	-0.0017541319
198	0x39d6a1df	0.00040937864
199	0xba843b83	-0.0010088537
200	0x3ad15375	0.0015970307
201	0xbb357ffc	-0.0027694693
202	0x3b820378	0.0039676987
203	0x3ca16d7a	0.019705523
204	0xbb244877	-0.0025067606
205	0x38447413	4.6838144e-05
206	0x3bab1ef0	0.005222194
207	0x3bb2fc1c	0.0054621827
208	0x3b5636ff	0.0032686589
209	0x3a6ce4d8	0.0009036786
210	0xbb8a0b14	-0.0042127464
211	0xbb014d8c	-0.001973006
212	0x3bb6ba60	0.005576417
213	0xba949407	-0.001133562
214	0xbbae7718	-0.0053242557
215	0xb9fd76ad	-0.0004834434
216	0xbb8d4847	-0.0043115946
217	0x3b0695b0	0.0020535998
218	0x3b9e6e5e	0.004834934
219	0xbb915fde	-0.004436477
220	0x3b68be06	0.0035513653
221	0xbbad3c02	-0.0052866945
222	0x3bcb2b62	0.00620024
223	0x3b8797e3	0.0041379794
224	0x3a9fee40	0.0012201741
225	0xbb2e5cc4	-0.0026605586
226	0xbc00cc9e	-0.007861285
227	0xbb2efcf5	-0.0026701067
228	0xbbb991ac	-0.0056631174
229	0x3b9e9d7d	0.0048405514
230	0x38e28133	0.00010800585
231	0x3b63d02d	0.0034761534
232	0xbb6955a2	-0.003560402
233	0xbac2ba8c	-0.0014856621
234	0xbb27358c	-0.0025514094
235	0x3c83182f	0.016002743
236	0xba948c06	-0.0011333234
237	0x3ac419c3	0.0014961291
238	0xbc0fa46d	-0.0087672295
239	0x3becc2b9	0.007225361
240	0xbbf86321	-0.0075801765
241	0xbb8f4444	-0.0043721516
242	0xbaa17401	-0.0012317897
243	0xb934839e	-0.00017215169
244	0xb8f57a08	-0.000117052405
245	0xbb8964cb	-0.0041929237
246	0xbaae6fcc	-0.0013308465
247	0x3a525583	0.00080236065
248	0x3a0907ad	0.0005227279
249	0x3a53356c	0.0008056972
250	0xbaf87d2d	-0.0018958204
251	0xba6ba2f9	-0.00089888234
252	0xbc5d7c0e	-0.0135183465
253	0x3cc95d09	0.024580495
254	0xb9e55ba4	-0.0004374656
255	0xbb89fc22	-0.004210965

encoder.4.weight f4 [256]
0	0x3f8635b8	1.0485144
1	0x3f8771ec	1.0581641
2	0x3f807eae	1.003866
3	0x3f7b9706	0.9827732
4	0x3f86d243	1.0532917
5	0x3f84616b	1.034223
6	0x3f82edfd	1.0228878
7	0x3f75521b	0.9582841
8	0x3f8cc6f8	1.099822
9	0x3f7bbaa4	0.98331666
10	0x3f85ec58	1.0462751
11	0x3f8d64ad	1.1046349
12	0x3f7b14f4	0.98078847
13	0x3f82d9a3	1.0222667
14	0x3f74d136	0.9563173
15	0x3f827c2a	1.0194142
16	0x3f810b08	1.0081491
17	0x3f80fcba	1.0077126
18	0x3f720421	0.9453755
19	0x3f88b5b6	1.0680454
20	0x3f78e1fb	0.9721982
21	0x3f748244	0.9551127
22	0x3f781ad0	0.9691591
23	0x3f8031c5	1.0015188
24	0x3f7b5cf5	0.98188716
25	0x3f78c042	0.9716836
26	0x3f7b853d	0.9825018
27	0x3f85146e	1.039686
28	0x3f7d8944	0.99037576
29	0x3f8c67a2	1.0969126
30	0x3f7fc810	0.99914646
31	0x3f80de3e	1.0067823
32	0x3f82920e	1.0200822
33	0x3f8b5493	1.0885185
34	0x3f79ef8b	0.9763114
35	0x3f81bf31	1.0136472
36	0x3f887fb5	1.0663973
37	0x3f690bf7	0.9103388
38	0x3f76265e	0.96152294
39	0x3f7b5bc4	0.981869
40	0x3f7dbf41	0.99119955
41	0x3f82e197	1.0225095
42	0x3f749097	0.95533127
43	0x3f7dc1ef	0.99124044
44	0x3f83ff48	1.0312281
45	0x3f806db9	1.0033485
46	0x3f858418	1.0430937
47	0x3f590ddb	0.84786767
48	0x3f81975d	1.0124317
49	0x3f7a128d	0.97684556
50	0x3f81dbde	1.0145223
51	0x3f7afe1f	0.9804401
52	0x3f6e9414	0.931947
53	0x3f81d401	1.0142823
54	0x3f79d764	0.97594285
55	0x3f7e1b50	0.99260426
56	0x3f76c3f8	0.96392775
57	0x3f73e07b	0.95264405
58	0x3f835e8a	1.0263226
59	0x3f7c5f24	0.98582673
60	0x3f81d07d	1.014175
61	0x3f76d774	0.96422505
62	0x3f771980	0.96523285
63	0x3f8213e0	1.0162315
64	0x3f85eadd	1.04623
65	0x3f850cf7	1.0394582
66	0x3f834f7a	1.0258629
67	0x3f7a3680	0.9773941
68	0x3f8245c7	1.0177544
69	0x3f7b126e	0.98074996
70	0x3f85d4c5	1.0455557
71	0x3f7c8487	0.9863972
72	0x3f80ba6b	1.005689
73	0x3f75400c	0.9580085
74	0x3f84f678	1.0387716
75	0x3f8e091f	1.1096534
76	0x3f840c50	1.0316257
77	0x3f7c8d77	0.9865336
78	0x3f7e891f	0.9942798
79	0x3f78972e	0.9710568
80	0x3f86bf9e	1.0527227
81	0x3f8d66de	1.1047018
82	0x3f80b6ff	1.0055846
83	0x3f84bab6	1.036948
84	0x3f7d0c5d	0.9884699
85	0x3f8477d0	1.0349064
86	0x3f847df1	1.0350934
87	0x3f81373c	1.0094981
88	0x3f783e9f	0.9697055
89	0x3f896f3d	1.0737072
90	0x3f80dcc7	1.0067376
91	0x3f6e2436	0.93024004
92	0x3f7a74cd	0.97834474
93	0x3f7651b8	0.9621844
94	0x3f817d81	1.0116426
95	0x3f842d87	1.0326394
96	0x3f8420b3	1.0322479
97	0x3f795d93	0.9740841
98	0x3f771a12	0.96524155
99	0x3f80c031	1.0058652
100	0x3f89dfdd	1.0771443
101	0x3f7a4a6c	0.9776981
102	0x3f7d550e	0.9895791
103	0x3f97cf07	1.1860055
104	0x3f7ccc74	0.9874947
105	0x3f7bc729	0.9835077
106	0x3f7f2635	0.99667674
107	0x3f8039f5	1.0017687
108	0x3f7c0658	0.9844718
109	0x3f7bc160	0.9834194
110	0x3f84fc7e	1.0389555
111	0x3f7ab22b	0.9792811
112	0x3f7bd6ff	0.98374933
113	0x3f7b618a	0.9819571
114	0x3f7f5c35	0.9975007
115	0x3f65427a	0.8955456
116	0x3f819139	1.0122443
117	0x3f778bee	0.9669789
118	0x3f8235b1	1.0172635
119	0x3f84b958	1.0369062
120	0x3f739390	0.9514704
121	0x3f78a7b6	0.97130907
122	0x3f820824	1.0158734
123	0x3f800b6a	1.0003483
124	0x3f8834ec	1.064115
125	0x3f81139c	1.0084109
126	0x3f7cfaea	0.98820364
127	0x3f6f39b6	0.93447435
128	0x3f835699	1.0260803
129	0x3f82e827	1.0227097
130	0x3f88e18f	1.0693835
131	0x3f81e65c	1.0148425
132	0x3f87de95	1.0614802
133	0x3f775c73	0.9662544
134	0x3f813d03	1.0096744
135	0x3f7a2d3c	0.9772527
136	0x3f7bb910	0.9832926
137	0x3f75c5ec	0.9600513
138	0x3f839cce	1.0282228
139	0x3f8a6d27	1.0814561
140	0x3f7872cd	0.9705017
141	0x3f863996	1.0486324
142	0x3f8f86fd	1.121307
143	0x3f7a935b	0.97881097
144	0x3f8102c2	1.0078967
145	0x3f86446a	1.0489628
146	0x3f7a6e43	0.97824496
147	0x3f82b355	1.0210978
148	0x3f8c62bd	1.0967633
149	0x3f837123	1.0268902
150	0x3f77854c	0.9668777
151	0x3f7958f5	0.9740136
152	0x3f74bef6	0.95603883
153	0x3f756a47	0.9586529
154	0x3f7e3818	0.9930434
155	0x3f7dbba8	0.99114466
156	0x3f73c23f	0.9521827
157	0x3f842cc5	1.0326163
158	0x3f8f5c68	1.1200075
159	0x3f87152c	1.0553336
160	0x3f884153	1.0644935
161	0x3f7a76e3	0.97837657
162	0x3f7f1d2e	0.996539
163	0x3f768844	0.96301675
164	0x3f7acc13	0.9796764
165	0x3f726a1c	0.9469316
166	0x3f75f185	0.96071655
167	0x3f718682	0.9434587
168	0x3f827e45	1.0194784
169	0x3f87a245	1.0596396
170	0x3f80af05	1.0053412
171	0x3f761015	0.9611829
172	0x3f779699	0.9671417
173	0x3f807a4d	1.0037323
174	0x3f82c64b	1.0216764
175	0x3f82c124	1.0215192
176	0x3f7b4023	0.9814474
177	0x3f7bd3c9	0.98370034
178	0x3f846dc1	1.0345994
179	0x3f8a74b2	1.0816863
180	0x3f800afe	1.0003355
181	0x3f7d7707	0.99009746
182	0x3f826cea	1.0189488
183	0x3f8068b3	1.0031952
184	0x3f8b85dd	1.0900227
185	0x3f82bc66	1.0213745
186	0x3f77781e	0.9666766
187	0x3f78497f	0.96987146
188	0x3f7baeb0	0.98313427
189	0x3f80e4af	1.0069789
190	0x3f7b5daf	0.98189825
191	0x3f849a28	1.0359545
192	0x3f7a9850	0.9788866
193	0x3f7cc562	0.9873868
194	0x3f7fdf2e	0.9994992
195	0x3f898da2	1.0746348
196	0x3f86554a	1.0494778
197	0x3f7a320e	0.9773263
198	0x3f7ef252	0.995885
199	0x3f9d1507	1.2272042
200	0x3f893c25	1.072148
201	0x3f735c6c	0.950629
202	0x3f866363	1.049908
203	0x3f75e89d	0.96058065
204	0x3f899687	1.0749062
205	0x3f80f3d8	1.0074415
206	0x3f7b34f2	0.98127663
207	0x3f8993a8	1.0748186
208	0x3f7e393c	0.9930608
209	0x3f77de41	0.9682351
210	0x3f8108af	1.0080775
211	0x3f786ba4	0.97039247
212	0x3f7d7903	0.99012774
213	0x3f82000b	1.0156263
214	0x3f7a829b	0.9785554
215	0x3f6033e7	0.87579197
216	0x3f793ba2	0.9735662
217	0x3f867a73	1.0506119
218	0x3f847a29	1.034978
219	0x3f7903c2	0.9727136
220	0x3f7eee06	0.99581945
221	0x3f7bf2f7	0.9841761
222	0x3f82cf96	1.02196
223	0x3f73ed89	0.95284325
224	0x3f83c130	1.0293331
225	0x3f808fe2	1.004391
226	0x3f7fb8c9	0.99891335
227	0x3f814719	1.0099822
228	0x3f76af7b	0.9636151
229	0x3f78fd54	0.9726155
230	0x3f80a491	1.0050222
231	0x3f80692b	1.0032095
232	0x3f820f75	1.0160967
233	0x3f7ec35d	0.9951685
234	0x3f79f61b	0.9764115
235	0x3f65d721	0.89781386
236	0x3f824a3b	1.0178903
237	0x3f79ee08	0.9762883
238	0x3f793ac2	0.9735528
239	0x3f8a310d	1.0796219
240	0x3f7534f2	0.95783913
241	0x3f7c7dc2	0.9862939
242	0x3f77cf00	0.9680023
243	0x3f78912f	0.9709653
244	0x3f8bde3e	1.0927198
245	0x3f77ad3c	0.9674871
246	0x3f758c1e	0.95916927
247	0x3f79c540	0.97566605
248	0x3f7dd57b	0.9915387
249	0x3f81ea40	1.0149612
250	0x3f782cb8	0.96943235
251	0x3f77070f	0.96495146
252	0x3f6d5732	0.92711174
253	0x3f630da2	0.8869268
254	0x3f7ea729	0.99473816
255	0x3f80e2d6	1.0069225

encoder.4.bias f4 [256]
0	0xbd7c4260	-0.061586738
1	0xbd0917fc	-0.03347014
2	0xbd757130	-0.059922397
3	0xbd5ed197	-0.0543991
4	0xbd3ff550	-0.046864808
5	0xbd343231	-0.04399318
6	0xbd142cb9	-0.036175463
7	0xbd85655c	-0.065134734
8	0xbd1dfc61	-0.038570765
9	0xbd83093a	-0.06398244
10	0xbd7655b9	-0.060140345
11	0xbd8590c3	-0.06521752
12	0xbdb7ad14	-0.08968559
13	0xbd52fc49	-0.05151013
14	0xbd98fd3f	-0.07470178
15	0xbd99677b	-0.074904405
16	0xbd82f358	-0.063940704
17	0xbd3882d0	-0.045046628
18	0xbdbafeac	-0.09130606
19	0xbd20b6bb	-0.039236765
20	0xbda32e35	-0.07967798
21	0xbd968510	-0.073495984
22	0xbd70dced	-0.05880444
23	0xbd8a0a72	-0.067402735
24	0xbd735788	-0.05940965
25	0xbd5fc80e	-0.054634146
26	0xbd65778e	-0.05602222
27	0xbd4c40de	-0.04986655
28	0xbd563937	-0.052300658
29	0xbd26fc42	-0.040767916
30	0xbd312a57	-0.04325327
31	0xbdae6c78	-0.085167825
32	0xbd20230b	-0.03909592
33	0xbd687acc	-0.056757733
34	0xbd608857	-0.054817524
35	0xbd555267	-0.052080538
36	0xbd189d9b	-0.03725968
37	0xbdc5527f	-0.096348755
38	0xbd66f6de	-0.056387775
39	0xbd37e6f5	-0.044897992
40	0xbd97d672	-0.07413949
41	0xbd1dedb7	-0.03855678
42	0xbd932a4d	-0.071858026
43	0xbd4b30aa	-0.049606957
44	0xbcae51f7	-0.021279318
45	0xbd0041ae	-0.031312637
46	0xbd23867e	-0.039923184
47	0xbdddd95d	-0.108324744
48	0xbd8eaca9	-0.06966526
49	0xbd517f90	-0.051147044
50	0xbd39ce6d	-0.04536288
51	0xbd9bedc6	-0.07613711
52	0xbdf975d4	-0.12180677
53	0xbcf86ad5	-0.030324379
54	0xbd67734a	-0.056506433
55	0xbd6a5096	-0.05720576
56	0xbdbb3fc1	-0.091430195
57	0xbd937018	-0.071991146
58	0xbd2041d5	-0.039125282
59	0xbd71236e	-0.05887168
60	0xbd1fa9db	-0.038980346
61	0xbd6306d5	-0.055426437
62	0xbd856bb4	-0.06514683
63	0xbd46820a	-0.04846386
64	0xbd3133ca	-0.04326228
65	0xbcce4680	-0.025180101
66	0xbd431e75	-0.047636468
67	0xbd4d5b06	-0.050135635
68	0xbd7ad17b	-0.061234932
69	0xbd80d7c6	-0.062911555
70	0xbd368102	-0.044556625
71	0xbd8360db	-0.06414958
72	0xbd4750ef	-0.04866117
73	0xbd721159	-0.059098575
74	0xbcfaf5fe	-0.030634876
75	0xbdcee826	-0.101028726
76	0xbd5b8f7f	-0.053603645
77	0xbda0bd59	-0.07848615
78	0xbd59fe5b	-0.053221088
79	0xbd86e8e6	-0.065873906
80	0xbcffd3e8	-0.031228974
81	0xbd170931	-0.036874
82	0xbd789d5a	-0.060696937
83	0xbd3535fc	-0.044240937
84	0xbd4a1182	-0.049333103
85	0xbd4c28d8	-0.04984364
86	0xbd754671	-0.05988163
87	0xbd1a8ae1	-0.0377301
88	0xbdacec3b	-0.08443495
89	0xbd69e8cd	-0.05710678
90	0xbd25a5e5	-0.040441412
91	0xbdc251c0	-0.09488249
92	0xbdbeb22b	-0.093113266
93	0xbd6daf4f	-0.058028515
94	0xbd4f4c10	-0.05060965
95	0xbd3ffb90	-0.046870768
96	0xbd25685a	-0.04038272
97	0xbd6ac485	-0.057316322
98	0xbd82e19e	-0.06390689
99	0xbd68d196	-0.0568405
100	0xbd804948	-0.06263977
101	0xbd7560f0	-0.0599069
102	0xbd999315	-0.07498757
103	0xbd42d94d	-0.047570515
104	0xbd73e358	-0.059542984
105	0xbd90bd14	-0.07067314
106	0xbd275e50	-0.040861428
107	0xbd29f448	-0.04149273
108	0xbd78446f	-0.06061214
109	0xbd6e2ef3	-0.058150243
110	0xbd326603	-0.043554317
111	0xbd9dfba9	-0.07714016
112	0xbd659411	-0.05604941
113	0xbd8de428	-0.06928283
114	0xbd062754	-0.03275235
115	0xbd9982df	-0.07495665
116	0xbd6d4399	-0.057925794
117	0xbd863872	-0.06553735
118	0xbd4ddbcf	-0.050258454
119	0xbd9fd460	-0.07804179
120	0xbd8fcf19	-0.070219226
121	0xbd4bb654	-0.04973443
122	0xbcf0ac29	-0.029378967
123	0xbd5d73df	-0.05406558
124	0xbd433338	-0.047656268
125	0xbd20d602	-0.039266594
126	0xbd47abe0	-0.048747897
127	0xbdebf4cf	-0.11521303
128	0xbd2ab415	-0.041675646
129	0xbd705f52	-0.058684655
130	0xbd19072c	-0.037360355
131	0xbd26eda7	-0.040753987
132	0xbcf9ddd9	-0.030501293
133	0xbd61b616	-0.05510529
134	0xbd45fa71	-0.048334543
135	0xbd6f04d9	-0.058354232
136	0xbd8eda8b	-0.069752775
137	0xbd9e43d6	-0.077277824
138	0xbd125bc3	-0.035732042
139	0xbc51d439	-0.0128069455
140	0xbd64c151	-0.055848423
141	0xbd10b146	-0.03532531
142	0xbd356621	-0.04428685
143	0xbda26922	-0.07930209
144	0xbd5fd03c	-0.054641947
145	0xbd110831	-0.035408203
146	0xbd8534d0	-0.06504214
147	0xbd683fd6	-0.056701504
148	0xbd76bd6e	-0.060239248
149	0xbd69ae0d	-0.057050753
150	0xbd6d30e6	-0.05790796
151	0xbd607c90	-0.054806292
152	0xbd9c1f39	-0.07623143
153	0xbd8f5236	-0.06998102
154	0xbd312e53	-0.04325707
155	0xbd584ce2	-0.052807696
156	0xbd9175df	-0.0710256
157	0xbd473dd9	-0.048642967
158	0xbdc804e5	-0.097665586
159	0xbd50c189	-0.05096582
160	0xbd0d5f29	-0.03451458
161	0xbddd7536	-0.10813372
162	0xbd3de5d2	-0.04636175
163	0xbd84a2e2	-0.0647638
164	0xbd8582c8	-0.06519085
165	0xbdbb1420	-0.09134698
166	0xbd970264	-0.07373503
167	0xbdc30cc7	-0.095239215
168	0xbd175dc5	-0.03695466
169	0xbd5f3edb	-0.054503303
170	0xbd2535fc	-0.040334687
171	0xbdcf1089	-0.10110576
172	0xbdbbe06a	-0.09173663
173	0xbd22c971	-0.03974289
174	0xbd376a3e	-0.044779055
175	0xbd147ee5	-0.03625383
176	0xbdcaf19a	-0.09909363
177	0xbd855c56	-0.06511752
178	0xbd22f09a	-0.039780237
179	0xbd0694bf	-0.0328567
180	0xbd7b5daf	-0.06136864
181	0xbd3f2ee6	-0.046675585
182	0xbd95f98f	-0.0732299
183	0xbd904fab	-0.070464455
184	0xbdabc29b	-0.083867274
185	0xbd327bb8	-0.04357502
186	0xbda5aedb	-0.08089992
187	0xbd38dcef	-0.045132574
188	0xbd2e54b2	-0.04256124
189	0xbd8732c2	-0.06601478
190	0xbd8ec5ce	-0.06971322
191	0xbd577046	-0.052597307
192	0xbd987b0f	-0.074453466
193	0xbd4cdf47	-0.05001762
194	0xbd307773	-0.043082666
195	0xbd933db5	-0.07189504
196	0xbd4120dd	-0.04715048
197	0xbd8b301b	-0.06796285
198	0xbd1a2b16	-0.037638746
199	0xbd83607a	-0.06414886
200	0xbd23acf8	-0.039959878
201	0xbd856c3f	-0.06514787
202	0xbd4d53ee	-0.05012887
203	0xbd86c290	-0.065800786
204	0xbd6a61f4	-0.05722232
205	0xbd92d939	-0.07170338
206	0xbd83df86	-0.06439118
207	0xbd2b7a53	-0.041864704
208	0xbd7a4e90	-0.06111008
209	0xbd7d17f7	-0.061790433
210	0xbd7938c9	-0.06084517
211	0xbd78a848	-0.06070736
212	0xbd25dc74	-0.040493444
213	0xbd35592e	-0.0442745
214	0xbd9f5080	-0.07779026
215	0xbe225292	-0.1585181
216	0xbd750915	-0.059823114
217	0xbd33cf08	-0.043898612
218	0xbd16ea5c	-0.036844596
219	0xbd6d5b90	-0.05794865
220	0xbd38d103	-0.045121204
221	0xbdfce234	-0.12347832
222	0xbd2a643e	-0.041599505
223	0xbdafb982	-0.08580305
224	0xbd2b8640	-0.041876078
225	0xbcf601c1	-0.030030133
226	0xbd4d3b16	-0.050105177
227	0xbd3b2987	-0.0456939
228	0xbda597e3	-0.08085611
229	0xbd78b952	-0.06072361
230	0xbd8a5d98	-0.06756133
231	0xbd4d1e91	-0.05007798
232	0xbd584dcd	-0.05280857
233	0xbd5da0e5	-0.05410852
234	0xbd590f3d	-0.052993048
235	0xbe06ade7	-0.13152276
236	0xbd47fd2a	-0.04882542
237	0xbd9077f8	-0.07054132
238	0xbd8427fb	-0.06452938
239	0xbd0daebf	-0.03459048
240	0xbd896a8d	-0.06709776
241	0xbd40fd33	-0.04711647
242	0xbd7a5050	-0.06111175
243	0xbd6a3a55	-0.057184536
244	0xbd6de25c	-0.0580772
245	0xbd62c111	-0.055359904
246	0xbd8c06c5	-0.06837229
247	0xbd70ff72	-0.05883736
248	0xbd277993	-0.040887427
249	0xbd54d0b2	-0.05195684
250	0xbd9239c1	-0.07139922
251	0xbd87629c	-0.06610605
252	0xbdc61f00	-0.096738815
253	0xbe281457	-0.16414009
254	0xbd809898	-0.06279105
255	0xbd632cba	-0.055462576
