modelparameter/autoencoder_lognormal8_2.pth (torch, 764415 bytes, 36 tensors)

encoder.0.weight f4 [128, 12]
000000 c5 1e 30 3d c2 c8 c2 3c 32 98 34 3e 83 e2 bf bd
       0.042998094 0.02377737 0.17636183 -0.093693756
000010 3b bf 29 be 24 89 0a 3e 81 4e 37 3e b4 be 05 bc
       -0.16576855 0.13528877 0.1790104 -0.008163143
000020 89 fc 3d be 4e a8 3f be 95 cd 5e 3c 48 45 79 3e
       -0.18553366 -0.18716547 0.013598819 0.24342835
000030 b2 24 87 be 27 8b c7 3d f2 cb 6e bc 9f cb 06 3d
       -0.26395184 0.09743338 -0.014574992 0.032909032
000040 c2 fa 1a be 60 a7 b9 3d e0 1a 34 bd e5 fc 09 be
       -0.15134719 0.090651274 -0.043970942 -0.13475378
000050 c5 8a 0d bc ef f4 1a be 3e 3b 0b 3c 7b d0 44 bd
       -0.008639042 -0.15132497 0.008498011 -0.048050385
000060 a4 a8 f1 3d da 33 34 3e 11 14 fd bd f7 aa 95 bb
       0.11799744 0.17597905 -0.12357343 -0.0045674997
000070 8b ce 30 be 1e 7a 68 bd 26 bd 1d bd 3a 54 48 3e
       -0.1726629 -0.056757085 -0.038510464 0.1956338
000080 4b 1d 68 3e fb f3 a0 3c 8d 96 c3 3d 77 a7 17 bc
       0.22667424 0.019647589 0.095502 -0.009256235
000090 e3 e9 a1 3b 11 24 d0 3a 9e a5 10 3e 5c b9 88 be
       0.0049412115 0.0015879889 0.14125678 -0.26703918
0000a0 14 0e 20 3e 4e e8 96 bd 3a ef 89 bd 00 6d 58 3e
       0.1563037 -0.07368527 -0.06735082 0.2113533
0000b0 13 3a 04 be 30 f4 33 3e 0c 3f 24 be bf 0c 4d 3d
       -0.12912779 0.17573619 -0.16039675 0.050060984
0000c0 76 1f d0 bd 10 16 10 3e ce 17 23 3d 61 d3 4c 3e
       -0.10162251 0.14070916 0.039817624 0.2000251
0000d0 7a 14 56 3e 91 9d 9a bd 2e 2a c8 bd 90 f7 7b 3c
       0.20906249 -0.07549585 -0.0977367 0.015378848
0000e0 5f 88 8e bd 4b 20 2f 3e d5 a2 44 bd 14 92 cb bd
       -0.069596045 0.17102163 -0.04800685 -0.099399716
0000f0 c0 b6 7b be ff ab 08 3e 72 42 04 be 8e c6 51 3e
       -0.24581432 0.13346861 -0.12915972 0.20485899
000100 05 b4 2b 3d 3a 7a 5b bd 0c b4 75 3c 5a 21 63 bd
       0.041919727 -0.05358336 0.01499654 -0.05545173
000110 59 ef 27 be ed 3d 6f 3d 79 b1 88 3d 3a a6 3e 3c
       -0.16399898 0.058408666 0.06674475 0.011636311
000120 4a b2 e6 3d b6 64 07 be e9 cc 76 3e 33 3c 8d be
       0.11264475 -0.13222012 0.24101605 -0.2758499
000130 45 05 09 3e be 0f 2c be 8e 95 32 bc f3 59 cf 3d
       0.13380916 -0.1680288 -0.010899914 0.10124578
000140 f6 b6 00 be a6 e9 07 3e ca e6 d0 bb 6a fc c0 bd
       -0.12569794 0.13272724 -0.0063751685 -0.09423144
000150 77 1f 03 3e 31 4a 5c be a1 d5 5f 3e a6 30 8c be
       0.12804972 -0.21512677 0.21858837 -0.27380866
000160 60 29 32 be 39 a2 da bc 41 5d 13 3e 53 4b 05 3e
       -0.17398596 -0.026688682 0.14391042 0.13017015
000170 88 07 ef 3c 11 c8 b5 bd 6b da 70 3d eb 48 ba 3d
       0.029178396 -0.0887605 0.05880205 0.09095939
000180 c7 56 13 bd 15 72 1e 3e 2a af 19 3e 1b ab 13 be
       -0.03597143 0.15473206 0.15008226 -0.1442074
000190 22 d3 e3 3d 52 89 27 3d 17 67 3f 3d 4f 0b be bd
       0.11124255 0.040902443 0.046729174 -0.09279501
0001a0 50 34 e0 3d b2 96 ea 3d d5 89 21 be 44 62 83 3d
       0.10947478 0.11454524 -0.15775235 0.06415227
0001b0 e1 e5 85 bc 20 06 89 bd 4f a7 e7 bd 0c 8e 4c 3e
       -0.016344966 -0.066906214 -0.113112085 0.19976062
0001c0 ac f1 61 3d 51 f1 c6 3d b0 4d 11 3b 48 7b e0 bd
       0.055162117 0.09713996 0.002217155 -0.10961014
0001d0 61 a4 8a bc f8 39 81 bd f5 94 6f 3d fd 2e 9b 3d
       -0.016924085 -0.06309885 0.058491666 0.07577322
0001e0 70 70 82 3e 60 96 98 be df 76 91 3d 62 a8 d4 3c
       0.25476408 -0.29802227 0.07102751 0.025959197
0001f0 7c 1c 7b bd 87 52 44 3d 37 d3 63 be a5 05 0a 3e
       -0.06130646 0.047930267 -0.22248541 0.13478716
000200 c7 05 67 3e 57 cc df 3d 50 67 6b bd 6d 13 22 be
       0.22560798 0.109276466 -0.057471573 -0.15827723
000210 ad 29 01 be 6e b7 f7 3d 59 d0 d9 bc 5c 11 3e 3e
       -0.12613554 0.12095533 -0.026588606 0.1856131
000220 16 ea 82 bd d8 72 21 3d c8 cb f1 bd df f3 d2 bd
       -0.063923046 0.039416164 -0.11806446 -0.10300421
000230 39 b9 17 3e 11 a3 c1 bc 6c d5 1a bd ec 32 13 be
       0.1481675 -0.023637326 -0.03780119 -0.14374894
000240 83 a0 f8 3d 07 7a 92 be 05 95 a0 bd 0a 3f 12 be
       0.1213999 -0.28608724 -0.07840923 -0.1428186
000250 f7 fb c9 3d 65 48 49 bd 86 5a 30 bb 50 5a f5 3d
       0.098625116 -0.049141306 -0.0026909425 0.11980116
000260 5a 4e 12 be f0 07 3a 3e e0 4f 3d be 41 c7 fd bd
       -0.14287701 0.1816709 -0.18487501 -0.1239152
000270 c3 90 83 3d 24 a7 2a 3e 29 05 3c bd cb ac 00 3e
       0.064240955 0.16665322 -0.04590336 0.12565915
000280 4b 76 7c 3d 3d c1 e4 bd aa 44 07 bd 12 9a 04 be
       0.06163625 -0.1116967 -0.033024468 -0.12949398
000290 6a 6c d9 3d a7 34 ec bd ef 5b d7 3d 1b dd 75 be
       0.106163815 -0.1153348 0.10515582 -0.24010126
0002a0 fe da 90 be 12 b6 03 be f8 7b 8e 3e 02 15 30 3e
       -0.28292078 -0.12862423 0.27828956 0.17195514
0002b0 fd 42 63 39 03 b5 70 bd a2 c4 d6 3c 7c 6c a4 bd
       0.00021673362 -0.058766376 0.026216809 -0.08028504
0002c0 bf db e0 bd 74 5c 14 3d 2b 57 e3 bd 11 9e 1a be
       -0.10979413 0.036220983 -0.1110061 -0.1509936
0002d0 f6 72 8a bd 5a 71 9c 3d 76 69 a4 3d cd d4 14 3e
       -0.06760208 0.076388076 0.080279276 0.14534302
0002e0 ed 71 e7 bc 06 8d 21 3b 90 dd da bd f1 09 ab bb
       -0.028252566 0.0024650707 -0.10686791 -0.005219691
0002f0 10 c6 53 3e bb 92 83 bd 4e 40 b1 3d 63 88 95 bd
       0.20681024 -0.06424471 0.08654843 -0.07301404
000300 e1 69 67 3e c9 ec 45 3e 9c d4 2d bd 7a 51 f6 bd
       0.22598983 0.19328608 -0.04243909 -0.12027259
000310 88 55 05 be 16 a8 92 3d 1f 9c 4e bd f1 49 33 3d
       -0.13020909 0.07160966 -0.050441857 0.043771688
000320 f9 8d 2c 3e a8 35 fd bd 33 a0 ec bd 4b 3e be 3c
       0.16851033 -0.1236375 -0.11553993 0.023223063
000330 3b dc 13 be 91 c4 07 be fb eb ac 3d 1d e7 95 3d
       -0.1443948 -0.13258578 0.08443447 0.07319472
000340 27 90 1f be 9e 0b f1 3d 4b d6 8f bd db b5 34 be
       -0.15582334 0.11769794 -0.07023295 -0.17647497
000350 3d 09 41 3e b7 d0 14 be 36 88 7a 3d 2f 08 3c bd
       0.1885118 -0.14532743 0.061165057 -0.045906242
000360 c8 58 0e be ba 72 8f be 3d 5e e3 3d 8d 83 7b 3e
       -0.13901055 -0.28017217 0.11101959 0.24561901
000370 14 52 e2 3c 05 99 ba 3d ec 75 a6 bd ca 5a 42 3e
       0.027627029 0.091112174 -0.081279606 0.18979946
000380 28 43 25 3e 34 8e 95 3d 50 82 74 bb 86 af e8 3d
       0.161389 0.07302514 -0.0037309118 0.113616034
000390 c9 53 09 3e 7e 4c 0d 3e d8 81 6e bd a1 45 12 bd
       0.13410868 0.1379871 -0.058229297 -0.035710935
0003a0 bd ee fd 3d c4 ca 55 3d 64 12 c7 bc 51 a4 a8 bd
       0.12399051 0.052195325 -0.024300762 -0.08234466
0003b0 09 5a b2 3d bc ac ac bd db ef b8 bd f5 df ae bd
       0.08708579 -0.08431384 -0.09030124 -0.0853881
0003c0 9e eb 30 3e f7 49 0f be b4 ff 81 3d df fe 86 b9
       0.17277381 -0.13993059 0.063475996 -0.00025748365
0003d0 53 41 e7 3d 99 ee a5 bd 22 e6 4d 3d 7b 34 5b 3e
       0.112917565 -0.081021495 0.0502683 0.21406738
0003e0 d4 cd 0b 3e 2e cf 81 3d fb fb 15 3c 7f e1 01 3e
       0.13652736 0.063383445 0.009154315 0.12683676
0003f0 1f 6a a0 bd e3 8d 6b 3e 47 05 0e 3d 7b 28 61 be
       -0.07832741 0.23003344 0.034673 -0.21988098

encoder.0.bias f4 [128]
000000 c8 ab 41 bc 3f 7f c6 3b d0 68 00 bc 85 d1 ff ba
       -0.011820741 0.0060576494 -0.007837489 -0.0019517398
000010 25 74 37 3a 6a db 78 3b 5a 8f 1e bc 8e 99 7e 3b
       0.0006998203 0.0037972578 -0.009677732 0.003884885
000020 ff 42 9b bb d5 27 90 bb cc 8d 83 3a 58 e0 5c b8
       -0.004738211 -0.0043992796 0.0010036766 -5.2661024e-05
000030 d4 dc 7f 3b 8b d1 87 bb 6e 61 e9 3b 8f 5a 03 bc
       0.0039041536 -0.0041448525 0.00712221 -0.008017196
000040 62 1e 1e bc cb c3 0a bc 3e 64 82 3b 39 25 cd bb
       -0.0096507985 -0.008469532 0.003979235 -0.006260541
000050 23 6a 81 bc b5 46 6b 3b 3a 91 09 3d 37 a6 86 3a
       -0.01579768 0.00359003 0.033585764 0.0010272925
000060 9a 51 00 b9 34 1e 14 bc b6 8d ac bc 4c 6c 4d bc
       -0.0001223743 -0.009040404 -0.021063667 -0.012538027
000070 2e 66 00 3a 17 61 9b bc a3 95 03 bd 37 55 05 bc
       0.00048980385 -0.018967194 -0.032125127 -0.008137993
000080 51 35 2a 3b 1b 90 6f bb 0c db ea bb 15 81 21 bc
       0.002597172 -0.00365544 -0.0071672257 -0.009857436
000090 7d b6 8d 3b ac 16 59 bb 45 56 85 bc a9 9b 89 3c
       0.004324733 -0.0033125086 -0.016276488 0.016797857
0000a0 4e 4c 25 bc d2 87 c8 3b 05 6c 69 3b 2b 4b 08 3c
       -0.010088993 0.0061197067 0.0035617363 0.008318703
0000b0 29 a5 87 3c dc 12 9c 3c 0f f2 f9 3b bb 68 1b bc
       0.016558247 0.019051962 0.0076277326 -0.009485419
0000c0 cf c1 0a bc e2 4c 30 3b 5d fc 7b bb 37 d7 32 bb
       -0.008469059 0.0026901294 -0.003844998 -0.0027288923
0000d0 dd 2d 4a 3c 3b 35 84 bb ea 40 95 bc 8f 39 e9 3a
       0.012340036 -0.004034666 -0.01821943 0.0017793643
0000e0 9e 3f 7e bb a2 97 5b 3c 1e 01 14 bc 81 7c 83 3c
       -0.0038795243 0.013402851 -0.0090334695 0.016050579
0000f0 57 7b 74 3b 97 17 ee 3b 41 aa 8a bb 72 9b b9 3b
       0.0037304962 0.0072659957 -0.0042317216 0.0056642825
000100 23 67 78 bc 21 77 b4 bb 80 38 2e 3c aa 89 62 bb
       -0.015161308 -0.0055073653 0.010633588 -0.0034566917
000110 93 7d f3 3a cf f3 16 bb bd 8e d9 3b 4a 84 f8 3b
       0.0018576853 -0.0023033505 0.00663933 0.0075841295
000120 d9 95 56 3b b5 ff 83 3b 8f 85 98 3c af e8 07 3c
       0.0032743125 0.0040282854 0.018618373 0.008295222
000130 e2 61 91 3c a2 23 83 3c c1 6b 1a ba 2c 6a b7 3a
       0.01774687 0.016008202 -0.00058906904 0.0013993434
000140 cc 85 d4 bb f4 78 9b 3c 33 b4 9f 3b 38 f7 bb 3b
       -0.0064856764 0.018978573 0.0048737763 0.005736258
000150 da 5e 2a 3b d3 bd 55 bb 7d a3 24 bc 57 ea 57 bc
       0.0025996477 -0.0032614365 -0.010048744 -0.01317843
000160 63 7d f8 3a e9 82 8c 3c 2b 7a 33 3b 0d dd 3a bb
       0.0018958267 0.017152267 0.002738605 -0.0028513104
000170 ba d7 1b bb ae 47 35 3c fa 4d 0e 3a b4 45 b6 bb
       -0.0023779706 0.011064453 0.00054284895 -0.0055625085
000180 4b d6 f4 3b 41 45 65 3c 0d 64 58 3c 86 74 d0 bb
       0.007471835 0.013993562 0.013207448 -0.006361547
000190 1d 3b 18 bc 03 7e 94 3c 3f d4 51 3c 49 09 f7 bb
       -0.009291437 0.018126493 0.012806951 -0.0075389487
0001a0 cc 5c 0a 3c 72 a8 dd bb 7f 86 c4 bc 41 fd b6 bb
       0.008444976 -0.006764465 -0.023989914 -0.0055843894
0001b0 a2 fe b5 bb 77 41 00 3b 5f 00 b8 bb a0 6d 34 bc
       -0.0055540362 0.001957027 -0.0056152786 -0.011012465
0001c0 23 a6 76 3c f4 d2 da 3c 1a 43 f5 bb f1 54 9b 3c
       0.0150542585 0.026711918 -0.007484806 0.018961402
0001d0 e1 b3 95 b8 73 b1 c7 bb b7 5a 10 3c f5 e6 8c bc
       -7.138379e-05 -0.0060941516 0.008810691 -0.017199973
0001e0 79 6f ea b9 8f 6c b7 ba 60 45 13 bc a9 b4 8b 3b
       -0.00044715012 -0.0013994145 -0.008988708 0.0042634797
0001f0 e6 a1 eb ba a7 09 d7 3b 83 d7 9f 3a d1 be 8d 3a
       -0.0017977327 0.00656243 0.0012194965 0.0010814314

encoder.1.weight f4 [128]
000000 68 ff 7c 3f c2 9b 83 3f de 13 80 3f 0f a0 81 3f
       0.9882722 1.0281909 1.0006063 1.0126971
000010 f0 52 7e 3f 1a 96 81 3f 52 15 82 3f 07 1d 84 3f
       0.993453 1.0123932 1.0162756 1.0321358
000020 52 0c 71 3f d7 4b 6f 3f 16 46 82 3f 39 ad 77 3f
       0.94159424 0.934751 1.0177639 0.9674869
000030 79 33 80 3f 9b 87 75 3f 4d 95 82 3f 2a e7 75 3f
       1.0015708 0.9591004 1.0201813 0.96055853
000040 e6 76 76 3f 5f 97 7f 3f 80 bf 83 3f cb 11 6f 3f
       0.96275175 0.9984035 1.0292816 0.93386525
000050 b0 80 6f 3f 73 c7 81 3f 57 72 98 3f eb 9e 7d 3f
       0.93555737 1.0138992 1.1909894 0.99070615
000060 74 64 79 3f 34 a2 6f 3f c8 ee 77 3f 2c 6a 76 3f
       0.97418904 0.9360688 0.96848726 0.96255755
000070 4e f2 7f 3f 34 aa 73 3f c7 52 77 3f 90 60 80 3f
       0.999791 0.95181584 0.96610683 1.0029469
000080 4a fb 80 3f 8b bd 83 3f 46 dc 79 3f fe ef 78 3f
       1.0076687 1.0292219 0.97601736 0.972412
000090 9d 8a 82 3f d8 ff 82 3f 46 ad 6f 3f 6b 45 87 3f
       1.0198551 1.0234327 0.9362377 1.056806
0000a0 08 83 78 3f f9 61 7f 3f f1 ff 81 3f 5c 61 87 3f
       0.9707494 0.9975887 1.0156232 1.0576587
0000b0 3d fb 81 3f 6b 90 8b 3f ba da 81 3f 13 16 72 3f
       1.0154797 1.0903448 1.0144875 0.9456493
0000c0 52 4c 7d 3f 6c 9d 7d 3f bf fa 6f 3f d0 d8 7d 3f
       0.9894458 0.9906833 0.93741983 0.99158955
0000d0 25 21 83 3f 12 2c 72 3f a6 d3 75 3f 68 b7 6c 3f
       1.024449 0.94598496 0.96026075 0.92467356
0000e0 9f e6 7e 3f 51 6b 87 3f 72 32 81 3f 01 56 83 3f
       0.9957065 1.0579625 1.009352 1.0260621
0000f0 02 d6 7e 3f c4 cb 76 3f ee bf 78 3f d3 dd 7f 3f
       0.995453 0.9640467 0.9716786 0.9994785
000100 91 1f 83 3f 52 76 77 3f 84 dc 82 3f 77 7b 87 3f
       1.0244008 0.9666492 1.0223546 1.0584553
000110 62 e5 80 3f e7 b7 64 3f 91 eb 83 3f 00 a0 83 3f
       1.0070002 0.8934311 1.0306264 1.0283203
000120 0f e3 7b 3f db 71 83 3f b2 33 86 3f 8d cf 82 3f
       0.9839334 1.0269121 1.0484526 1.021959
000130 40 5f 7e 3f 1a b9 82 3f 46 c9 86 3f 58 ff 70 3f
       0.9936409 1.0212739 1.0530174 0.94139624
000140 84 5b 80 3f e6 fc 89 3f fe f8 86 3f 38 9a 80 3f
       1.0027928 1.0780303 1.0544736 1.0047064
000150 f4 22 7c 3f fc bb 79 3f bf c3 81 3f 51 6e 7c 3f
       0.98490834 0.97552466 1.0137862 0.9860583
000160 eb fa 84 3f 96 ae 83 3f 8b 34 80 3f 09 b9 7f 3f
       1.0389074 1.0287654 1.0016035 0.99891716
000170 2b 7d 70 3f 8c a5 7c 3f 51 79 84 3f f7 bb 80 3f
       0.9394099 0.98690104 1.0349523 1.0057362
000180 19 2a 82 3f 79 c5 85 3f 8d 40 85 3f 24 3c 7f 3f
       1.0169097 1.0450889 1.0410324 0.9970114
000190 6c 55 6e 3f 66 63 83 3f ef 19 80 3f 9e b5 80 3f
       0.93099093 1.0264709 1.0007914 1.0055425
0001a0 cb 3a 83 3f 79 70 7b 3f 7c e2 7a 3f 95 02 82 3f
       1.0252317 0.98218495 0.9800184 1.0157038
0001b0 8d d4 80 3f 89 6c 7a 3f 03 6b 81 3f 3d f1 81 3f
       1.0064865 0.9782186 1.0110782 1.0151745
0001c0 b5 64 85 3f 6a d7 8b 3f 44 7a 7c 3f 32 7b 82 3f
       1.0421358 1.0925114 0.9862406 1.0193846
0001d0 55 af 7a 3f 49 bd 80 3f 64 e5 83 3f ec 7f 8f 3f
       0.97923785 1.0057765 1.030438 1.1210914
0001e0 18 b7 80 3f cb 40 84 3f 40 bf 8e 3f f2 68 85 3f
       1.0055876 1.0332273 1.1152115 1.0422652
0001f0 95 b8 82 3f 8f c4 82 3f 6d f8 75 3f 64 31 80 3f
       1.021258 1.0216235 0.9608219 1.0015073

encoder.1.bias f4 [128]
000000 d1 00 3c bd 17 f1 5e bd ba a2 21 bd 1c 38 2d bd
       -0.045899216 -0.05442914 -0.03946183 -0.04228984
000010 16 bb 48 bd cf da 04 bd 98 9b 27 bd 9d 32 0a bd
       -0.049006544 -0.032435235 -0.04091987 -0.033739675
000020 88 0d 88 bd ad e0 93 bd a8 12 e5 bc 07 ec 44 bd
       -0.06643206 -0.07220588 -0.027962998 -0.048076656
000030 89 9b 19 bd 15 bf 5b bd 78 d5 0c bd de 3f 88 bd
       -0.037501846 -0.053649027 -0.034383267 -0.06652807
000040 34 d3 6d bd a7 6c 5a bd 73 af f0 bc b0 2f 90 bd
       -0.058062747 -0.053326275 -0.029380536 -0.07040346
000050 e9 31 72 bd 61 59 3b bd 86 e0 95 3b a8 2c 2b bd
       -0.05912963 -0.045739535 0.0045738844 -0.041790634
000060 fa e8 82 bd f6 87 9c bd 96 89 62 bd f9 ad 64 bd
       -0.06392093 -0.0764312 -0.055306993 -0.055829976
000070 2a 46 34 bd f4 e7 64 bd 07 08 a6 bd a1 9a 4e bd
       -0.044012226 -0.05588527 -0.08107 -0.050440434
000080 a7 88 37 bd 08 f5 19 bd 4c 81 58 bd 0a e9 58 bd
       -0.044808056 -0.037587196 -0.052857682 -0.05295662
000090 24 6f 0b bd 74 16 63 bd 0c cc b5 bd 70 7c 5f bd
       -0.03404154 -0.055441335 -0.088768095 -0.054562032
0000a0 80 1d 59 bd bf 5d d5 bc 72 f4 dc bc 55 f3 d1 bc
       -0.05300665 -0.026045678 -0.02697203 -0.025628725
0000b0 fa 82 28 bd d1 5f de bc 28 25 37 bd f3 19 85 bd
       -0.041140534 -0.027145298 -0.04471317 -0.0649909
0000c0 62 3a 23 bd 96 69 13 bd db a8 af bd 45 c0 3f bd
       -0.0398506 -0.035989366 -0.085771285 -0.046814222
0000d0 aa e3 d9 bc bd fa 65 bd c4 56 49 bd 07 cb 95 bd
       -0.026597816 -0.056147326 -0.04915501 -0.07314115
0000e0 6f 9c 1c bd 49 10 a4 bc 17 75 31 bd 4e c6 57 bc
       -0.038235124 -0.020027297 -0.043324556 -0.013169838
0000f0 e8 0b 2e bd a0 a4 37 bd d0 97 4b bd 20 e9 0e bd
       -0.042491823 -0.044834733 -0.049705327 -0.034890294
000100 a1 e8 37 bd 49 30 59 bd 93 2a c5 bc 6b 7b 14 bd
       -0.044899587 -0.053024564 -0.024068153 -0.036250513
000110 65 84 15 bd 81 c8 f1 bd 76 77 00 bd c8 76 64 bd
       -0.036503214 -0.11805821 -0.031363927 -0.05577734
000120 49 46 60 bd 80 cf 8e bc f1 b2 b6 bc d3 0c 28 bd
       -0.05475453 -0.017432928 -0.022302123 -0.041027855
000130 1d 78 51 bd af c7 cf bc 1c c3 19 bd e7 29 a9 bd
       -0.05113994 -0.025363771 -0.037539586 -0.08259945
000140 76 08 0a bd 68 eb 42 bb 07 21 aa bc 2c dc 87 bd
       -0.033699475 -0.0029742364 -0.020767702 -0.06633791
000150 2d 5d 3e bd 4a db 4d bd 95 ba 1f bd 15 6c 53 bd
       -0.046475578 -0.05025796 -0.038996298 -0.051616747
000160 73 6f f8 bc db dc f4 bc c7 e8 38 bd 63 6f ff bc
       -0.03032658 -0.029890468 -0.04514387 -0.031181043
000170 5e 90 b0 bd ba 95 51 bd af 4f 11 bd 04 e4 08 bd
       -0.08621286 -0.05116818 -0.035476383 -0.033420578
000180 90 52 78 bd ac a9 01 bd b7 8d ad bc 7c 73 3f bd
       -0.060625613 -0.031655952 -0.021185739 -0.046740994
000190 00 f6 86 bd 17 cb 1c bd 7f 1a 45 bd 3d 08 34 bd
       -0.065898895 -0.03827962 -0.04812097 -0.04395317
0001a0 e2 fc df bc 6c d7 6f bd 88 c8 6a bd 77 8e 18 bd
       -0.027342264 -0.05855505 -0.057320148 -0.03724524
0001b0 f1 d3 43 bd 67 33 19 bd e0 91 1d bd 4d 55 2e bd
       -0.047809545 -0.037402537 -0.038469195 -0.042561818
0001c0 a5 58 26 bd 0b a1 99 bc fb f6 09 bd ea 8d 1e bd
       -0.04061188 -0.01875355 -0.033682805 -0.03870956
0001d0 d6 cd 3e bd b9 47 91 bd f7 25 1b bd 2e 81 32 bd
       -0.04658302 -0.07093758 -0.037878003 -0.043580227
0001e0 0f ed 03 bd d4 16 d7 bc 82 15 bc bc 1e 9b 0f bd
       -0.0322085 -0.026256002 -0.022959474 -0.03506004
0001f0 ef ee 43 bd 6a 17 f1 bc 46 ad 91 bd 76 a8 07 bd
       -0.047835287 -0.02943011 -0.071131274 -0.03311964

encoder.3.weight f4 [256, 128]
000000 34 7c 0b 3d 33 f0 a8 3c 32 89 a1 3d 6f ad 17 3e
       0.034053996 0.020622348 0.07887496 0.14812253
000010 ad c5 e8 3d 36 c6 ac bd 06 98 35 bd 3f af 83 3d
       0.11365829 -0.08436243 -0.044334434 0.0642991
000020 76 b5 b4 bd 8f a4 f3 bd 15 bb 6e 3b 1c 57 ac bc
       -0.088236734 -0.118966214 0.0036427428 -0.02103763
000030 2a fa a3 3d 18 ff 5b 3d 91 2b 0e be f2 10 d3 bd
       0.080066994 0.053710073 -0.13883807 -0.103059664
000040 35 a2 4c 3d 43 06 57 bd 0b 56 c5 bd 8b 43 f4 bd
       0.04995938 -0.052496206 -0.09635552 -0.11926945
000050 11 bf f0 bc bd 99 12 3e 37 0f 1c bd 1e 6b da 3d
       -0.029387983 0.14316459 -0.038100448 0.10664962
000060 72 7c c3 bc e5 57 db bd 01 dd f3 3d 38 48 99 bd
       -0.023863051 -0.10710124 0.119073875 -0.07484478
000070 95 23 2a be 5e b4 46 3c a1 eb 73 bd 47 04 04 bc
       -0.16615136 0.012127964 -0.059550885 -0.00805766
000080 ac f0 94 3d df b8 0c bd 13 bb 06 3d 5d ab b5 bd
       0.07272467 -0.034355994 0.03289325 -0.088705756
000090 e8 db 0d 3e ab dd b2 3d aa cb 45 bd 24 6a b1 bd
       0.13853419 0.08733686 -0.048289932 -0.08662823
0000a0 b2 2b e8 3b ae 09 1b bd 2c 7a 10 be 0e ea 31 be
       0.007085287 -0.03785103 -0.14109105 -0.17374441
0000b0 59 da 26 bc e8 a5 7a 3c 0d 39 09 3e 3e 00 af bd
       -0.010183894 0.015298344 0.1340067 -0.08544968
0000c0 c0 28 ce 3d ec a5 fa bc 31 0a fd bd 33 a8 80 3d
       0.10066366 -0.030596696 -0.123554595 0.062820815
0000d0 0d 5e dd 3b 00 31 ae bd 63 88 a0 3d d6 db 68 bd
       0.0067555965 -0.0850544 0.07838514 -0.056850277
0000e0 f8 de 6e bd 82 15 77 3a cf 99 e3 bd 87 fc a8 3d
       -0.05831811 0.0009425507 -0.11113321 0.08251291
0000f0 78 5d 0c 3e a9 2d 15 3e 8d 62 14 3d 26 53 b5 bc
       0.1370753 0.14568199 0.036226798 -0.022134375
000100 1d 33 eb 3c 65 4a 4c bc 57 bd 57 bd 9b 57 55 be
       0.028710896 -0.012468909 -0.052670803 -0.208342
000110 05 0f 0f 3e c8 f7 3e bd c6 97 d2 bd 61 1b 80 3d
       0.13970573 -0.04662302 -0.10282855 0.06255222
000120 db 79 3a 3c 66 48 93 bd 75 61 0e 3d ef fb 5b 3d
       0.011381592 -0.07191543 0.03476091 0.05370706
000130 21 d8 07 3d 4f 36 92 3d ab ec b7 bd c2 18 08 3e
       0.0331651 0.07139265 -0.08980688 0.13290694
000140 67 1a 05 3d de 79 85 bd 98 7f 9e bd ad a2 a2 bd
       0.032495882 -0.06517385 -0.0773918 -0.07941184
000150 ba 14 4a bd 7b 25 e3 3d 68 cf 5c 3c 8f 6b e4 3c
       -0.049336173 0.11091133 0.013477184 0.02788332
000160 f0 0e f0 3d 9d 2e 15 bc df 9e 97 bd b0 9a 03 3c
       0.11721599 -0.009105352 -0.07403349 0.008032486
000170 10 6d 74 bc bb 99 e9 bd a9 f5 9e bd d5 c2 5f bd
       -0.014918581 -0.11406275 -0.077617 -0.054629166
000180 39 26 cd 3d 8c 63 d5 bc b8 39 a8 3d e9 15 42 bd
       0.10017056 -0.026048444 0.08214134 -0.047384176
000190 a5 18 c5 ba 72 92 96 bd 0e 29 f8 3d 33 09 96 3c
       -0.0015037252 -0.07352151 0.121172056 0.018314933
0001a0 12 24 14 3e 02 f5 da 3c b7 71 d2 3c 22 d9 a2 bd
       0.14466885 0.026728157 0.02568899 -0.07951571
0001b0 7c 4d 86 3d 5c 52 e2 3c 59 ff a6 3d 25 0c cc bd
       0.06557748 0.027627163 0.081541725 -0.09963254
0001c0 dc bf 9a bd dd d6 df bc 08 8d d1 bd 27 ae 46 be
       -0.075561255 -0.027324134 -0.10231978 -0.19402371
0001d0 66 d9 06 3e 34 9e ab bd 0f c5 17 be 46 0d 02 3e
       0.13168868 -0.08379784 -0.14821266 0.12700376
0001e0 72 c1 1b be 0e 61 57 3d 76 bd 37 be 5c 0e a8 3c
       -0.15210512 0.052582793 -0.17943367 0.02051466
0001f0 f3 93 89 bd bf 79 0f 3e c7 c4 38 bc c8 0f 34 3d
       -0.06717672 0.14011286 -0.011277384 0.043960363
000200 61 51 dc 3d b1 c3 8a 3d 8c c2 44 bd 23 12 3c 3d
       0.10757709 0.067756064 -0.048037097 0.045915734
000210 34 3c 5c bc be f9 41 3d 82 af c1 3d 7a 36 9e bd
       -0.013442088 0.047357313 0.094573036 -0.07725234
000220 33 ca 34 ba 89 bd db bd 9b 35 bd 3a 94 71 f5 3d
       -0.0006896585 -0.1072951 0.0014435531 0.11984554
000230 f1 6b 97 3b b2 9a c5 3d fc 4f d8 3b ea 42 b0 3d
       0.004621022 0.096486464 0.0066013318 0.08606513
000240 04 99 78 bd 5d cb 3e 3d 60 a4 35 bd e0 e2 1e bd
       -0.060692802 0.04658066 -0.044346213 -0.038790584
000250 57 8f 86 bc ae 8c 50 bd 75 1b 9d 3d 77 1e f4 bc
       -0.016425772 -0.050915413 0.07671253 -0.029799683
000260 c5 45 28 bc ec 12 b4 3d 3c 82 75 3d a7 3f 7b bc
       -0.010270541 0.087926716 0.059938654 -0.015335
000270 31 1e c4 bd 4c 60 f3 3d 6e f9 9f 3d 64 9a 33 3d
       -0.09576071 0.118836015 0.07811247 0.04384841
000280 fe 5c 85 3d a8 f9 6a 3d dd 75 85 bb 08 ae 08 be
       0.065118775 0.057366997 -0.0040728883 -0.13347638
000290 f8 ab ab bd be f1 bd bd d7 a0 e8 bd 57 ba a7 3d
       -0.0838241 -0.09274624 -0.11358803 0.081898384
0002a0 2f 8f 83 3d e4 56 00 3e 17 3c 0c 3d e1 6e 46 bd
       0.064237945 0.12533146 0.034236994 -0.048445586
0002b0 f9 38 86 3d 81 8f a6 3c f7 69 7c 3c 0e be 0d 3e
       0.065538354 0.0203321 0.015406123 0.13842031
0002c0 d5 4b 24 3d f1 e4 c5 3d 8d bc b9 bd f0 d1 bb 3d
       0.04011138 0.09662808 -0.09069166 0.09170902
0002d0 fa c8 26 be 14 60 9c bc dd 1b d2 3c 83 1e 4a 3c
       -0.16287604 -0.019088782 0.025648052 0.012336376
0002e0 af 69 bb 3d 9c 38 de bd 2a ab f9 bd 6d 0a e0 bd
       0.09151017 -0.10850641 -0.1219085 -0.109394886
0002f0 b4 93 5e 3d 3f a1 c6 bd cd 15 6a 3d 08 e7 c4 bd
       0.05434008 -0.09698724 0.057149697 -0.09614378
000300 be 22 05 be 53 90 e0 3d 3a ea 86 bd 85 2c d4 3d
       -0.13001534 0.10965028 -0.06587644 0.10360054
000310 cf 3f 68 3c ec 27 58 3d 4b 3b b8 3d 9f 5a 76 3d
       0.014175369 0.052772447 0.08995684 0.060145017
000320 1f 0c 76 3b ea c6 90 bd 34 40 08 3e 1a 08 b2 3d
       0.0037543846 -0.0706919 0.13305742 0.086929515
000330 a5 9f 03 3d de f5 9f 3a 37 84 50 3c ff a2 9b bc
       0.03213467 0.0012204011 0.012726835 -0.018998621
000340 46 7d bb bd b0 15 b7 bd ef c2 fc bd 45 dc 2e 3c
       -0.091547534 -0.089396834 -0.12341868 0.010672634
000350 df 21 c2 bd 6b 5b 0d be 23 59 9a bd 1c 53 50 bd
       -0.09479117 -0.13804404 -0.07536533 -0.05086051
000360 1a 4d ed 3d cb ed ba bd 64 1a 88 3d 13 18 db 3d
       0.115869716 -0.09127387 0.066456586 0.10697951
000370 82 8c 82 bd 1c 22 02 be ca 17 0a bd 11 b7 94 bd
       -0.06374456 -0.12708324 -0.033714093 -0.0726148
000380 90 f4 18 3e 75 b6 56 bd 3b 12 b9 bc ea a1 88 3d
       0.14937043 -0.0524201 -0.0225917 0.06671508
000390 77 7a b2 3d 0e 8c 42 3a e7 c7 f3 3d d8 e0 1a bd
       0.087147646 0.00074213825 0.11903363 -0.037812084
0003a0 4d c4 82 bd 6d 48 ff 3c ab ae c5 bd 7d a7 cf bd
       -0.06385098 0.031162465 -0.09652456 -0.10139368
0003b0 5b ad 20 3d ee 40 22 3d fc 4d f3 bc a8 a5 bc bd
       0.039227825 0.039612703 -0.029700272 -0.09211284
0003c0 8e 83 9f bd 4d 9d 94 3d 9d 68 c6 bd bc 37 bd 3d
       -0.07788764 0.07256565 -0.09687922 0.09239146
0003d0 78 a6 e8 bd ab f1 8c 3d 71 cf 81 3d b6 a7 15 bc
       -0.113598764 0.06882032 0.063383944 -0.009134224
0003e0 40 e0 33 bd ac 34 a4 bb 5d b6 19 bd 44 d8 7a bc
       -0.043915033 -0.005011162 -0.03752743 -0.015310351
0003f0 f5 bc 23 be 5f e4 df bc 6b 90 ef bd e3 05 9e 3d
       -0.1599005 -0.027330576 -0.116974674 0.077159666

encoder.3.bias f4 [256]
000000 ba 96 4a 3b 83 74 8b ba 2f e4 5d ba 09 9d a8 3c
       0.0030912594 -0.0010639582 -0.0008464483 0.020582693
000010 44 70 22 bb 35 ce 01 39 58 6e d4 39 85 c6 ae ba
       -0.0024786154 0.00012379217 0.00040518004 -0.001333431
000020 72 72 26 bb 03 d1 24 ba a7 ea 28 3b bd 84 4a bb
       -0.0025397805 -0.00062872487 0.002577463 -0.0030901872
000030 af ff ff bb 68 22 76 3b 66 4d cc bb ef 6c 9c bb
       -0.0078124623 0.0037557129 -0.0062348126 -0.004773728
000040 66 9b d7 bb a1 a1 39 bb 7e 6c 80 bb 7e dc 18 3b
       -0.0065798042 -0.0028325098 -0.0039191833 0.0023324783
000050 95 a5 24 bb 48 bc fe 3b 8f 36 b4 ba 92 03 c1 3b
       -0.0025123109 0.0077739097 -0.001374917 0.005890318
000060 47 89 86 ba 73 09 f4 39 fc ed 7a bb de d7 b0 bb
       -0.00102643 0.00046546347 -0.0038288822 -0.005396827
000070 94 a9 70 3a cb cb 12 b9 0a 30 c3 3b 2c 6e 64 3b
       0.00091805425 -0.00013999564 0.0059566544 0.0034855707
000080 98 cd 55 3a 5b e5 43 bc 75 3c b0 bb b0 6b b5 3b
       0.0008155941 -0.011956538 -0.005378301 0.005536519
000090 b1 2b c8 3a 84 c5 8a bb 58 97 f6 3a 95 29 41 3b
       0.001527181 -0.0042349715 0.0018813414 0.0029474248
0000a0 bb 7c 37 ba 57 6d a7 3c de 0f d3 bb 81 23 49 bb
       -0.0006999482 0.02043788 -0.0064411005 -0.0030691328
0000b0 eb d1 f4 3b 12 43 7c 3a 04 ac 2b bb 14 4c 00 3b
       0.0074713132 0.00096230314 -0.0026195059 0.0019576596
0000c0 ca 7d a1 3b be e4 8e 3b df d4 c7 bb 08 79 f8 bb
       0.0049283253 0.0043607643 -0.0060983743 -0.0075827874
0000d0 0d 55 ee 3b 00 c5 99 bb 37 de 0d 3b a8 24 03 bc
       0.0072733224 -0.0046926737 0.0021647343 -0.008004345
0000e0 3f b9 97 bb 49 b6 0b bb 6a 63 ac 3b 08 50 3e 3c
       -0.0046302374 -0.0021318367 0.0052608745 0.011615761
0000f0 ab 99 11 bc ff 01 64 bb 09 7b bb 3b 25 75 1c 3a
       -0.008886735 -0.0034791229 0.005721454 0.00059683836
000100 20 8f 9a ba 81 5e d1 bb 73 f3 1b bb dc 8a 69 39
       -0.0011791922 -0.0063894396 -0.002379623 0.0002227234
000110 33 ff 45 3b 35 ba a4 bb d9 30 6e ba 75 54 ff 3a
       0.0030211925 -0.0050270804 -0.00090862584 0.0019480126
000120 d5 78 13 bb e1 d8 03 3c 64 55 c9 3b ed 6a c6 3b
       -0.0022502441 0.008047313 0.0061442126 0.006055227
000130 c9 af 34 bb 0f 4a 6d 3b 74 b5 d2 bb 0e 59 37 3b
       -0.0027570596 0.0036207472 -0.0064303223 0.0027976665
000140 dc ee 2f 3c 7d 44 af bb 26 56 eb bb c9 ff ed 3b
       0.010738101 -0.0053487406 -0.0071819006 0.007263158
000150 51 05 49 bc 40 b9 99 bb 6c 75 a5 bb 37 cb 77 3c
       -0.012269334 -0.004691273 -0.005049398 0.015124134
000160 b5 e2 d2 3b d8 c5 cc 3a de 8b 1c bb b2 b0 75 3a
       0.006435717 0.0015622927 -0.0023887078 0.0009372338
000170 e7 78 53 bb b2 04 61 39 52 57 26 3b 39 4a 8e ba
       -0.0032268108 0.00021459421 0.0025381637 -0.001085586
000180 bd 1b b6 ba b8 9d 28 bc 1f 5e 07 bc f7 44 48 bb
       -0.0013893765 -0.010291509 -0.008262186 -0.0030558684
000190 bf 1f 28 3c f9 63 23 bb 8f 4e b7 bb 13 ce 1f 3c
       0.010261475 -0.0024931415 -0.0055940817 0.009753722
0001a0 c3 66 5c 3c eb fb 07 3b fe 2e 62 bb f1 c1 c9 39
       0.013452235 0.002074952 -0.0034512873 0.00038482205
0001b0 29 12 07 bb f1 26 20 ba 8d 5d 63 bb 71 ae 0e bc
       -0.002061019 -0.00061093183 -0.0034693212 -0.008708582
0001c0 69 c4 9a 3b 9c f0 2c 3a 81 99 d3 bb 81 14 c1 ba
       0.004723121 0.0006597133 -0.006457508 -0.0014730842
0001d0 c6 88 01 3c 91 30 8a 3b 23 01 14 3c 75 3f 1d 3a
       0.0079061445 0.0042172153 0.009033474 0.00059985305
0001e0 6b cc 85 b9 35 6f b9 bb 90 a5 81 bb b5 95 ed bb
       -0.0002552004 -0.005659009 -0.003956504 -0.0072505125
0001f0 9d 35 90 3c ae cf 69 3a d9 8c 2c 3b 9b 54 36 39
       0.01760369 0.00089191913 0.002632907 0.0001738839
000200 47 b1 96 3c e8 d0 00 bb d0 60 f4 b8 78 e0 92 ba
       0.01839508 -0.0019655768 -0.000116528594 -0.0011205813
000210 97 c0 35 3b 5c db 9b ba f7 0a 0f bc 63 3b af 3b
       0.00277332 -0.0011890936 -0.008730642 0.0053476556
000220 3d 5a 2e 3b 27 76 8a 3a 24 b8 55 3c 1e 51 a5 3b
       0.002660408 0.0010563777 0.013044391 0.0050450703
000230 37 67 e5 3b f3 ba 0f bb 17 c5 2c 3c b1 20 63 bb
       0.0070008296 -0.0021931499 0.010545037 -0.0034656937
000240 90 62 58 bc b4 11 c4 bb af f2 05 3c cc 40 91 3a
       -0.013207093 -0.0059835557 0.008175536 0.0011081933
000250 6d e7 6c bb 02 74 57 3c da 6d 3f ba ce 5c 97 3b
       -0.0036148683 0.013150217 -0.0007302441 0.0046192175
000260 41 7c a3 3b fb bb bc 3b 17 46 bc bb 7d 1d 1d 3c
       0.0049891775 0.0057597137 -0.00574566 0.00958955
000270 6e 0b 0d 3c 36 c5 55 3b f8 92 06 3a f3 2c 9d 3b
       0.008608682 0.0032618768 0.00051335944 0.004796618
000280 90 07 cb 3b 16 e1 bc bb 4d d4 59 bb af de 96 bb
       0.00619597 -0.005764137 -0.0033238113 -0.0046041827
000290 38 1c ee ba d3 65 eb ba 53 2d 93 ba 98 06 c2 3b
       -0.0018166369 -0.0017959423 -0.0011228718 0.005921196
0002a0 b8 27 a9 3b 2f 46 4d 3a 6b 8b 45 3b 4f 28 71 3b
       0.0051622055 0.00078305876 0.0030142914 0.0036797707
0002b0 84 2a 38 3b 9a c0 62 3b 32 1c fa ba 20 c8 17 bb
       0.0028101513 0.0034599663 -0.0019081889 -0.0023160055
0002c0 4d bd 9b 3c cc 73 c8 38 56 20 06 bb ac a7 c3 ba
       0.019011164 9.558312e-05 -0.002046605 -0.001492729
0002d0 6e b3 54 ba ea 5d d1 bb d4 25 9b bb 04 07 e0 3a
       -0.00081138953 -0.0063893693 -0.004734734 0.0017091935
0002e0 c2 2f 27 bb f5 96 9a 3b e9 8e 30 bb 41 0a 36 bc
       -0.0025510644 0.0047177025 -0.002694065 -0.011110843
0002f0 c1 53 31 bb 3d 1b f5 ba d1 03 33 bb 09 5d 42 3b
       -0.0027057978 -0.0018700134 -0.0027315507 0.0029657504
000300 8a 3c e6 bb b4 18 02 3b ba bf e9 3b a5 f5 9f bb
       -0.00702626 0.001985115 0.0071334513 -0.004881578
000310 ec c2 af bb c6 50 aa 3b 42 3f 1d 3c 5a 10 9d bb
       -0.0053638127 0.005197617 0.009597601 -0.004793209
000320 8b a2 be ba ae 89 22 3c 99 2c cf 3b a2 ca b6 b8
       -0.0014544291 0.009920521 0.006322455 -8.7161796e-05
000330 9a 81 25 3c 69 0b a4 3b 9e 52 f0 ba a4 89 86 ba
       0.0101017 0.005006243 -0.0018335169 -0.0010264409
000340 41 ab 49 bb d8 64 e3 ba 0d 0e 97 ba 25 f6 0d bb
       -0.0030772241 -0.0017348779 -0.0011524573 -0.0021661606
000350 00 b0 42 3c cd 46 23 bc 7f 24 6c 3a 7e 85 6e 3b
       0.011882782 -0.009965611 0.0009008124 0.0036395486
000360 f7 9b 43 3b d6 ad c9 3a 38 e3 ce 3a 50 49 b7 bb
       0.00298476 0.001538689 0.0015784269 -0.0055934563
000370 a5 6f d6 ba a0 fb e8 bb 6c f2 b9 ba f0 55 9b 3b
       -0.0016360177 -0.007110074 -0.0014186627 0.004740469
000380 76 b8 06 ba 4d 99 79 3c 25 20 83 3b 14 12 6e 3a
       -0.0005139181 0.015234304 0.0040016347 0.00090816733
000390 0a f3 87 bb 88 92 29 3c ec 04 34 3b 7e fa 6f bb
       -0.0041488456 0.010349877 0.0027468754 -0.003661781
0003a0 0b c3 23 3a 8e c7 b7 3b f8 91 a5 ba 5f a7 0c bb
       0.000624702 0.0056085056 -0.0012632003 -0.0021462066
0003b0 a0 4c 34 bc 97 5d 5b bb 1f eb 94 3b 8f d5 b1 bb
       -0.011004597 -0.0033472532 0.00454463 -0.0054270695
0003c0 42 f8 9a bb 93 ed 86 ba 04 4b 6a 3b 4c 72 60 ba
       -0.0047293017 -0.0010294191 0.003575028 -0.00085619534
0003d0 a8 9e 39 3b d6 03 1f bc 59 70 97 3a f6 7a 18 b7
       0.0028323326 -0.009705504 0.0011553868 -9.088535e-06
0003e0 62 9d 23 b9 63 78 8a bb f9 84 a1 bb 89 e6 31 bc
       -0.00015603521 -0.004225777 -0.0049291817 -0.0108581865
0003f0 09 e2 3a 3c 58 6a 6a 3c d6 e1 48 ba 6d 15 a8 ba
       0.01140643 0.014307581 -0.00076630467 -0.0012823768

encoder.4.weight f4 [256]
000000 12 e8 80 3f 60 6b 80 3f 25 d0 84 3f 5f 46 8a 3f
       1.0070822 1.0032768 1.0376021 1.0802726
000010 62 05 81 3f a1 9c 81 3f 6c b4 80 3f 10 d4 7c 3f
       1.0079768 1.0125924 1.005506 0.9876108
000020 37 b1 7d 3f 40 1f 7c 3f 75 d4 80 3f df f7 7e 3f
       0.99098533 0.98485184 1.0064837 0.9959697
000030 d0 70 84 3f 45 36 95 3f cd 26 79 3f f0 c5 75 3f
       1.0346928 1.1657187 0.9732483 0.96005154
000040 1c 32 7a 3f 7a cb 7a 3f bd 5d 7b 3f a2 34 7a 3f
       0.9773271 0.9796673 0.9818991 0.9773656
000050 cf 12 7a 3f 78 32 87 3f f1 82 79 3f d4 e8 7f 3f
       0.9768495 1.0562277 0.97465426 0.9996464
000060 40 90 7b 3f a9 c8 78 3f c4 87 7f 3f 46 65 81 3f
       0.98266983 0.97181183 0.99816537 1.0109031
000070 9f b9 7f 3f 0c 49 81 3f b7 84 81 3f 5a 8f 7f 3f
       0.9989261 1.0100417 1.0118626 0.9982811
000080 48 fe 7b 3f 9e 21 6d 3f d3 d6 79 3f 47 24 88 3f
       0.9843488 0.9262942 0.9759342 1.0636071
000090 a2 d4 7e 3f f5 86 7b 3f e0 8a 81 3f e5 32 87 3f
       0.995432 0.98252803 1.0120506 1.0562407
0000a0 0d b1 6d 3f 87 7c 8a 3f 03 9d 7d 3f ff 0a 7a 3f
       0.92848283 1.0819253 0.99067706 0.9767303
0000b0 d1 60 82 3f f3 8b 8e 3f e0 82 75 3f 1f 8a 77 3f
       1.0185796 1.1136459 0.95902824 0.9669513
0000c0 dc 6e 79 3f 77 dd 86 3f e3 ec 72 3f e0 53 74 3f
       0.97434783 1.0536336 0.9489271 0.95440483
0000d0 d8 54 88 3f de bb 7b 3f 66 6f 87 3f 39 8f 6f 3f
       1.0650892 0.9833354 1.0580871 0.93577915
0000e0 3f e2 77 3f eb 3f 85 3f ca b4 80 3f 44 a6 82 3f
       0.968296 1.0410131 1.0055172 1.020699
0000f0 ca 4a 7d 3f bb 8a 80 3f e0 6a 86 3f 28 af 6d 3f
       0.98942244 1.0042337 1.0501366 0.9284539
000100 ca 04 83 3f 04 24 77 3f d0 81 7c 3f 3c 88 7d 3f
       1.0235837 0.9653933 0.9863558 0.99036
000110 2c 0f 84 3f c1 f6 79 3f 30 4a 83 3f e8 36 81 3f
       1.031713 0.9764214 1.0257015 1.0094881
000120 52 ec 75 3f e6 80 81 3f 74 e6 89 3f bb 8a 73 3f
       0.9606372 1.0117462 1.0773454 0.9513356
000130 1c 77 88 3f 3c 93 82 3f 51 da 76 3f c5 e2 77 3f
       1.0661349 1.0201182 0.96426874 0.968304
000140 8b fc 82 3f f7 77 75 3f 30 0c 7e 3f 2a 86 80 3f
       1.023332 0.95886177 0.99237347 1.0040944
000150 7e cf 75 3f 5c e5 7c 3f dc e4 78 3f 78 2f 8f 3f
       0.9601973 0.98787475 0.9722421 1.1186361
000160 f2 d7 86 3f 5a b6 81 3f f4 5a 76 3f 80 3c 80 3f
       1.0534651 1.0133774 0.96232533 1.0018463
000170 05 ff 78 3f d9 ed 81 3f 80 66 8c 3f 5e 68 76 3f
       0.9726413 1.015071 1.096878 0.96253
000180 42 b8 7e 3f b8 f8 82 3f 76 89 81 3f 05 8c 7e 3f
       0.99499905 1.0232153 1.0120075 0.994324
000190 85 fb 8a 3f a8 92 75 3f 8e 96 78 3f 14 fc 7f 3f
       1.0858008 0.95926905 0.9710473 0.99994016
0001a0 b7 88 88 3f 7d a0 7a 3f c6 da 88 3f 2c 33 79 3f
       1.0666722 0.97901136 1.0691764 0.9734371
0001b0 76 02 7e 3f 42 f7 7b 3f 74 0c 8a 3f f7 a1 82 3f
       0.99222505 0.9842416 1.078505 1.0205678
0001c0 34 1f 7e 3f 30 88 81 3f d3 b0 77 3f 2b de 77 3f
       0.9926636 1.0119686 0.9675419 0.96823376
0001d0 67 9a 85 3f 57 4c 82 3f d2 ab 8a 3f 39 52 80 3f
       1.0437745 1.0179547 1.0833685 1.0025092
0001e0 44 fb 81 3f 7c 72 7f 3f 80 de 80 3f 9d 7b 7c 3f
       1.0154805 0.99784064 1.0067902 0.9862612
0001f0 be a3 87 3f 71 8b 80 3f 60 f2 7f 3f e1 1e 79 3f
       1.0596845 1.0042554 0.9997921 0.9731274
000200 42 20 84 3f 2b 52 77 3f 82 70 7d 3f 94 a5 7a 3f
       1.0322344 0.96609753 0.989998 0.979089
000210 93 d2 81 3f 14 4c 78 3f 02 1c 80 3f e3 ae 80 3f
       1.0142387 0.96991086 1.0008547 1.0053371
000220 1e db 89 3f 45 ab 82 3f 22 26 87 3f ac ee 85 3f
       1.0769994 1.0208517 1.0558512 1.0463462
000230 0c 5a 84 3f 3a 39 87 3f 37 8a 80 3f cf 4b 87 3f
       1.033998 1.0564339 1.004218 1.057001
000240 6a 88 75 3f 85 83 76 3f 74 0b 7e 3f d2 58 8b 3f
       0.95911276 0.9629443 0.99236226 1.0886481
000250 68 a5 77 3f b0 5c 87 3f 87 d4 80 3f 32 0b 87 3f
       0.96736765 1.0575161 1.0064858 1.0550292
000260 05 2e 88 3f ac c4 82 3f 18 cd 76 3f 75 2b 8c 3f
       1.0639044 1.021627 0.964067 1.0950762
000270 a1 ec 86 3f 70 31 8b 3f 32 ed 89 3f 0c 92 78 3f
       1.0540963 1.0874462 1.0775511 0.9709785
000280 15 6b 92 3f a1 26 79 3f 56 24 82 3f 38 d1 70 3f
       1.1438929 0.9732457 1.0167339 0.9406924
000290 06 3a 79 3f 17 07 82 3f 59 7b 7b 3f 2e d1 7a 3f
       0.9735416 1.0158414 0.9823509 0.9797543
0002a0 38 d0 81 3f fc 0e 82 3f 20 91 81 3f 27 c5 97 3f
       1.0141668 1.0160823 1.0122414 1.1857041
0002b0 30 ba 8d 3f 7f a1 7d 3f 1a 35 7a 3f 63 9d 78 3f
       1.1072445 0.9907455 0.97737277 0.97115153
0002c0 49 19 81 3f b8 53 81 3f b1 57 75 3f df c7 82 3f
       1.0085841 1.0103674 0.9583693 1.0217246
0002d0 1c 10 74 3f 3c 8e 78 3f c8 f2 74 3f 29 72 7a 3f
       0.9533708 0.9709203 0.95682955 0.97830445
0002e0 b5 84 7a 3f 9f cb 84 3f 8b 83 77 3f c4 24 77 3f
       0.97858745 1.037464 0.96685094 0.96540475
0002f0 44 4a 79 3f 20 6c 88 3f c4 62 7e 3f e7 bc 75 3f
       0.97378945 1.0657997 0.99369454 0.9599137
000300 d4 af 78 3f 00 23 87 3f 57 c1 80 3f 87 04 8e 3f
       0.9714329 1.0557556 1.0059003 1.1095132
000310 7c 82 7e 3f 1f 44 7d 3f 0d 9f 89 3f 87 3b 72 3f
       0.99417853 0.9893207 1.0751663 0.9462208
000320 3a d7 7a 3f bf 71 8a 3f 21 7e 81 3f f2 50 7b 3f
       0.9798466 1.0815963 1.0116616 0.9817039
000330 58 96 80 3f 0c 5d 81 3f 05 13 80 3f dc 8d 76 3f
       1.0045881 1.0106521 1.0005804 0.9631021
000340 c8 bd 84 3f e9 d2 7e 3f f2 64 77 3f c0 c1 78 3f
       1.0370417 0.99540573 0.96638405 0.9717064
000350 d1 b9 83 3f 14 f7 73 3f 16 94 7a 3f e1 3f 83 3f
       1.0291082 0.95298886 0.9788221 1.0253869
000360 df ad 83 3f 59 b0 7c 3f 07 ad 89 3f 7c 25 7c 3f
       1.0287436 0.98706585 1.0755929 0.98494697
000370 f1 16 81 3f c8 fa 7b 3f 56 aa 7e 3f 06 7b 8a 3f
       1.0085126 0.98429537 0.9947866 1.0818794
000380 63 d0 7f 3f 06 88 82 3f bc e9 81 3f 8b 91 82 3f
       0.9992735 1.0197761 1.0149455 1.0200666
000390 c3 ea 74 3f d4 f3 87 3f c6 78 89 3f e5 67 73 3f
       0.9567072 1.0621285 1.0739982 0.95080405
0003a0 4f 7a 7e 3f 2b 5d 89 3f 1a 3c 77 3f 57 e6 74 3f
       0.9940538 1.0731558 0.9657608 0.9566397
0003b0 a2 6d 82 3f 16 bb 81 3f b2 04 79 3f b5 24 7e 3f
       1.0189707 1.0135219 0.9727279 0.9927476
0003c0 dc a8 7b 3f f1 3b 79 3f 82 7d 7a 3f 92 21 83 3f
       0.98304534 0.9735709 0.9784776 1.024462
0003d0 44 48 84 3f f8 d2 84 3f 65 42 7d 3f d3 41 84 3f
       1.0334554 1.0376883 0.98929435 1.0332588
0003e0 80 13 80 3f c4 be 76 3f cf b5 75 3f 03 15 77 3f
       1.0005951 0.96384835 0.9598054 0.96516436
0003f0 06 d4 8e 3f c9 7f 85 3f e8 e4 79 3f da 57 7c 3f
       1.1158454 1.0429622 0.9761491 0.9857155

encoder.4.bias f4 [256]
000000 08 3e 19 bd f8 91 1c bd 8f 91 3f bd f9 af 45 bd
       -0.037412673 -0.038225144 -0.046769675 -0.048263524
000010 79 0f 5e bd a6 9a 2b bd 58 f4 30 bd 63 bf 42 bd
       -0.054213975 -0.04189553 -0.043201774 -0.0475458
000020 97 a5 fa bc 35 72 7d bd 15 08 df bc 83 34 1a bd
       -0.030596538 -0.061876494 -0.027225534 -0.037647735
000030 b4 44 78 bd 46 c8 17 bd 28 1c 7c bd 8e 21 61 bd
       -0.060612395 -0.03705623 -0.06155029 -0.05496364
000040 e4 53 44 bd 2d ce 78 bd 64 9c 2b bd 8e 97 50 bd
       -0.047931567 -0.0607435 -0.041897193 -0.050925784
000050 7e 46 43 bd b8 8b 66 bd 82 e3 a0 bd e0 bb 87 bd
       -0.04767465 -0.05628559 -0.07855894 -0.06627631
000060 65 30 88 bd 9d 70 41 bd 6c ba 58 bd 95 1a 6a bd
       -0.066498555 -0.047226537 -0.05291216 -0.057154257
000070 5c c4 de bc 75 9a 69 bd 48 d1 f2 bc 24 f4 53 bd
       -0.02719324 -0.057032067 -0.029640809 -0.051746503
000080 29 21 46 bd 34 0d b1 bd fe eb 78 bd a7 b5 6e bd
       -0.048371468 -0.086450964 -0.060771935 -0.058278706
000090 00 1e 29 bd 99 ab 35 bd 22 b6 1c bd ad 2e 92 bd
       -0.041288376 -0.0443531 -0.038259633 -0.07137809
0000a0 0e ad d6 bd ff c3 a9 bd fa a4 74 bd ce 91 1c bd
       -0.10482226 -0.082893364 -0.059727646 -0.038224988
0000b0 39 37 21 bd 18 ae 57 bd 5c c9 94 bd 0e 73 87 bd
       -0.039359305 -0.052656263 -0.07264969 -0.06613742
0000c0 b2 6d 61 bd 49 e3 26 bd e3 9c 93 bd 2a 4e 92 bd
       -0.055036254 -0.0407441 -0.07207658 -0.07143815
0000d0 e0 de 26 bd b6 8a 84 bd 8a 4a 3d bd bd f3 ec bd
       -0.040739894 -0.064717695 -0.046213664 -0.11569927
0000e0 ee dd 4c bd e9 61 7e bd 10 5f df bc dc a4 df bc
       -0.050016336 -0.062105093 -0.027267009 -0.02730029
0000f0 96 f2 b5 bd 21 04 90 bd e2 41 e0 bc dc a1 d6 bd
       -0.0888416 -0.070320375 -0.027375165 -0.10480091
000100 94 86 33 bd ce 89 b8 bd 92 a7 5a bd a5 e2 4a bd
       -0.043829516 -0.09010659 -0.053382464 -0.04953255
000110 ea 7f 69 bd d1 03 71 bd 2e 5e 42 bd e5 f8 1c bd
       -0.057006754 -0.05884153 -0.047453098 -0.0383233
000120 19 69 6b bd 76 a0 7f bd 9d 16 07 bd f2 65 ac bd
       -0.057473276 -0.062408887 -0.03298055 -0.08417882
000130 a6 e4 85 bd 1b 32 c5 bd 70 1e 65 bd 65 e8 7f bd
       -0.06537752 -0.096286975 -0.05593723 -0.062477488
000140 12 9a d3 bd fc b9 57 bd 03 0f 54 bd a6 97 0d bd
       -0.10332121 -0.052667603 -0.05177213 -0.03456845
000150 42 6b ac bd 72 dd 3c bd e0 9b 8e bd bb 4a e5 bc
       -0.08418895 -0.046109624 -0.069633245 -0.027989736
000160 a2 d9 7b bd 9a 7a 28 bd 17 0c a8 bd d9 c9 a8 bc
       -0.061486848 -0.041132547 -0.08205431 -0.020604061
000170 95 a1 99 bd 30 7f 2e bd 2a 6e 44 bd b9 01 32 bd
       -0.075015225 -0.042601764 -0.047956623 -0.043458674
000180 02 3f 39 bd d2 b5 bc bd 73 d5 8d bd 34 92 44 bd
       -0.045226105 -0.09214367 -0.06925478 -0.047990993
000190 b4 5f 38 bd 62 54 73 bd 27 af b1 bd f6 7d 10 bd
       -0.045013145 -0.059406646 -0.08675986 -0.035276376
0001a0 03 80 08 bd ba ec 1e bd 1a b2 c8 bd ec 3d a8 bd
       -0.033325206 -0.03879998 -0.09799595 -0.08214936
0001b0 1e c0 20 bd 30 ed 74 bd f3 9d 4f bd b1 72 b8 bd
       -0.039245717 -0.059796512 -0.05068774 -0.09006251
0001c0 8b 4a 66 bd 19 7e 1b bd 1d f9 89 bd 68 4b 4b bd
       -0.056223433 -0.037962053 -0.06736968 -0.04963246
0001d0 fb c0 e4 bc cf 7c 88 bd 01 67 bd bc cf 8e 43 bd
       -0.027924052 -0.0666443 -0.023120405 -0.047743615
0001e0 9f a7 7c bd 96 01 86 bd 9d 96 4f bd f0 c8 84 bd
       -0.061683293 -0.06543271 -0.050680745 -0.06483638
0001f0 a6 f3 05 bd 7a 84 28 bd ac fa 28 bd da b8 8e bd
       -0.032703064 -0.041141964 -0.041254684 -0.069688514
000200 4c 99 4b bd 05 08 84 bd 31 74 3b bd e1 e2 76 bd
       -0.049706742 -0.06446842 -0.045765106 -0.060274962
000210 c2 05 e5 bc 39 31 96 bd e6 77 85 bd b5 25 4c bd
       -0.027956847 -0.07333607 -0.065170094 -0.049840648
000220 9b 67 40 bd 23 e6 1e bd 48 1c 41 bd 49 5c 62 bd
       -0.046973806 -0.038793694 -0.04714611 -0.05526379
000230 8c ef 04 bd 92 be 99 bd e6 2f 4f bd 81 ab 91 bd
       -0.032455012 -0.075070515 -0.05058279 -0.0711279
000240 6f 52 8a bd 24 b0 72 bd ee 76 7d bd 0d 73 5f bd
       -0.06754004 -0.059250012 -0.061881 -0.05455308
000250 41 3e 4d bd 13 72 ce bc 52 c3 58 bd d6 3e 08 bd
       -0.050108198 -0.02520088 -0.052920647 -0.03326305
000260 9b a0 2c bd 87 0c 30 bd 1a 18 68 bd 4d 08 a3 bd
       -0.042145353 -0.042980697 -0.05666361 -0.079605676
000270 c1 db b2 bc e1 67 0a bd 61 78 83 bd 1b 50 5e bd
       -0.021833302 -0.033790473 -0.06419445 -0.054275613
000280 5c d3 24 bd 45 28 8a bd 3a d6 3c bd 47 9d b0 bd
       -0.04024063 -0.06745962 -0.04610274 -0.08623748
000290 c2 23 46 bd 59 4c 47 bd ad 58 39 bd 7e 70 47 bd
       -0.048373945 -0.048656795 -0.045250583 -0.048691265
0002a0 d9 76 7d bd 66 dc 67 bd 36 db 37 bd 35 19 5e bd
       -0.06188092 -0.056606673 -0.04488679 -0.054223258
0002b0 33 9b 24 bd a7 dc 8c bd 2f e3 3d bd ff ca 4e bd
       -0.040187072 -0.068780236 -0.046359237 -0.05048656
0002c0 14 0f 27 bd e1 d2 35 bd 5b ab 6b bd 1e 0d 71 bd
       -0.040785864 -0.044390563 -0.057536464 -0.0588504
0002d0 fb 3f 90 bd 9b 1f 6a bd 72 2d 8b bd 02 48 62 bd
       -0.07043453 -0.057159048 -0.067957774 -0.055244453
0002e0 55 f7 3d bd ea ac 5e bd 94 20 45 bd f3 d3 81 bd
       -0.046378452 -0.054364122 -0.048126772 -0.06339254
0002f0 33 73 32 bd 60 85 45 bd 42 fa 36 bd 92 b8 b6 bd
       -0.043566894 -0.0482229 -0.04467226 -0.08921923
000300 74 9d 52 bd 96 f5 31 bd db 99 59 bd aa c2 63 bd
       -0.05141969 -0.0434471 -0.053125244 -0.055605568
000310 43 a9 7c bd a5 fa 5e bd d1 ca 18 bd a6 5b b1 bd
       -0.061684858 -0.054438252 -0.037302796 -0.08660059
000320 57 73 51 bd 3c ae c0 bc 0b 5f 82 bd 20 e4 7c bd
       -0.051135387 -0.023520581 -0.06365784 -0.061740994
000330 d7 6f e6 bc 68 cd 25 bd ce b7 42 bd 60 cb 54 bd
       -0.028129501 -0.040479094 -0.04753857 -0.051951766
000340 8b 4a 45 bd b2 94 51 bd aa e1 5c bd 3c f3 8c bd
       -0.048166793 -0.051167198 -0.053926148 -0.06882331
000350 38 4f 24 bd 8c 33 b3 bd 64 c2 8d bd 06 7d 42 bd
       -0.04011461 -0.08750066 -0.06921843 -0.047482513
000360 26 1d 24 bd e2 8f 2f bd 3a 53 71 bd 18 6b 1e bd
       -0.04006686 -0.042861827 -0.05891726 -0.03867635
000370 63 a6 42 bd cc cf 96 bd 1a 99 16 bd 65 95 da bc
       -0.04752196 -0.07363853 -0.036767103 -0.026682565
000380 c4 7c 22 bd 09 8c e7 bc 54 8f e1 bc c3 6f 56 bd
       -0.039669767 -0.028265016 -0.027534164 -0.052352678
000390 37 4f bb bd 8c e0 cc bc 1a c1 1c bd d5 b2 8c bd
       -0.091459684 -0.025009416 -0.038270094 -0.06870047
0003a0 bf 2c 14 bd 43 6d 5a bd 97 6b 55 bd 78 74 d0 bd
       -0.036175486 -0.053326856 -0.05210456 -0.10178465
0003b0 dc d9 9b bd 79 f6 9b bd a4 61 9a bd b3 7d 46 bd
       -0.07609913 -0.0761537 -0.07538155 -0.04845972
0003c0 eb 15 7d bd 95 b8 5e bd c2 a5 7c bd fa f5 75 bd
       -0.06178848 -0.05437525 -0.061681516 -0.060049035
0003d0 4b 6b 3c bd a2 d5 ae bd 54 10 0b bd 42 90 80 bd
       -0.04600076 -0.08536841 -0.03395112 -0.06277515
0003e0 72 62 0c bd cd e0 51 bd 9a d2 81 bd 99 42 a0 bd
       -0.034273572 -0.051239777 -0.06338997 -0.078252025
0003f0 f1 e1 17 bd 6f 81 ef bc 89 08 42 bd 0d d2 39 bd
       -0.03708071 -0.029236523 -0.04737142 -0.045366336
