modelparameter/autoencoder_lognormal8_4.pth (torch, 776767 bytes, 36 tensors)

encoder.0.weight f4 [128, 24]
0	0x3dfcbba0	0.12340474
1	0xbd639f08	-0.055571586
2	0x3d38193d	0.044945944
3	0xbe66cf41	-0.22539999
4	0x3de579fb	0.112049066
5	0xbc89f5eb	-0.016840896
6	0x3d12c664	0.03583373
7	0x3e081fd5	0.13293393
8	0x3d8d7a04	0.06908038
9	0xbe8c31d7	-0.27381775
10	0x3d3bca8b	0.045847457
11	0xbda7a6cf	-0.08186113
12	0x3e5c7782	0.21529964
13	0xbb2ad8e8	-0.0026069228
14	0x3da164e4	0.078805715
15	0x3e398c6c	0.18119973
16	0x3dcf7dda	0.10131426
17	0x3d301ded	0.04299729
18	0xbd18e87c	-0.03733109
19	0xbca6ed80	-0.02037692
20	0xbe0425a6	-0.12904987
21	0xbcf10ee5	-0.029426048
22	0xbdb94dab	-0.09048017
23	0x3d8e180b	0.069381796
24	0x3e469523	0.19392829
25	0xbe0e0d97	-0.13872372
26	0x3df69d7f	0.12041759
27	0xbded5a63	-0.115895055
28	0xbe5fc079	-0.21850766
29	0xbddc02a2	-0.1074269
30	0x3d6c161d	0.057638276
31	0x3da1daee	0.07903086
32	0xbd459514	-0.048237875
33	0x3c90d2c0	0.017678618
34	0x3ea96391	0.33083776
35	0x3e94e782	0.29082876
36	0xbdedec30	-0.11617315
37	0x3e358419	0.17726173
38	0xbe50e4aa	-0.20399728
39	0xbdea01cd	-0.11426125
40	0xbdc24dfd	-0.09487531
41	0xbd5ef90a	-0.05443672
42	0xbd01eeda	-0.031721927
43	0x3cddd657	0.027079744
44	0xbd0ea289	-0.034822974
45	0x3dbf6232	0.09344901
46	0x3d55c159	0.052186344
47	0xbda632dc	-0.081151694
48	0xbd367b40	-0.044551134
49	0x3d26bda5	0.040708203
50	0x3e88a6ed	0.26689854
51	0x3ca781d7	0.020447655
52	0x3e48b7f3	0.19601421
53	0xbd47ed66	-0.048810385
54	0xbe1581ed	-0.14600344
55	0xbc02b16c	-0.007976871
56	0xbe947668	-0.28996587
57	0x3e2298b5	0.15878566
58	0xbbf2f712	-0.007414707
59	0xbd74d0a0	-0.059769273
60	0x3d4ef1a7	0.050523426
61	0x3d801e01	0.06255723
62	0xbe0aa037	-0.1353768
63	0x3c51253b	0.012765224
64	0xbbded4e4	-0.006800281
65	0x3dfc9ef0	0.123350024
66	0xbd38aca5	-0.04508652
67	0x3d6dc208	0.05804637
68	0xbe34aae6	-0.17643318
69	0x3e11c206	0.1423417
70	0xbc0142a0	-0.00788942
71	0x3db07dc1	0.08617736
72	0xbdb22eed	-0.08700357
73	0x3e1437da	0.1447443
74	0xbe817c75	-0.25290266
75	0xbe244d0b	-0.16045015
76	0xbdcacb0d	-0.0990201
77	0xbe309f0f	-0.17248176
78	0x3e6df527	0.2323805
79	0xbe321d6a	-0.17394033
80	0xbe6a4fcf	-0.22882007
81	0xbdf331c9	-0.1187473
82	0xbe6eeba4	-0.23332077
83	0x3dd5ce6f	0.10439765
84	0x3ea368a5	0.31915775
85	0x3dfd4a84	0.12367728
86	0xbd493c69	-0.049129877
87	0xbd49146f	-0.049091753
88	0x3e06127c	0.13092989
89	0x3d3fa513	0.046788286
90	0x3d9f9853	0.077927254
91	0x3cdb8f73	0.0268018
92	0xbd637cd6	-0.055538975
93	0xbd9a9f3a	-0.07549901
94	0x3ddd309a	0.10800286
95	0xbd4d236e	-0.050082617
96	0xbd659b0c	-0.056056067
97	0x3db58ab1	0.08864344
98	0xbe311f99	-0.1729721
99	0xbe25efd6	-0.16204771
100	0x3c4f58ce	0.01265545
101	0x3e6c221d	0.23059888
102	0x3d407d84	0.0469947
103	0xbe076d05	-0.13225181
104	0xbe341e7d	-0.17589755
105	0xbd8d9738	-0.06913608
106	0xbddaf83a	-0.10691877
107	0xbdd80a5d	-0.10548852
108	0xbc579e66	-0.013160324
109	0x3d9132c7	0.07089763
110	0xbcf4a7d4	-0.029865183
111	0xbd919a42	-0.071095005
112	0xbe0dba33	-0.1384056
113	0x3e159e8f	0.14611267
114	0x3daa5cc8	0.08318478
115	0xbcf0db7f	-0.029401539
116	0xbd2baadb	-0.041910987
117	0x3ce65c65	0.028120229
118	0xbd2cc7c7	-0.04218271
119	0xbe1ff53f	-0.15620898
120	0x3de63b6e	0.11241804
121	0x3deae0b8	0.11468643
122	0xbdeda506	-0.11603741
123	0xbc951e77	-0.018203003
124	0xbc489aca	-0.012243936
125	0x3e86ddd7	0.26341125
126	0x3e357896	0.17721781
127	0x3e82499b	0.25446782
128	0x3e24b639	0.16085137
129	0x3e583654	0.21114475
130	0x3e20d727	0.15707074
131	0xbb07b0b7	-0.0020704695
132	0xbd1097eb	-0.03530113
133	0xbe37654b	-0.17909734
134	0xbe640f7b	-0.2227153
135	0x3e660d1c	0.22465938
136	0x3ceebc36	0.02914248
137	0xbccc9fe1	-0.02497858
138	0xbb2dfaf2	-0.002654728
139	0xbc4bc4f4	-0.012437094
140	0x3dcbcca6	0.09951143
141	0x3d8f3665	0.06992797
142	0xbe015a9c	-0.12632221
143	0xbdf06560	-0.11738086
144	0xbda6d2b6	-0.08145659
145	0x3d96a596	0.07355802
146	0xbe34550c	-0.17610568
147	0x3e433206	0.19062051
148	0xbd1d9a02	-0.03847695
149	0xbe8c4326	-0.2739498
150	0x3e3d6e43	0.18499093
151	0x3e59e9f5	0.21280654
152	0xbe49b5ea	-0.19698301
153	0xbe262055	-0.16223271
154	0xbe482484	-0.1954518
155	0x3e7ed9a3	0.2488771
156	0xbbce9f4c	-0.0063056108
157	0xbe902384	-0.28152096
158	0x3db29e17	0.087215595
159	0x3d3b8b26	0.045787
160	0xbe152121	-0.14563419
161	0xbe1df178	-0.15424144
162	0xbdaa2c56	-0.08309238
163	0x3e069982	0.13144496
164	0xbc4d9394	-0.012547392
165	0x3e1cdd78	0.15318859
166	0xbe0acfeb	-0.13555877
167	0x3dcee301	0.10101891
168	0xbdf3da22	-0.1190684
169	0x3e644381	0.22291376
170	0xbd37d814	-0.044883803
171	0xbd38df24	-0.04513468
172	0xbe372434	-0.17884904
173	0xbe989ae4	-0.29805672
174	0x3d6cf56d	0.057851244
175	0x3e356cb0	0.17717242
176	0x3e5afc40	0.21385288
177	0xbe12b530	-0.1432693
178	0xba1a4119	-0.0005884334
179	0xbdca16b5	-0.09867612
180	0x3ddc9c91	0.1077205
181	0xbd3425b5	-0.043981273
182	0xbd4c1dd4	-0.049833134
183	0xbe5cabad	-0.21549864
184	0xbe1d2ce3	-0.15349154
185	0x3daeea4a	0.08540781
186	0xbda97dfd	-0.082759835
187	0xbcf47dca	-0.029845137
188	0xbd7b84c0	-0.061405897
189	0x3bd6c1a1	0.006553844
190	0xbdb991a9	-0.090609856
191	0xbd3dbee7	-0.046324637
192	0xbe442996	-0.19156489
193	0xbc6f5e17	-0.014609835
194	0x3dca3bcc	0.098746866
195	0x3d8044a5	0.06263093
196	0xbe62f291	-0.22162844
197	0x3e2c6594	0.16835624
198	0x3e5e4046	0.21704206
199	0xbe061fe4	-0.13098103
200	0xbdad1520	-0.08451295
201	0xbe233928	-0.15939772
202	0xbdf1c0ad	-0.11804328
203	0xbdca4c70	-0.098778605
204	0xbdfc34a0	-0.12314725
205	0x3decd9b6	0.115649626
206	0xbe68c926	-0.22732982
207	0xbe134575	-0.14381965
208	0xbda6ec05	-0.08150486
209	0xbdd6f8db	-0.10496684
210	0x3db8fffb	0.090331994
211	0x3e021143	0.12701897
212	0x3e07eddd	0.13274331
213	0x3d19fabb	0.03759263
214	0x3da553ef	0.0807265
215	0xbdacd772	-0.084395304
216	0xbbac1afa	-0.0052522393
217	0x3d84ca56	0.06483905
218	0xbd88af2b	-0.06674036
219	0xbd25d99b	-0.040490728
220	0x3d97b041	0.07406665
221	0x3e8b285f	0.27179238
222	0xbd5dd55a	-0.054158546
223	0x3d0dd256	0.03462442
224	0xbe2fdeb9	-0.17174806
225	0xbe0a0d22	-0.13481572
226	0xbd40066a	-0.046881117
227	0xbdf06fb4	-0.11740056
228	0xbb0e2c78	-0.0021693986
229	0xbe5713bc	-0.21003622
230	0x3d458056	0.048218094
231	0x3da8062a	0.08204301
232	0xbdc98416	-0.098396465
233	0x3b4da10b	0.0031376507
234	0x3e18063e	0.14846131
235	0x3debcc7f	0.11513614
236	0x3df90c68	0.121605694
237	0x3c155820	0.009115249
238	0xbc83540b	-0.016031286
239	0xbd94bef0	-0.07262981
240	0xbd4d53a6	-0.0501286
241	0xbde67c8a	-0.11254223
242	0xbdf2c9d1	-0.118549
243	0xbe886dca	-0.26646262
244	0x3e6c026e	0.23047802
245	0x3e4ca3fa	0.19984427
246	0xbba2e8c1	-0.004971594
247	0x3c2f04b0	0.01068227
248	0xbd89878f	-0.06715309
249	0xbdcbbcaa	-0.09948094
250	0xbe875c67	-0.26437685
251	0xbd4b05c1	-0.049566034
252	0x3ad5bba0	0.0016306527
253	0xbd35e637	-0.044409003
254	0xbd22ff48	-0.039794236
255	0xbdc5a5ad	-0.09650741

encoder.0.bias f4 [128]
0	0xbc90b67f	-0.017665146
1	0xbaab884c	-0.0013086884
2	0x3b6b6bdb	0.0035922441
3	0x3cf422e0	0.029801786
4	0xbcfb1824	-0.03065116
5	0x3cc1b7ca	0.023647208
6	0xbbe64a3f	-0.007027894
7	0xbc737a16	-0.0148606505
8	0xbd123070	-0.035690725
9	0x3bbfb656	0.0058505936
10	0xbc9c3b31	-0.019071193
11	0x3c12bf47	0.008956737
12	0xbc9a84c2	-0.018862132
13	0x3a5796b5	0.0008224056
14	0xbc0cf2ac	-0.008602779
15	0xbd0fa1a3	-0.03506626
16	0xbc6079ca	-0.013700912
17	0x3b726ba2	0.0036990424
18	0xba8967b5	-0.0010483178
19	0xbbdb29ab	-0.006688317
20	0xbb1a682f	-0.0023560633
21	0x3b8696ff	0.0041073556
22	0xbc2849c3	-0.010271492
23	0xbd0c8deb	-0.03431503
24	0x3a3bacca	0.00071592315
25	0x3c077971	0.0082687
26	0xbc98895e	-0.01862019
27	0xbbd95da2	-0.0066334764
28	0x3bd9b6ce	0.0066441065
29	0x3b587d1d	0.0033033558
30	0xbc64310e	-0.013927711
31	0xbccb6269	-0.024827199
32	0xbcca0aab	-0.02466329
33	0xbc2caf84	-0.010539893
34	0x3b7702d6	0.00376909
35	0xbc5dc533	-0.0135357855
36	0xbb441ae5	-0.0029923257
37	0x3c29435b	0.010331
38	0x3c2efd7b	0.010680552
39	0xbc5d3b6e	-0.013502939
40	0x3bd62bfc	0.006536005
41	0xbd108010	-0.03527838
42	0x3c4a2b7e	0.012339471
43	0xbbcaf313	-0.0061935275
44	0xbc0d561f	-0.00862649
45	0xbbf474f0	-0.007460229
46	0x3be35981	0.00693816
47	0x3ae1a0c6	0.0017214052
48	0xbcf8eef1	-0.030387374
49	0x3b86c2b5	0.0041125664
50	0xbcbfbb17	-0.023404641
51	0x3c51a8c3	0.012796584
52	0x3cf55615	0.029948274
53	0x3c33dda6	0.010978138
54	0x3bac5da8	0.005260188
55	0x3c0e6569	0.00869117
56	0xbaabcda6	-0.0013107553
57	0x3c1ae68a	0.009454379
58	0x3c3d18b5	0.011541535
59	0x3cb81834	0.022472478
60	0xbb0858c3	-0.002080486
61	0xbb4397b9	-0.0029845072
62	0x3c5f30e2	0.013622494
63	0xbc19b3e7	-0.009381271
64	0xbbb3b82f	-0.005484603
65	0x3cc4c35e	0.02401894
66	0xbc88e102	-0.016708855
67	0xbc8729f7	-0.016499503
68	0xbca4e665	-0.020129392
69	0x3d0b4188	0.033998042
70	0x3c88ab09	0.016683118
71	0x3bbf7ca7	0.005843717
72	0xbcef27a2	-0.029193703
73	0x3b4aa6ee	0.0030922252
74	0xbca0c26b	-0.019623956
75	0x3b4dd3bc	0.003140672
76	0x3b361edd	0.0027789392
77	0x3c7d6208	0.015465267
78	0x3ca9bb48	0.020719185
79	0x3cfa2ff9	0.030540453
80	0x3bc1116b	0.005891969
81	0x3ca5ab53	0.020223295
82	0x3c19b49c	0.00938144
83	0x3c3cc6c2	0.011521997
84	0x3c53cbc5	0.012927
85	0xbcb25b8b	-0.021772167
86	0xbb3123ed	-0.002702947
87	0x3d1c6c9c	0.038189515
88	0xb7cbbf13	-2.4288462e-05
89	0x3bb8db53	0.00564138
90	0xbc82c942	-0.015965108
91	0xbc7c7eb8	-0.0154110715
92	0xbc8681b0	-0.016419262
93	0xbc7fce2a	-0.015613118
94	0x3d09b877	0.033623185
95	0x3c971154	0.01844088
96	0x3ce616f2	0.028087113
97	0x3b993e13	0.0046765893
98	0xbcd60fb5	-0.026130537
99	0xbcb1b575	-0.02169297
100	0x3ac24ad6	0.0014823328
101	0xbc4a5b8e	-0.01235093
102	0x3c73ebb2	0.014887737
103	0x3d00213b	0.03128169
104	0xbd07f973	-0.033196878
105	0xbcba2fdd	-0.022727901
106	0x3c29e7e6	0.01037023
107	0xbce23598	-0.027613446
108	0xbc7c27f6	-0.015390387
109	0x3c5bae88	0.013408311
110	0xbd1939fc	-0.037408814
111	0xbc3a367d	-0.01136553
112	0x3d150683	0.036383163
113	0x3bd2f74d	0.006438172
114	0xbb9ea2f3	-0.0048412024
115	0x3b88d466	0.0041757105
116	0x3ab68ed0	0.001392806
117	0x3ce6fd0c	0.028196834
118	0xbce19b84	-0.027539976
119	0x3bc01ef4	0.005863065
120	0xbbd2ee8c	-0.0064371284
121	0xbcee1ff0	-0.029067963
122	0xbcd3057d	-0.025759453
123	0xbb6ac550	-0.0035823174
124	0xbb20ee16	-0.0024555973
125	0xbc01a9a1	-0.007913978
126	0x3c999e94	0.018752374
127	0xbc9a6383	-0.018846279

encoder.1.weight f4 [128]
0	0x3f7ed965	0.9955047
1	0x3f826a22	1.0188639
2	0x3f7d103a	0.98852885
3	0x3f86e37e	1.0538175
4	0x3f75103e	0.9572791
5	0x3f81ec73	1.0150284
6	0x3f80101e	1.0004919
7	0x3f7e618a	0.9936758
8	0x3f803718	1.0016813
9	0x3f7effaa	0.9960886
10	0x3f7cded6	0.9877752
11	0x3f7b98fe	0.9828032
12	0x3f7e9ae4	0.99455094
13	0x3f7d2153	0.98878974
14	0x3f7ba4f8	0.982986
15	0x3f7b9120	0.9826832
16	0x3f77e718	0.96836996
17	0x3f7df381	0.9919968
18	0x3f7e8105	0.9941562
19	0x3f80d898	1.0066099
20	0x3f7a50c1	0.9777947
21	0x3f7e0818	0.992311
22	0x3f7a4f7a	0.9777752
23	0x3f7ba755	0.98302203
24	0x3f7c9b55	0.9867452
25	0x3f7f8f37	0.99827904
26	0x3f7d381f	0.9891376
27	0x3f7b5b72	0.9818641
28	0x3f84703d	1.0346752
29	0x3f828c74	1.0199113
30	0x3f77fd4e	0.9687089
31	0x3f760a19	0.9610916
32	0x3f799369	0.97490555
33	0x3f7f36b4	0.99692845
34	0x3f82f17b	1.0229944
35	0x3f7d0bfd	0.9884642
36	0x3f7c54da	0.98566973
37	0x3f80c233	1.0059265
38	0x3f814198	1.0098143
39	0x3f79d500	0.9759064
40	0x3f7e194d	0.99257356
41	0x3f761385	0.96123534
42	0x3f82538d	1.0181748
43	0x3f7c4f69	0.9855867
44	0x3f7ab876	0.97937715
45	0x3f80dc6a	1.0067265
46	0x3f815a76	1.0105731
47	0x3f7df45e	0.99201
48	0x3f746e73	0.9548103
49	0x3f7c3ef6	0.9853357
50	0x3f7844c7	0.96979946
51	0x3f82526e	1.0181406
52	0x3f813525	1.0094343
53	0x3f7c2b7e	0.98503864
54	0x3f826061	1.0185663
55	0x3f80a779	1.0051109
56	0x3f7bd685	0.98374206
57	0x3f7fab97	0.998712
58	0x3f809a99	1.004718
59	0x3f889842	1.0671465
60	0x3f805f4e	1.0029085
61	0x3f804c8d	1.0023361
62	0x3f858d17	1.0433682
63	0x3f7a9029	0.9787622
64	0x3f804b28	1.0022936
65	0x3f87232b	1.0557607
66	0x3f7b4553	0.98152655
67	0x3f79136a	0.9729525
68	0x3f78a236	0.97122514
69	0x3f83a129	1.0283557
70	0x3f836cb4	1.0267549
71	0x3f826a22	1.0188639
72	0x3f7622e1	0.9614697
73	0x3f805811	1.0026876
74	0x3f7b3eb5	0.9814256
75	0x3f7a64a2	0.97809803
76	0x3f80440f	1.002077
77	0x3f83b8c4	1.0290761
78	0x3f8222de	1.0166891
79	0x3f8516f8	1.0397635
80	0x3f81578c	1.0104842
81	0x3f86a52e	1.0519159
82	0x3f804154	1.0019937
83	0x3f80e276	1.006911
84	0x3f85912e	1.043493
85	0x3f78f815	0.97253543
86	0x3f7e7f58	0.9941306
87	0x3f87bb5a	1.060405
88	0x3f81dd3e	1.0145643
89	0x3f809cd1	1.0047857
90	0x3f7adb77	0.97991127
91	0x3f7ce8a9	0.9879251
92	0x3f7db80d	0.99108964
93	0x3f790927	0.9727959
94	0x3f85a508	1.0440989
95	0x3f822767	1.0168275
96	0x3f874cc3	1.0570301
97	0x3f825d7f	1.0184783
98	0x3f738ff6	0.9514154
99	0x3f79f939	0.9764591
100	0x3f806ee9	1.0033847
101	0x3f809856	1.0046489
102	0x3f82bdd7	1.0214185
103	0x3f876ca8	1.0580034
104	0x3f78e570	0.97225094
105	0x3f7a068e	0.9766625
106	0x3f819095	1.0122248
107	0x3f7a769c	0.97837234
108	0x3f79ec02	0.97625744
109	0x3f8291de	1.0200765
110	0x3f7da0cf	0.990735
111	0x3f7ac8ee	0.97962844
112	0x3f83fc19	1.0311309
113	0x3f821f11	1.0165731
114	0x3f7beb2c	0.9840572
115	0x3f7f86d8	0.9981513
116	0x3f7e24e7	0.9927506
117	0x3f82748e	1.019182
118	0x3f7e0bab	0.99236554
119	0x3f831474	1.0240617
120	0x3f82ddc9	1.0223933
121	0x3f7cbe89	0.98728234
122	0x3f783467	0.9695496
123	0x3f804e67	1.0023926
124	0x3f806411	1.0030538
125	0x3f7acbd9	0.97967297
126	0x3f85af08	1.044404
127	0x3f7d26b6	0.98887193

encoder.1.bias f4 [128]
0	0x39d28e32	0.00040160265
1	0x3cdd2b14	0.02699808
2	0x3c9a20d5	0.018814484
3	0x3d45af5e	0.048262946
4	0xbae08fc8	-0.0017132694
5	0x3d3de173	0.046357583
6	0x3ca70b00	0.020390987
7	0x3ca3cebf	0.019996045
8	0x3b910def	0.00442671
9	0x3c6a393a	0.01429587
10	0x3c544175	0.012955059
11	0x3c970166	0.018433284
12	0x3c6ea560	0.014565796
13	0x3c95241f	0.0182057
14	0x3c813eab	0.015776953
15	0x3c31c7c6	0.010850852
16	0x3c17dc6e	0.009268863
17	0x3c8d6885	0.017261753
18	0x3cb39003	0.021919256
19	0x3ca0ffbf	0.0196532
20	0x3ca0f237	0.019646747
21	0x3c7dbbba	0.015486652
22	0x3c042f6b	0.008067946
23	0x3bf5d360	0.0075020045
24	0x3c7972c1	0.015225113
25	0x3c63ae12	0.013896482
26	0x3bbc6831	0.0057497253
27	0x3ca147a1	0.019687476
28	0x3cc2cc4c	0.023779057
29	0x3c4feed9	0.012691223
30	0x3b1158e1	0.002217822
31	0xbc126c20	-0.008936912
32	0xbb7e4a34	-0.0038801553
33	0x3caf4db8	0.021399364
34	0x3cd09c41	0.025465133
35	0x3c243648	0.010022707
36	0x3ca6ca0c	0.020360015
37	0x3cf28df4	0.029608704
38	0x3cc39244	0.023873456
39	0x3c0a7da3	0.008452806
40	0x3d087391	0.033313338
41	0xbc5df125	-0.013546263
42	0x3cbbf22d	0.022942627
43	0x3cc09504	0.023508556
44	0x3c127ff5	0.00894164
45	0x3c7cee7d	0.015437719
46	0x3cd81d89	0.026381271
47	0x3cd58db4	0.026068546
48	0xbb745faa	-0.0037288466
49	0x3cb2b3b3	0.021814203
50	0x3bcb61f9	0.0062067476
51	0x3ce0606b	0.027389726
52	0x3d2518f7	0.04030701
53	0x3cb1f5d6	0.021723669
54	0x3d00d420	0.0314523
55	0x3d13daac	0.036097214
56	0x3c4c23df	0.012459724
57	0x3cf17e8c	0.029479288
58	0x3cf5310a	0.02993061
59	0x3d570348	0.052493364
60	0x3cece214	0.028916396
61	0x3cc1479f	0.023593722
62	0x3d028dce	0.031873517
63	0x3c27af1f	0.010234623
64	0x3c97e238	0.018540487
65	0x3d2cc030	0.04217547
66	0x3bf9ba75	0.0076211044
67	0x3c153054	0.009105761
68	0xb9538e6a	-0.00020175581
69	0x3d42bff2	0.047546335
70	0x3d352334	0.044223025
71	0x3cf82c35	0.030294517
72	0xbba7a611	-0.005116232
73	0x3c8a8c2a	0.016912539
74	0x3c68f9df	0.01421973
75	0x3c787e61	0.01516685
76	0x3c987268	0.01860924
77	0x3d23a26c	0.03994982
78	0x3d226d69	0.039655123
79	0x3d65d26a	0.05610887
80	0x3cdc4524	0.026888438
81	0x3d55145a	0.052021362
82	0x3cbacd5f	0.022803007
83	0x3cd930ea	0.026512582
84	0x3ce15e42	0.027510766
85	0x3bd80be6	0.0065932153
86	0x3c87ed95	0.01659278
87	0x3d7f4e64	0.06233062
88	0x3cbf1f89	0.023330467
89	0x3cf45f21	0.029830517
90	0x3c74df39	0.014945799
91	0x3b87171c	0.004122628
92	0x3bc1c77d	0.0059136734
93	0x3c4fe224	0.0126881935
94	0x3d6cb5af	0.057790454
95	0x3cfff4ee	0.031244721
96	0x3d380a59	0.044931743
97	0x3d09f4a3	0.03368057
98	0xb9964bb5	-0.00028666636
99	0x3bc9df31	0.0061606397
100	0x3cb97622	0.022639338
101	0x3c5c6757	0.0134523725
102	0x3cd3b58a	0.0258434
103	0x3d39118f	0.04518276
104	0x3c146345	0.009056871
105	0x3adc4ba5	0.0016807212
106	0x3ce98d16	0.028509658
107	0x3ab7999b	0.001400757
108	0x3c87f2eb	0.016595325
109	0x3cf6e447	0.030138148
110	0x3910e232	0.00013817174
111	0x3cb35068	0.021888927
112	0x3d3fc566	0.046819113
113	0x3cc3a1b8	0.023880824
114	0x3c27ce02	0.010241987
115	0x3c6c9da3	0.01444188
116	0x3ca3e33a	0.020005811
117	0x3d32dc2a	0.043666996
118	0xba2b5935	-0.0006536425
119	0x3cba9840	0.022777677
120	0x3c981f77	0.018569691
121	0x3b9f9754	0.0048703346
122	0x3cc1fa1a	0.023678828
123	0x3ce26ae5	0.027638862
124	0x3cb08383	0.021547085
125	0x3beff75c	0.0073231887
126	0x3d26ad2f	0.040692504
127	0x3c59b25e	0.013287155

encoder.3.weight f4 [256, 128]
0	0xbd2a4a74	-0.04157491
1	0x3df20893	0.11818042
2	0x3dbaa6d9	0.09113855
3	0x3d40d0e0	0.0470742
4	0xbda9b6f3	-0.08286848
5	0xbd79d32c	-0.060992405
6	0xbce7bbe9	-0.028287845
7	0x3de958a0	0.11393857
8	0x3dfc6825	0.123245515
9	0xbdbcd1e8	-0.09219724
10	0xbdc0fdf8	-0.09423441
11	0xbca7ae7c	-0.020468943
12	0x3cafda8c	0.021466516
13	0x3ba5c0bf	0.0050583775
14	0xbd9cc6ac	-0.07655081
15	0x3e014eac	0.12627667
16	0xbde39dbe	-0.11114071
17	0xbdb13dd3	-0.0865437
18	0x3db77079	0.08956999
19	0x3da3fa9d	0.08006785
20	0x3d37a72e	0.04483717
21	0xbcbed4d3	-0.023294842
22	0x3d11a6ed	0.035559583
23	0xbdbd49d6	-0.09242599
24	0xbd49b3c6	-0.04924371
25	0x3b606a4e	0.003424305
26	0x3dc6bb5b	0.09703704
27	0xbb9ac074	-0.004722649
28	0x3da12745	0.07868818
29	0x3c10e147	0.008842773
30	0x3c847e60	0.016173542
31	0xbdbcbe49	-0.092159815
32	0x3c6fc30e	0.014633907
33	0x3dfeca98	0.124409854
34	0xbd9cffba	-0.076659635
35	0xbd2954bf	-0.041340586
36	0xbcc5fe35	-0.024169067
37	0xbd2eb490	-0.042652667
38	0x3d6c2e36	0.057661258
39	0xbd801203	-0.062534355
40	0xbd01ee68	-0.031721503
41	0xbc7d8aa2	-0.015474947
42	0x3b9e1c21	0.0048251306
43	0xbcfbac4d	-0.030721808
44	0xbbd93166	-0.006628203
45	0x3dda34ef	0.106546275
46	0x3dcf112b	0.101106964
47	0xbd2c75dd	-0.04210459
48	0x3d84ea21	0.06489969
49	0x3df804c9	0.12110288
50	0x3dc9dd1d	0.09856627
51	0xbc061805	-0.008184438
52	0x3df30229	0.118656464
53	0x3dcdc56e	0.10047422
54	0xbb718c5d	-0.0036857345
55	0x3dd66094	0.104676396
56	0xbdc177d3	-0.09446683
57	0x3d9f0433	0.07764473
58	0xbe088394	-0.13331443
59	0x3cceb616	0.02523331
60	0xbd525e09	-0.05135921
61	0xbb0f335e	-0.0021850686
62	0x3c8c6ca5	0.01714165
63	0x3de2cbac	0.110740036
64	0x3e091880	0.13388252
65	0x3d855e82	0.065121666
66	0x3dd46fa9	0.1037286
67	0x3da15f7e	0.07879542
68	0x3bff5289	0.0077918214
69	0xbdde27a7	-0.10847407
70	0xbda9daa0	-0.082936525
71	0x3dbd1220	0.09231973
72	0x3c5b5d4b	0.013388942
73	0x3d748b81	0.059703354
74	0x3d225d6e	0.039639883
75	0x3dad4b12	0.08461584
76	0xbd68c159	-0.056825016
77	0x3d91e065	0.07122878
78	0xbd4ff523	-0.05077089
79	0xbd25d4ec	-0.04048626
80	0xbd8eca24	-0.06972149
81	0x3c1e12d4	0.009648044
82	0x3de33b41	0.11095286
83	0xbdc9fac8	-0.09862286
84	0x3da94812	0.082656994
85	0x3d56942e	0.05238741
86	0x3c1e56d5	0.009664257
87	0x3c1fef28	0.009761609
88	0x3b2f51a0	0.0026751533
89	0x3d234f31	0.039870445
90	0x3d3ee5bb	0.046605807
91	0x3dbf802e	0.0935062
92	0xbdd52212	-0.10406889
93	0x3daae27b	0.08343979
94	0xbe141151	-0.1445973
95	0xbe0904ba	-0.1338071
96	0xbd60c6bd	-0.05487703
97	0x3d085836	0.03328725
98	0xbd0ed612	-0.034872122
99	0x3dfac088	0.12243754
100	0xbd3e6425	-0.046482224
101	0xbd198549	-0.037480626
102	0xbd3a921c	-0.045549497
103	0xbd920ab5	-0.071309485
104	0x3c5d890f	0.013521447
105	0x3d734bbc	0.059398398
106	0xbddb7422	-0.1071551
107	0xbd96403e	-0.07336472
108	0xbc3b8adf	-0.011446684
109	0x3c948429	0.018129425
110	0xbda0ce2e	-0.07851826
111	0x3d87161f	0.06596016
112	0xbdfeab25	-0.12434987
113	0x3db1835f	0.08667635
114	0x3d238cf5	0.03992935
115	0xbd64fa48	-0.05590275
116	0xbdd80e1e	-0.10549568
117	0xbdab7f85	-0.08373932
118	0x3cd61b05	0.02613593
119	0xbdf661ea	-0.120303944
120	0x3e091050	0.13385129
121	0x3dafcf89	0.08584506
122	0x3da613f6	0.08109276
123	0x3ca8756a	0.0205638
124	0xbd8efd08	-0.06981856
125	0x3cd3f848	0.025875226
126	0x3cd6d961	0.026226701
127	0x3c3fc616	0.011704942
128	0x3db4c7a3	0.0882714
129	0x3de1336b	0.10996135
130	0x3d3d788f	0.04625755
131	0xbd244bc0	-0.040111303
132	0x3cd9b686	0.026576292
133	0xbd611da1	-0.054959897
134	0xbdc2e8aa	-0.095170334
135	0xbdc4f9bd	-0.09617946
136	0x3d85896b	0.06520351
137	0xbdd86f9e	-0.10568164
138	0xbdf06296	-0.11737554
139	0x3cc9c04f	0.024627833
140	0x3db5ee9e	0.08883403
141	0xbe127b22	-0.14304784
142	0x3d489511	0.048970286
143	0xbd8f1d91	-0.06988061
144	0x3d0186db	0.03162275
145	0xbdd44632	-0.10364951
146	0xbd9a600e	-0.07537852
147	0xbda2fb80	-0.07958126
148	0xbd677920	-0.056512
149	0xbd854eea	-0.06509192
150	0x3d6dc162	0.058045752
151	0x3da06796	0.078322574
152	0xbda8fe39	-0.08251614
153	0xbd9c44f6	-0.07630341
154	0x3d9e3726	0.077253625
155	0x3d1f439d	0.03888284
156	0x3dc2febd	0.09521244
157	0xbdc129c2	-0.09431793
158	0x3d07f44d	0.033191968
159	0x3ce28523	0.027651375
160	0xbd9fc5b3	-0.0780138
161	0x3e1a75ec	0.15084046
162	0x3d99ad87	0.07503801
163	0x3d5f9ac4	0.054590955
164	0x3e001db2	0.12511328
165	0xbe0825a4	-0.13295609
166	0x3caba72e	0.02095374
167	0x3d8282eb	0.06372627
168	0x3d46d693	0.048544478
169	0x3d8c7224	0.06857708
170	0x3d0b78fc	0.034050927
171	0x3b0c223a	0.0021382705
172	0x3df32fdd	0.118743636
173	0x3dd80d0a	0.10549362
174	0xbdf8946a	-0.12137683
175	0x3da89eab	0.082333885
176	0xbd41fcdf	-0.047360297
177	0x3db26445	0.08710531
178	0xbd650850	-0.05591613
179	0x3e10ac23	0.14128165
180	0xbcb8c071	-0.0225527
181	0x3d36a943	0.044595014
182	0xbd2d8e2e	-0.04237192
183	0x3d8d178c	0.06889257
184	0xbc08e80b	-0.008356105
185	0xbe05f6e5	-0.13082464
186	0x3bef400e	0.007301337
187	0xbcb9aee8	-0.02266641
188	0xbca6ef42	-0.020377759
189	0xbd9e4847	-0.077286296
190	0xbc269403	-0.010167125
191	0x3e0452ec	0.12922257
192	0xbc596b13	-0.013270157
193	0x3d8e4728	0.06947166
194	0x3d88912a	0.06668313
195	0xbbd0e8b2	-0.0063753957
196	0xbd3b9337	-0.045794692
197	0xbd8e87cf	-0.06959497
198	0xbba2f682	-0.0049732337
199	0x3d8d85a7	0.06910258
200	0x3c6fb8df	0.014631479
201	0x3dce8236	0.100834295
202	0x3d479d8a	0.048734225
203	0x3d043ee4	0.03228654
204	0x3d6a52be	0.057207815
205	0xbdff74c3	-0.124734424
206	0xbd9b7afc	-0.07591817
207	0x3d3589d0	0.04432088
208	0xbca57558	-0.020197555
209	0xbd60bf47	-0.054869916
210	0x3d9b4a17	0.07582491
211	0xbd87627a	-0.0661058
212	0x3c30077b	0.010743971
213	0xbde68108	-0.112550795
214	0xbba98867	-0.005173731
215	0x3d1aec02	0.03782273
216	0x3d7b3c4b	0.061336797
217	0xbd50d698	-0.050985903
218	0x3d6c2c36	0.05765935
219	0xbdb35d61	-0.08758045
220	0xbdc010cf	-0.09378206
221	0xbd0c37e7	-0.034233
222	0x3bf78fee	0.0075549996
223	0xbba3fc0e	-0.0050044125
224	0x3c643e84	0.0139309205
225	0x3da3eaf9	0.08003802
226	0x3dd81d46	0.105524585
227	0xbd4c75db	-0.049917083
228	0x3de94266	0.113896176
229	0xbd0144ef	-0.03155988
230	0xbe0f0e72	-0.13970354
231	0xbc97eaf1	-0.018544646
232	0x3d236b7f	0.03989744
233	0x3d08ee3c	0.033430323
234	0x3c5c5258	0.013447367
235	0x3c7aa710	0.01529862
236	0x3de1d599	0.11027069
237	0xbd505e30	-0.050871074
238	0x3d2e9898	0.042625993
239	0x3dbd0179	0.092287965
240	0xbcfdb576	-0.030970316
241	0x3dcda2a3	0.10040786
242	0xbb3aa9ec	-0.002848263
243	0x3cabb164	0.02095861
244	0xbdbe3b7d	-0.0928869
245	0xbde3cfb3	-0.111236
246	0xbced1151	-0.028938921
247	0x3d035ca1	0.03207076
248	0xbd96efea	-0.07369979
249	0x3dcb299e	0.09920047
250	0x3dd217af	0.102584235
251	0x3d62deaf	0.05538815
252	0x3cfc9b0f	0.030835656
253	0xbc8aaef1	-0.016929122
254	0x3e13f637	0.14449392
255	0x3dc2e49b	0.09516259

encoder.3.bias f4 [256]
0	0xbba77deb	-0.005111446
1	0xbb939c9f	-0.0045047547
2	0xbb52eebe	-0.0032185758
3	0xbca6b73f	-0.02035105
4	0x3ab8caea	0.0014098559
5	0xbc0f4be8	-0.008746125
6	0xbc615ed4	-0.013755519
7	0xbbbe7f14	-0.0058134887
8	0xbc45a7b5	-0.01206391
9	0xbc007e83	-0.007842663
10	0xbbf4b42b	-0.0074677668
11	0x3c0e3878	0.008680455
12	0xbc683d5e	-0.014174787
13	0xbaa205d3	-0.0012361355
14	0x3ba93e94	0.0051649306
15	0x3b94cead	0.0045412392
16	0x3c48d653	0.01225813
17	0x3b79f206	0.0038138642
18	0x3b8b7483	0.0042558326
19	0xbb9845d9	-0.0046469984
20	0xbab03e5c	-0.0013446319
21	0x3a90f8ce	0.0011060478
22	0xbbc74c8b	-0.0060821227
23	0xbc199b3b	-0.009375389
24	0xbb3d59bf	-0.0028892604
25	0x3c087181	0.008327843
26	0x3b7cb8fb	0.0038562405
27	0xbb46de71	-0.0030344988
28	0xbbd7b87a	-0.0065832706
29	0x3b549d28	0.0032442305
30	0xbc4e2472	-0.012581931
31	0x3c11b1e4	0.00889251
32	0x3b4594b0	0.003014844
33	0xbb16fdf4	-0.0023039551
34	0x3bef2fa5	0.007299381
35	0xbc626cd2	-0.01381989
36	0xbc039b7f	-0.008032679
37	0xbb441ac0	-0.002992317
38	0x3c7908b7	0.015199832
39	0x3ad2448b	0.0016042156
40	0xbbf7c945	-0.007561835
41	0xbb7a8217	-0.0038224512
42	0xbb2e4ef3	-0.002659735
43	0xbb6256b1	-0.0034536535
44	0xbacecbfb	-0.0015777344
45	0x3b8992cf	0.004198409
46	0xbb0ba8a2	-0.002131023
47	0x3c1b2714	0.009469766
48	0xbc30b9be	-0.010786472
49	0x3a95249f	0.0011378712
50	0x3b585d2f	0.0033014526
51	0x3c355d4e	0.011069609
52	0xb91835e3	-0.00014515924
53	0x3b2ddf70	0.0026530884
54	0x3b3ca625	0.0028785553
55	0x3c6132cc	0.013745021
56	0x3b9f0b51	0.004853644
57	0xbc44098a	-0.011965165
58	0x3bbc293a	0.0057422193
59	0xbb22f518	-0.0024865326
60	0x3c3f4dc7	0.011676258
61	0xbae96f30	-0.0017809626
62	0xbb9fbf7c	-0.0048751216
63	0x3b35d9e9	0.0027748293
64	0x3a895522	0.0010477642
65	0x3b049c4d	0.0020234764
66	0x3b97a435	0.0046277293
67	0xbaf45b06	-0.001864285
68	0x3c864c4a	0.0163938
69	0x3baa2484	0.0051923413
70	0xbc631020	-0.013858825
71	0x3b813468	0.003943015
72	0x3c062d8b	0.008189569
73	0xbb9dba41	-0.004813463
74	0xba3a9930	-0.00071181636
75	0xbb93bd0a	-0.004508619
76	0xbc113896	-0.008863589
77	0xbb15e44c	-0.0022871671
78	0xba5eef6e	-0.0008504306
79	0xba0404ae	-0.0005036098
80	0x3b3976a2	0.002829947
81	0x3b7f47c4	0.0038952688
82	0xbae56f33	-0.0017504453
83	0xbb92a79b	-0.0044755465
84	0xbc0d5799	-0.008626842
85	0x3b3e06e6	0.002899581
86	0x3c07a2d2	0.0082785655
87	0x3b29a90e	0.0025888118
88	0x3b895031	0.0041904678
89	0xbc910e27	-0.017706944
90	0x3b4ea18a	0.003152939
91	0x3b942ee4	0.0045221914
92	0xbb0b4ede	-0.0021256725
93	0x391c3b6e	0.00014899459
94	0xbaa033fa	-0.0012222521
95	0xbb105fe6	-0.0022029816
96	0xbb3e2f0f	-0.0029019748
97	0xbbe527e0	-0.006993279
98	0xbb034dd9	-0.0020035414
99	0x3bc73c8f	0.006080217
100	0xbba17ea4	-0.004928427
101	0xba3a30f9	-0.00071026344
102	0x3c950d66	0.018194865
103	0xb9cc96cc	-0.00039022265
104	0x3c144356	0.009049257
105	0x3c5f269f	0.013620048
106	0x3addca8e	0.0016921328
107	0xbc2e706d	-0.010646922
108	0xbbd7d2a6	-0.0065863905
109	0x3c1c2e2e	0.0095324945
110	0x3bc34a9f	0.0059598233
111	0xbb072443	-0.002062098
112	0xbadef59b	-0.0017010452
113	0x39a59fc6	0.00031590293
114	0xb9907b89	-0.0002755786
115	0x39aff85d	0.00033563646
116	0x3c7665b0	0.015038893
117	0xbadb6d7b	-0.0016741002
118	0x3b8bff76	0.0042723967
119	0xbc07e3b4	-0.008294035
120	0x3c2e49ed	0.0106377425
121	0x3c0931d3	0.008373695
122	0x3bda3ec3	0.006660314
123	0xbbc2c06c	-0.0059433486
124	0x3c547be3	0.01296899
125	0xbac8a2a7	-0.0015307263
126	0xbb7d1489	-0.0038616976
127	0xbc47d2cf	-0.012196257
128	0xbb94ba7f	-0.0045388336
129	0x3b92d92e	0.0044814562
130	0x3b18a32a	0.0023290613
131	0x3c882f08	0.016623989
132	0x3ac7aeb8	0.0015234565
133	0x3b50b8d2	0.0031848443
134	0x3b0c38d2	0.0021396172
135	0x3c35eab2	0.011103319
136	0xbc07c6d6	-0.008287152
137	0x3c3df6c8	0.011594482
138	0xbb10700f	-0.0022039448
139	0xbbbc0fc8	-0.005739186
140	0x3be3d89d	0.0069533125
141	0x3b9ef464	0.004850911
142	0xbbbad195	-0.0057012537
143	0xbb113e0d	-0.002216223
144	0xbc7ec354	-0.0155495
145	0xbbc0c6bc	-0.005883066
146	0x3b8d4853	0.0043116002
147	0x3b8b56ad	0.004252276
148	0x3b415e7f	0.0029505787
149	0xbb5b26f4	-0.0033439966
150	0xbbe26627	-0.00690915
151	0xb846f7d1	-4.7437676e-05
152	0xb93f9787	-0.00018271628
153	0x3c98a738	0.018634424
154	0x3b45ccd4	0.0030181902
155	0xbc3b326c	-0.011425596
156	0x3ba25637	0.0049541253
157	0xbafa824d	-0.0019112319
158	0xba74c5bc	-0.0009337326
159	0xbc1f17fe	-0.00971031
160	0xbc55e4b3	-0.013055014
161	0x3c8cecfa	0.017202843
162	0xbc01af90	-0.0079153925
163	0xbbf94b83	-0.0076078787
164	0x3b603cd7	0.003421595
165	0x3bb18d0e	0.0054184264
166	0xbbab5a92	-0.0052293027
167	0xbc2764ba	-0.010216886
168	0x3bdf668b	0.006817644
169	0x3b99bc62	0.0046916464
170	0xbb668d63	-0.0035179488
171	0x3ad59890	0.0016296078
172	0x3c08e482	0.008355262
173	0x3ba63110	0.0050717667
174	0x3bec774f	0.007216371
175	0xbb853343	-0.0040649488
176	0x3a82806d	0.0009956487
177	0xbbb002ae	-0.005371413
178	0x3c28bd1b	0.0102989925
179	0xbc16ec77	-0.009211651
180	0x3bd33e2c	0.0064466204
181	0x3b4dbcaa	0.003139297
182	0x3bee6c07	0.0072760615
183	0x3b0f6f94	0.0021886574
184	0x3bac4321	0.005257026
185	0xbabe4ee7	-0.0014519364
186	0xbb82ef4f	-0.003995813
187	0xbb708438	-0.0036699902
188	0x3bd45bb0	0.0064806566
189	0x3c5f2cd5	0.013621529
190	0x3b8c7daf	0.0042874436
191	0xbbd83b8b	-0.006598895
192	0xbc09fd6d	-0.008422238
193	0x3a4dde96	0.0007853297
194	0x3b70f21d	0.0036765405
195	0x3bb2d5d7	0.0054576206
196	0xbbb39791	-0.0054807146
197	0x3bd39d53	0.0064579635
198	0xbc08bb3a	-0.00834542
199	0xbc39bcd2	-0.011336522
200	0x3b8d537b	0.00431293
201	0x3ba297dc	0.0049619507
202	0x3b5f55d8	0.0034078266
203	0xbba71275	-0.005098636
204	0x3b910d5b	0.004426641
205	0x3bb70a2f	0.005585931
206	0xbbf8621c	-0.007580055
207	0x3ba4c4c9	0.0050283414
208	0x3b33a079	0.0027408882
209	0x3bd90432	0.0066228146
210	0x3b3e399d	0.002902604
211	0xbc55754f	-0.013028457
212	0x3bed73b1	0.0072464575
213	0xbc5753c6	-0.013142532
214	0x3bd6563f	0.006541043
215	0xba76e44a	-0.0009418173
216	0xbba93bef	-0.0051646153
217	0xbc2cf7ca	-0.010557124
218	0xbb91791c	-0.004439486
219	0xbb835e55	-0.004009048
220	0xbad28851	-0.0016062354
221	0xbbbfd23e	-0.0058539202
222	0x3b60c8e3	0.0034299425
223	0x3ba7840c	0.0051121768
224	0xbbaba6ba	-0.005238381
225	0x3c4496b6	0.011998823
226	0xbbd6b1d9	-0.006551963
227	0xbb78e564	-0.0037978524
228	0x3c03193f	0.008001625
229	0x3b7f70d2	0.0038977158
230	0xbbefd64e	-0.0073192483
231	0x3a924524	0.0011159522
232	0x3c0eb48e	0.00871004
233	0xbbbbdf0c	-0.0057333764
234	0xbbaab0de	-0.0052090725
235	0x3a0db395	0.0005405483
236	0xba9df292	-0.0012050441
237	0xba94d869	-0.0011355999
238	0xbc3fd049	-0.011707374
239	0xbc82b681	-0.015956165
240	0xbbabf903	-0.0052481904
241	0xbbb2415d	-0.005439921
242	0xbad34a4d	-0.0016120166
243	0x3a6cc279	0.0009031664
244	0x3b26fd7b	0.0025480676
245	0x3bbdf4ac	0.0057969894
246	0x3b7fd3e2	0.0039036204
247	0x3b41a140	0.0029545575
248	0xbb8f7ef2	-0.0043791467
249	0xbbf4c27e	-0.0074694743
250	0x3b6c7e85	0.0036086154
251	0x3be9035e	0.007110997
252	0x3af43862	0.0018632526
253	0x3c0a28f1	0.008432613
254	0xbc213d0d	-0.009841216
255	0xbb81bdfc	-0.0039594155

encoder.4.weight f4 [256]
0	0x3f7a2941	0.977192
1	0x3f80c05f	1.0058707
2	0x3f7d0a72	0.98844063
3	0x3f7860fb	0.9702298
4	0x3f8458c3	1.0339588
5	0x3f7a27eb	0.9771716
6	0x3f7ec634	0.99521184
7	0x3f805508	1.002595
8	0x3f7ffe79	0.9999767
9	0x3f7a2b8d	0.97722703
10	0x3f7f10f3	0.9963524
11	0x3f8192d6	1.0122936
12	0x3f7922bd	0.9731863
13	0x3f803bd9	1.0018264
14	0x3f842bf1	1.032591
15	0x3f7f43ba	0.9971272
16	0x3f894775	1.0724932
17	0x3f7da85a	0.9908501
18	0x3f83fb76	1.0311115
19	0x3f7cf0a2	0.98804677
20	0x3f7ccfe3	0.9875471
21	0x3f8415bd	1.0319134
22	0x3f80cb95	1.0062128
23	0x3f7b9149	0.9826856
24	0x3f7b90b9	0.98267704
25	0x3f7e429f	0.99320406
26	0x3f7e376b	0.9930331
27	0x3f80bddb	1.0057939
28	0x3f7c2b9c	0.9850404
29	0x3f839a74	1.028151
30	0x3f7a161a	0.97689974
31	0x3f80aa6f	1.0052012
32	0x3f82fb77	1.0232991
33	0x3f7f70a3	0.99781245
34	0x3f80d1c6	1.0064018
35	0x3f7ab2ba	0.97928965
36	0x3f7a5ae8	0.9779496
37	0x3f7cbcf8	0.98725843
38	0x3f8114c8	1.0084467
39	0x3f818890	1.01198
40	0x3f7e27f6	0.99279726
41	0x3f816f06	1.0112007
42	0x3f7dc9be	0.9913596
43	0x3f82996f	1.0203074
44	0x3f7d3c45	0.9892009
45	0x3f806efe	1.0033872
46	0x3f7c4825	0.98547584
47	0x3f824c9d	1.017963
48	0x3f791571	0.9729834
49	0x3f7ec9af	0.99526495
50	0x3f80b239	1.0054389
51	0x3f85baf8	1.0447683
52	0x3f7c6787	0.9859547
53	0x3f7d3f0f	0.98924345
54	0x3f816c76	1.0111225
55	0x3f7fbdae	0.99898803
56	0x3f80bac8	1.0057001
57	0x3f77092f	0.9649839
58	0x3f8394ef	1.0279826
59	0x3f81db42	1.0145037
60	0x3f83b61b	1.0289949
61	0x3f7f878b	0.998162
62	0x3f7e013d	0.9922064
63	0x3f83989b	1.0280946
64	0x3f83af5f	1.0287894
65	0x3f8360a0	1.0263863
66	0x3f80f780	1.0075531
67	0x3f79ea86	0.9762348
68	0x3f8645ea	1.0490086
69	0x3f817b5d	1.0115772
70	0x3f7b1edc	0.9809396
71	0x3f80c566	1.0060241
72	0x3f82ab14	1.0208459
73	0x3f7bd760	0.9837551
74	0x3f7d7b3d	0.9901617
75	0x3f7bd6d4	0.98374677
76	0x3f7c2b23	0.9850332
77	0x3f7dc2c8	0.9912534
78	0x3f7cab5f	0.9869899
79	0x3f844d75	1.0336138
80	0x3f7fd67e	0.99936664
81	0x3f7e40d6	0.9931768
82	0x3f7e54b3	0.9934799
83	0x3f7c92b1	0.98661333
84	0x3f76623e	0.96243656
85	0x3f80a430	1.0050106
86	0x3f829d6a	1.0204289
87	0x3f7f17c1	0.9964562
88	0x3f7f6617	0.9976515
89	0x3f780042	0.96875393
90	0x3f7c1b07	0.9847874
91	0x3f7e3bd4	0.9931004
92	0x3f7a8fda	0.9787575
93	0x3f7db00a	0.9909674
94	0x3f80494f	1.0022372
95	0x3f7caf71	0.987052
96	0x3f7d5375	0.9895547
97	0x3f7d2b78	0.98894453
98	0x3f79a0b0	0.97510815
99	0x3f7e2996	0.99282205
100	0x3f801738	1.0007086
101	0x3f80cf35	1.0063235
102	0x3f850ea1	1.0395089
103	0x3f8168a7	1.0110062
104	0x3f821a5b	1.0164293
105	0x3f810439	1.0079414
106	0x3f7f35c0	0.9969139
107	0x3f78d4b8	0.97199583
108	0x3f7dee78	0.99192
109	0x3f804f76	1.002425
110	0x3f8102f7	1.007903
111	0x3f7f9898	0.99842215
112	0x3f7f0140	0.9961128
113	0x3f808682	1.0041049
114	0x3f7f2c4a	0.99676955
115	0x3f7ea853	0.9947559
116	0x3f8bce43	1.0922321
117	0x3f81b5ac	1.0133567
118	0x3f8a64a6	1.0811965
119	0x3f7d5c40	0.9896889
120	0x3f82fa29	1.0232593
121	0x3f806065	1.0029417
122	0x3f7d9440	0.99054337
123	0x3f7cacf3	0.987014
124	0x3f81b121	1.013218
125	0x3f7aceac	0.97971606
126	0x3f7ca262	0.98685277
127	0x3f7b4745	0.98155624
128	0x3f82dc81	1.0223542
129	0x3f7ff0fe	0.999771
130	0x3f7f3a33	0.9969818
131	0x3f81a222	1.0127604
132	0x3f82e60f	1.0226458
133	0x3f7ad30b	0.97978276
134	0x3f81ad09	1.0130931
135	0x3f828330	1.0196285
136	0x3f7de630	0.99179363
137	0x3f7eef80	0.995842
138	0x3f7d4f0e	0.9894875
139	0x3f7e4e64	0.99338365
140	0x3f84be60	1.0370598
141	0x3f7da42f	0.9907865
142	0x3f7aa698	0.9791045
143	0x3f806ac1	1.0032579
144	0x3f78f9b9	0.97256047
145	0x3f7d92cc	0.9905212
146	0x3f825584	1.0182347
147	0x3f80a807	1.0051278
148	0x3f7f051b	0.99617165
149	0x3f7bf6a0	0.98423195
150	0x3f7beefb	0.9841153
151	0x3f7ee8e0	0.9957409
152	0x3f81769f	1.0114325
153	0x3f88ca48	1.0686731
154	0x3f7e181a	0.99255526
155	0x3f7c1664	0.98471665
156	0x3f80b463	1.005505
157	0x3f7d4bdf	0.98943895
158	0x3f800806	1.0002449
159	0x3f7b2980	0.981102
160	0x3f76ca4f	0.9640245
161	0x3f8431f3	1.0327743
162	0x3f7b23b0	0.9810133
163	0x3f7fbf03	0.99900836
164	0x3f8041c3	1.0020069
165	0x3f7e7f89	0.99413353
166	0x3f84e8c5	1.0383536
167	0x3f773881	0.96570593
168	0x3f809a1f	1.0047034
169	0x3f815425	1.0103804
170	0x3f7e4bf5	0.9933465
171	0x3f82e3e2	1.0225794
172	0x3f82d344	1.0220723
173	0x3f84f606	1.038758
174	0x3f80821d	1.0039707
175	0x3f808910	1.0041828
176	0x3f7c221c	0.98489547
177	0x3f7d6b5c	0.9899194
178	0x3f833ed2	1.0253546
179	0x3f7715e3	0.9651777
180	0x3f800346	1.0000999
181	0x3f8377c7	1.0270928
182	0x3f847664	1.034863
183	0x3f8144fc	1.0099177
184	0x3f826f9c	1.019031
185	0x3f8014d3	1.0006355
186	0x3f81876a	1.011945
187	0x3f7c6f38	0.98607206
188	0x3f811315	1.0083948
189	0x3f83ec43	1.0306476
190	0x3f7c08ca	0.9845091
191	0x3f7c69ba	0.98598826
192	0x3f7bcf42	0.98363125
193	0x3f81a047	1.0127038
194	0x3f7e456a	0.9932467
195	0x3f7d8f8a	0.9904715
196	0x3f8ab57d	1.0836636
197	0x3f7ff85a	0.9998833
198	0x3f7b90e8	0.98267984
199	0x3f7c6976	0.9859842
200	0x3f7edd35	0.99556285
201	0x3f7ee49b	0.99567574
202	0x3f8043c6	1.0020683
203	0x3f810cbb	1.008201
204	0x3f7e48db	0.9932992
205	0x3f7cda3c	0.987705
206	0x3f7e5c7e	0.9935988
207	0x3f8479a7	1.0349625
208	0x3f79e305	0.9761203
209	0x3f80ae98	1.0053282
210	0x3f843325	1.0328108
211	0x3f802ffd	1.0014645
212	0x3f7c5a44	0.98575234
213	0x3f78ade0	0.9714031
214	0x3f81fdf0	1.015562
215	0x3f81420b	1.009828
216	0x3f7bca90	0.9835596
217	0x3f804744	1.0021749
218	0x3f7b3141	0.9812203
219	0x3f7f4975	0.9972146
220	0x3f7e86f7	0.9942469
221	0x3f7b4a74	0.9816048
222	0x3f81b675	1.0133806
223	0x3f818ebf	1.0121688
224	0x3f7da671	0.99082094
225	0x3f820504	1.0157781
226	0x3f7dd2a0	0.99149513
227	0x3f7d5263	0.9895384
228	0x3f7ed658	0.9954581
229	0x3f7bb60c	0.98324656
230	0x3f7d5992	0.989648
231	0x3f819941	1.0124894
232	0x3f82e60b	1.0226454
233	0x3f7c6856	0.98596704
234	0x3f7c64c4	0.98591256
235	0x3f82a42f	1.0206355
236	0x3f81739f	1.011341
237	0x3f802de6	1.0014007
238	0x3f771df5	0.96530086
239	0x3f78cae9	0.97184616
240	0x3f79fae3	0.9764845
241	0x3f7e2cbf	0.9928703
242	0x3f7c1b7d	0.98479444
243	0x3f7c6c48	0.98602724
244	0x3f7bec07	0.98407024
245	0x3f820145	1.0156637
246	0x3f819289	1.0122844
247	0x3f8313e5	1.0240446
248	0x3f7de0a3	0.99170893
249	0x3f7f22ce	0.9966248
250	0x3f814fc1	1.0102464
251	0x3f82830b	1.0196241
252	0x3f7e9a2c	0.99454
253	0x3f80de17	1.0067776
254	0x3f7cf5e9	0.9881273
255	0x3f7eb83f	0.9949989

encoder.4.bias f4 [256]
0	0xbb4c4ea8	-0.0031174812
1	0xbaf18174	-0.0018425421
2	0x3a5d0ce0	0.00084323995
3	0xbc7ff91c	-0.015623357
4	0x3b5d5a26	0.0033775656
5	0xbbea4b75	-0.0071501085
6	0xbc13fa4b	-0.009031842
7	0xbb2888f9	-0.0025716408
8	0xbbfbc3ff	-0.0076832767
9	0xbb75173b	-0.003739788
10	0xbbba292f	-0.005681179
11	0x3c36a755	0.0111482935
12	0xbc30d2a0	-0.010792404
13	0x3aed4c27	0.001810436
14	0x3bf34551	0.0074240346
15	0x3c09fd70	0.008422241
16	0x3c7582e7	0.014984823
17	0x3c1c0946	0.009523695
18	0x3b9598fe	0.004565357
19	0xba8ba581	-0.0010654182
20	0x3b22cc65	0.0024841067
21	0x3b037cda	0.002006343
22	0xbb28ad88	-0.0025738198
23	0xbbd7abf9	-0.00658178
24	0x39520b6b	0.00020031414
25	0x3c072254	0.008247931
26	0x3c0cb4b7	0.008588008
27	0xba9d412c	-0.0011997572
28	0xbbcc739d	-0.006239368
29	0x3b89154b	0.0041834465
30	0xbc1b2e4b	-0.009471486
31	0x3c5d2c07	0.0134992665
32	0x3b96f65a	0.004607004
33	0xba1fa9cf	-0.0006090672
34	0x3c4794c3	0.012181464
35	0xbc29967b	-0.010350819
36	0xbba635b3	-0.0050723194
37	0x3a41a8f5	0.0007387542
38	0x3c8e6d0b	0.01738598
39	0x3b823f73	0.003974849
40	0xbb4d1429	-0.0031292534
41	0x3b53380d	0.0032229454
42	0xbb3f013a	-0.0029145018
43	0x390cc7c2	0.00013425856
44	0x3b3350f6	0.002736149
45	0x3be099b9	0.0068542627
46	0x3ac173aa	0.0014759202
47	0x3c33db86	0.010977631
48	0xbbfda98e	-0.0077411598
49	0x3b7fdfa6	0.0039043217
50	0x3c0caaba	0.008585626
51	0x3c868905	0.016422758
52	0x3ad2433a	0.0016041764
53	0x3be05775	0.006846363
54	0x3b8f7ba1	0.0043787514
55	0x3c851f87	0.016250385
56	0x3bbbef8e	0.0057353443
57	0xbbebdb67	-0.0071977857
58	0x3bf6f56b	0.0075365803
59	0xbadd7cfb	-0.0016898209
60	0x3c49ce09	0.012317189
61	0x3a99b079	0.0011725567
62	0xbacc5c1b	-0.0015591414
63	0x3bc20f76	0.0059222532
64	0x3b266f66	0.0025395988
65	0x3b802812	0.0039110268
66	0x3bf02d0f	0.00732959
67	0xb9838ec4	-0.00025092636
68	0x3c98f12e	0.018669691
69	0x3bf5edee	0.00750517
70	0xbc1f2db4	-0.009715486
71	0x3b98cb0d	0.0046628774
72	0x3c2afd72	0.010436403
73	0x39b7effe	0.00035083288
74	0x3b75a7d2	0.0037484062
75	0xbaa4a963	-0.0012562688
76	0xbbc8e09c	-0.006130291
77	0x3b4a8553	0.0030902221
78	0x39a963ec	0.0003230864
79	0x3afd51a5	0.00193267
80	0x3b878095	0.004135201
81	0x3b63be9b	0.003475106
82	0x3a43f958	0.0007475815
83	0xbb1c6890	-0.0023866035
84	0xbbb28dc1	-0.0054490273
85	0x3bb11657	0.0054042744
86	0x3c1937ee	0.009351714
87	0x3b835792	0.004008242
88	0x3bb3208d	0.005466527
89	0xbc91e83d	-0.017810935
90	0x3bb79bf7	0.0056033093
91	0x3bc62e34	0.0060479883
92	0x3abae094	0.0014257603
93	0x3b049754	0.00202318
94	0x3ac93495	0.0015350754
95	0x3956fb74	0.00020502304
96	0x3a749615	0.00093302253
97	0xbb921ca7	-0.004458982
98	0x39880dff	0.0002595037
99	0x3c089a3d	0.0083375545
100	0xbaa7899d	-0.0012782101
101	0x3b534c6a	0.0032241591
102	0x3cab7881	0.020931484
103	0x3b81a656	0.0039565964
104	0x3c5353ca	0.012898395
105	0x3c6ebaf3	0.014570939
106	0x3bc99ad7	0.0061524916
107	0xbc159f12	-0.009132164
108	0xbb5bd206	-0.0033541932
109	0x3c2bee71	0.010493861
110	0x3c019ff1	0.007911668
111	0xb999778f	-0.00029271512
112	0x3adf69e3	0.0017045107
113	0x3b1ff4e9	0.0024407452
114	0x3b1793d9	0.0023128896
115	0x3b931313	0.004488358
116	0x3c9eb2b6	0.019372325
117	0x3a196e11	0.0005852888
118	0x3c1c8b07	0.009554631
119	0xbbb5939d	-0.0055412785
120	0x3c683c71	0.014174567
121	0x3c36bfee	0.011154158
122	0x3c475bf8	0.012167923
123	0xbb95f6da	-0.004576546
124	0x3c67713c	0.014126118
125	0x3acb5b99	0.0015514969
126	0xbb85b1d3	-0.004080036
127	0xbc38ca7b	-0.011278744
128	0xbb083e4e	-0.002078909
129	0x3bac21b0	0.0052530393
130	0x3b924fd0	0.004465081
131	0x3ca0ce24	0.019629546
132	0x3bf5947c	0.0074945074
133	0x3ba27ca5	0.0049587064
134	0x3ba20175	0.0049440213
135	0x3ca099ab	0.019604525
136	0xbb2d512c	-0.0026446087
137	0x3c4faf6d	0.012676102
138	0x3b080271	0.0020753408
139	0xbb31b670	-0.0027116798
140	0x3c2ac9a3	0.0104240505
141	0x3bc11aab	0.0058930716
142	0xba07cdc1	-0.0005180501
143	0x3a38cec8	0.0007049856
144	0xbc471f74	-0.012153495
145	0xbb08ede5	-0.002089375
146	0x3bf9e958	0.0076266937
147	0x3bd19c1c	0.0063967835
148	0x3bd54398	0.006508302
149	0x3ac61f6c	0.0015115566
150	0xbb561483	-0.0032666035
151	0x3a4bb196	0.0007770298
152	0x3b4fbcbb	0.0031698185
153	0x3cbb0471	0.022829266
154	0x3b923707	0.004462126
155	0xbc1fa337	-0.009743503
156	0x3c1812fa	0.009281868
157	0x3ac5cb0b	0.0015090419
158	0xba4b9256	-0.0007765641
159	0xbbd62fab	-0.006536444
160	0xbc183076	-0.009288898
161	0x3ca0549c	0.019571595
162	0xbb805777	-0.0039166766
163	0xbab85bef	-0.0014065484
164	0x3c015179	0.00789296
165	0x3be94461	0.007118747
166	0xbaecc9bd	-0.0018065494
167	0xbc075f5a	-0.00826248
168	0x3c2a3411	0.01038839
169	0x3c079a0f	0.0082764765
170	0xbb27dd66	-0.0025614141
171	0x3b9dc679	0.0048149195
172	0x3c327934	0.010893155
173	0x3be354dc	0.0069376063
174	0x3c12a635	0.00895076
175	0xb88ca1e2	-6.705873e-05
176	0x3b0be766	0.002134764
177	0xbadf0d4d	-0.0017017514
178	0x3c4e7b40	0.012602627
179	0xbbd4f31b	-0.006498707
180	0x3c093372	0.008374082
181	0x3b47c2cd	0.00304811
182	0x3c4444bd	0.011979279
183	0x3b39ade8	0.0028332416
184	0x3bb91686	0.005648437
185	0x3a1c20e9	0.0005955832
186	0xbb0a4c4c	-0.0021102605
187	0xba183897	-0.00058067724
188	0x3bd87ff1	0.0066070487
189	0x3c816ccd	0.01579895
190	0x3bcf185b	0.006320042
191	0xbb866e23	-0.004102485
192	0xbb850b35	-0.004060174
193	0x3b965e08	0.004588846
194	0x3c0851e9	0.00832031
195	0x3beeaa35	0.007283474
196	0xba896e7b	-0.0010485196
197	0x3c2fa7e9	0.010721185
198	0xbbcd4549	-0.006264363
199	0xbbf074d5	-0.007338146
200	0x3c13aa3d	0.009012756
201	0x3c025a7b	0.007956143
202	0x3bbc063b	0.0057380474
203	0xbacda5fd	-0.0015689727
204	0x3be9467a	0.007118997
205	0x3c038889	0.008028158
206	0xbb483845	-0.0030551117
207	0x3bbd62b6	0.0057795895
208	0x3bbb352e	0.0057131266
209	0x3c0972d0	0.00838919
210	0x3bcbd19a	0.006220055
211	0xbbea71b0	-0.007154666
212	0x3c0442b8	0.008072548
213	0xbc39a7d5	-0.011331518
214	0x3c0d1e05	0.008613114
215	0x3a157bcf	0.0005702348
216	0xbb0b3ea5	-0.0021247056
217	0xbbb7d3ab	-0.0056099496
218	0xbb102425	-0.00219942
219	0xbac5c4fb	-0.0015088612
220	0xbaaa34d5	-0.0012985716
221	0xbb04df46	-0.0020274683
222	0x3be4aead	0.006978831
223	0x3bdac6cf	0.006676532
224	0xbb93621b	-0.004497779
225	0x3c7f7d86	0.015593892
226	0xbb5d8aaa	-0.0033804574
227	0xbb3caed5	-0.0028790731
228	0x3bd53ce1	0.0065075015
229	0x3bdbd235	0.0067084082
230	0xbba249f6	-0.0049526645
231	0x3ab4a168	0.0013781013
232	0x3c52d819	0.0128689045
233	0xbb1ef10d	-0.0024252564
234	0xbb2a4578	-0.0025981348
235	0x3a93fe5d	0.0011291016
236	0x3a831d13	0.0010003172
237	0x3ae62e8e	0.0017561482
238	0xbc225230	-0.00990729
239	0xbc5993bb	-0.013279851
240	0xbb792e34	-0.0038021924
241	0xbb81501f	-0.0039463188
242	0x39907374	0.0002755184
243	0x3b985b62	0.0046495656
244	0x3b97ef7e	0.004636704
245	0x3c1870bc	0.009304222
246	0x3c3a8ac2	0.0113856215
247	0x3c10fb64	0.008848999
248	0x3881a3ff	6.181746e-05
249	0xbb924d2e	-0.004464767
250	0x3bc1d85b	0.005915684
251	0x3c3dc200	0.011581898
252	0x3b8b92c7	0.0042594406
253	0x3c596ea2	0.013271006
254	0xbbe94831	-0.0071192016
255	0xbb0f07c7	-0.0021824704
