modelparameter/willie_lognormal8_4.pth (torch, 206743 bytes, 9 tensors)

net.0.weight f4 [128, 8]
00000000: e32e 1e3e a029 96bd a01b ac3c 1cb9 24bd
00000010: 4d2a 383e f2a8 b83d 240a 53be 20fc 85bd
00000020: 4935 2a3e 7e6b e43d 3815 d6bc ae1a 1fbe
00000030: f4b8 5ebd e07e bebc 16ca e73d 92a7 b83d
00000040: 2696 38be 001c 23be 28ad 0ebe 3534 333e
00000050: f033 a13c 30f5 3bbc b8bf c83c 7a14 fe3d
00000060: 801b 8d3b 502c 91bd da39 fa3d 486e e7bc
00000070: c8e4 c53c b948 4c3e 4097 93bb 9d8e 213e
00000080: 6e7c 56be 64ee 1cbe 06ed 24be 3bbf dfbd
00000090: 6b38 18be 4bfa f5bd d873 083d 21da 303e
000000a0: b08e ff3c 7adc a03d 006a a13b 9c32 06bd
000000b0: f820 babc 4a0f bb3d ea5f fa3d f7da 093e
000000c0: db95 0c3e 3060 723c 2e6b f23d 8868 09bd
000000d0: 4b7c 45be c087 22bc 2cae 48be b0f4 923c
000000e0: bcc3 353d 83bb 483e 20ec 39bc a70d 2c3e
000000f0: a03e 333c 9ea9 a63d 74f4 91bd e064 8abd
00000100: 909e 8abd 9ba3 b0bd 7d7c 033e 4e2c 1cbe
00000110: 8254 813d 6c70 0e3d 8c84 12bd 328b 1fbe
00000120: f107 4fbe a0ef 6bbd c6c7 fabd b024 a3bc
00000130: dcc5 413d b06d 873c 1820 be3c 3c65 753d
00000140: 623d a2bd 51f4 07be 127d e73d ac0c 4abe
00000150: 95fa 193e edb1 063e 84c0 16be 017a 2b3e
00000160: 4ad1 10be 4fe4 24be e84f 163d 0583 efbd
00000170: b430 81bd b29c 38be 3288 1bbe bf32 0e3e
00000180: 5715 413e eab3 bd3d 2211 11be c340 253e
00000190: 311d 2f3e 800c 9a3b b7fb d2bd b42d 05be
000001a0: 2c68 1a3d dcce 59bd 4ee5 2cbe ee92 b63d
000001b0: 1491 3d3d c010 21be 3097 8ebc d415 31be
000001c0: 8c6f 593d 67a4 3dbe 2068 19be 791f 203e
000001d0: 0e14 a13d 47e5 0dbe b8f0 56be 32d2 80bd
000001e0: 3134 163e 52a8 f53d ec58 31bd 03c1 38be
000001f0: ceca 3fbe 3abd b73d 8af2 d53d c356 523e
00000200: 497a 083e da60 a2bd bcca 0fbd f802 82bd
00000210: 0893 a63c c0c3 a4bc e154 043e 7b5e 073e
00000220: bc25 3ebe 6df9 0e3e 241e d0bd 53be 1b3e
00000230: 6f89 3ebe 82d8 f93d b0c9 ee3c 5d80 1e3e
00000240: a966 4dbe 8c28 07be b882 6ebd dcfc 3bbd
00000250: 8b66 20be 8621 45be b1fb 453e ff2c 2c3e
00000260: 1477 49bd aace a23d ec8a 1e3d 66c6 9d3d
00000270: 2030 1cbe eb97 bebd 611d 403e a6f1 bc3d
00000280: 04f8 193d ba16 eebd c836 933c c844 913c
00000290: d4a8 33bd 364c 00be 709e d1bc 46cb bdbd
000002a0: c0bb ebbb eb18 05be 1917 afbd a619 47be
000002b0: daa3 d2bd 20e8 d3bc 40f8 a83b 6ac7 ad3d
000002c0: 2043 4fbc 45ad 533e 58e7 71bd 4ccc 6dbd
000002d0: 28c6 dc3c 5c9a 2cbd 14cd 653d 0ca7 19bd
000002e0: c39c 12be 2e8f 8b3d 29cd 2c3e 4894 45be
000002f0: dc77 4b3d d47a 25be c093 263c 533f 2c3e
00000300: b0e8 90bc 178e 193e 120d d93d e146 11be
00000310: 908c 28bd 4781 013e 8633 b23d 203e d0bb
00000320: b5a2 0d3e 7652 8bbd b649 c1bd d745 373e
00000330: 6234 0dbe f0b7 5fbc 127c 18be 3650 b53d
00000340: 8acf c93d ba3d a23d ee3d de3d 9ae0 e93d
00000350: 8aff 8cbd 1f78 0b3e f3d2 323e a0d0 963b
00000360: c384 34be 8c87 6e3d 2394 523e 2a49 2dbe
00000370: 9023 113c 5851 cbbc 2491 46be 7176 053e
00000380: 11ff 3e3e d8ad a1bc 72ab ad3d 30a7 f13c
00000390: 28a9 05be 3238 ae3d 398b 3f3e f075 4fbc
000003a0: b050 33be 12a9 ad3d 6592 51be 9af3 883d
000003b0: e436 69bd 6543 f1bd ad8e 533e b023 773c
000003c0: 160d 973d a824 b5bc 0239 11be 62a4 8e3d
000003d0: 12f6 fa3d 7664 e3bd b540 033e 30b7 15bc
000003e0: 2685 9f3d f657 c83d d0c0 15bd 560c bd3d
000003f0: 00a8 5b39 a858 a8bd b0be 373c e017 a1bb
0.15447573 -0.07332158 0.021009266 -0.040215597 0.17984886 0.09016599 -0.20609337 -0.0654223
0.16621889 0.11153315 -0.026133165 -0.15537521 -0.054375604 -0.023253858 0.11317842 0.090163365
-0.18026027 -0.1592865 -0.13933241 0.17500384 0.019678086 -0.0114720315 0.024505481 0.12406249
0.004306257 -0.0708853 0.122180656 -0.028250828 0.024156943 0.19949616 -0.0045041144 0.15777059
-0.20945904 -0.15325314 -0.16106042 -0.10925146 -0.14865272 -0.1201063 0.033313602 0.1727071
0.031195968 0.078545526 0.0049259663 -0.03276311 -0.022720799 0.091337755 0.122253254 0.13462435
0.1372904 0.014793441 0.11836849 -0.033546954 -0.19285695 -0.009920061 -0.19597691 0.017938942
0.04437612 0.1960278 -0.0113478005 0.16802083 0.010940224 0.08137821 -0.07126704 -0.06757522
-0.06768525 -0.08624955 0.12840457 -0.15251276 0.06314947 0.034775183 -0.035770938 -0.15580443
-0.20217873 -0.05760157 -0.12245135 -0.019914955 0.047307834 0.016531795 0.023208663 0.059910998
-0.07921864 -0.13276793 0.11303152 -0.19731396 0.15036996 0.13153811 -0.14721876 0.1674576
-0.14142337 -0.16102718 0.0366973 -0.11694912 -0.063081175 -0.18028525 -0.15188673 0.13886546
0.18855797 0.092628315 -0.14166692 0.16137986 0.1710098 0.004701197 -0.10301917 -0.13005716
0.037697002 -0.053175792 -0.16884348 0.08914743 0.046280935 -0.15729046 -0.017406076 -0.17293483
0.053084895 -0.18519746 -0.14981127 0.15637006 0.07865153 -0.13856994 -0.20990264 -0.062900916
0.14668347 0.11994995 -0.043297693 -0.18042378 -0.18729708 0.08971639 0.10446651 0.2054091
0.13327898 -0.07928629 -0.035105452 -0.063482225 0.020333782 -0.020112872 0.12923004 0.13219635
-0.18569082 0.13962336 -0.10161999 0.15209322 -0.18607114 0.12199499 0.029148906 0.15478654
-0.20058693 -0.13199061 -0.058230132 -0.045895442 -0.15664117 -0.1925107 0.19334294 0.1681404
-0.049185827 0.07949574 0.038706705 0.07703857 -0.15252733 -0.0930632 0.18761207 0.09225778
0.03759004 -0.116254285 0.017970458 0.017732993 -0.04386218 -0.12529072 -0.025588244 -0.09267287
-0.0071940124 -0.12997787 -0.085493274 -0.19443378 -0.102851585 -0.025867522 0.005156547 0.08485301
-0.012650281 0.20671566 -0.059058517 -0.05805616 0.026949957 -0.042139396 0.05610378 -0.037512824
-0.14317612 0.06814419 0.16875137 -0.19294846 0.049674854 -0.16160136 0.010167062 0.16821031
-0.017689079 0.14995609 0.10598196 -0.14187194 -0.041149676 0.12646972 0.087012336 -0.006355062
0.13831599 -0.068028376 -0.09437887 0.17897736 -0.13789514 -0.013654694 -0.14891079 0.0885319
0.09854038 0.0792193 0.10851656 0.114197925 -0.06884678 0.13620041 0.17463283 0.0046025068
-0.1762877 0.058234736 0.20564322 -0.16922441 0.008858576 -0.024819061 -0.19391304 0.13033463
0.18651988 -0.019736215 0.08479966 0.029498667 -0.13052809 0.08506812 0.18705453 -0.012662396
-0.17511249 0.08479513 -0.20466001 0.06687088 -0.056937113 -0.117804326 0.20659895 0.015084192
0.07375543 -0.022112206 -0.14181903 0.06964947 0.122539654 -0.11103146 0.12817653 -0.009137914
0.07789068 0.09782402 -0.036560833 0.092308685 0.00020948052 -0.08220035 0.011214897 -0.004916176

net.0.bias f4 [128]
00000000: 0000 0000 0000 0000 0000 0000 0000 0000
00000010: 0000 0000 0000 0000 0000 0000 0000 0000
00000020: 0000 0000 0000 0000 0000 0000 0000 0000
00000030: 0000 0000 0000 0000 0000 0000 0000 0000
00000040: 0000 0000 0000 0000 0000 0000 0000 0000
00000050: 0000 0000 0000 0000 0000 0000 0000 0000
00000060: 0000 0000 0000 0000 0000 0000 0000 0000
00000070: 0000 0000 0000 0000 0000 0000 0000 0000
00000080: 0000 0000 0000 0000 0000 0000 0000 0000
00000090: 0000 0000 0000 0000 0000 0000 0000 0000
000000a0: 0000 0000 0000 0000 0000 0000 0000 0000
000000b0: 0000 0000 0000 0000 0000 0000 0000 0000
000000c0: 0000 0000 0000 0000 0000 0000 0000 0000
000000d0: 0000 0000 0000 0000 0000 0000 0000 0000
000000e0: 0000 0000 0000 0000 0000 0000 0000 0000
000000f0: 0000 0000 0000 0000 0000 0000 0000 0000
00000100: 0000 0000 0000 0000 0000 0000 0000 0000
00000110: 0000 0000 0000 0000 0000 0000 0000 0000
00000120: 0000 0000 0000 0000 0000 0000 0000 0000
00000130: 0000 0000 0000 0000 0000 0000 0000 0000
00000140: 0000 0000 0000 0000 0000 0000 0000 0000
00000150: 0000 0000 0000 0000 0000 0000 0000 0000
00000160: 0000 0000 0000 0000 0000 0000 0000 0000
00000170: 0000 0000 0000 0000 0000 0000 0000 0000
00000180: 0000 0000 0000 0000 0000 0000 0000 0000
00000190: 0000 0000 0000 0000 0000 0000 0000 0000
000001a0: 0000 0000 0000 0000 0000 0000 0000 0000
000001b0: 0000 0000 0000 0000 0000 0000 0000 0000
000001c0: 0000 0000 0000 0000 0000 0000 0000 0000
000001d0: 0000 0000 0000 0000 0000 0000 0000 0000
000001e0: 0000 0000 0000 0000 0000 0000 0000 0000
000001f0: 0000 0000 0000 0000 0000 0000 0000 0000
0.0 0.0 0.0 0.0 0.0 0.0 0.0 0.0
0.0 0.0 0.0 0.0 0.0 0.0 0.0 0.0
0.0 0.0 0.0 0.0 0.0 0.0 0.0 0.0
0.0 0.0 0.0 0.0 0.0 0.0 0.0 0.0
0.0 0.0 0.0 0.0 0.0 0.0 0.0 0.0
0.0 0.0 0.0 0.0 0.0 0.0 0.0 0.0
0.0 0.0 0.0 0.0 0.0 0.0 0.0 0.0
0.0 0.0 0.0 0.0 0.0 0.0 0.0 0.0
0.0 0.0 0.0 0.0 0.0 0.0 0.0 0.0
0.0 0.0 0.0 0.0 0.0 0.0 0.0 0.0
0.0 0.0 0.0 0.0 0.0 0.0 0.0 0.0
0.0 0.0 0.0 0.0 0.0 0.0 0.0 0.0
0.0 0.0 0.0 0.0 0.0 0.0 0.0 0.0
0.0 0.0 0.0 0.0 0.0 0.0 0.0 0.0
0.0 0.0 0.0 0.0 0.0 0.0 0.0 0.0
0.0 0.0 0.0 0.0 0.0 0.0 0.0 0.0

net.2.weight f4 [128, 128]
00000000: 1ee3 df3d cc0d e1bd 687c 8ebd f798 113e
00000010: 24da 2a3d 99da 0f3e 2cc8 0abe 5c66 7fbd
00000020: d873 12be fc69 8e3d c001 0dbc f029 4dbc
00000030: c8bc d93c 26f1 90bd 805a 1e3d 309c e0bd
00000040: 6f0d 07be a084 ba3b 55d1 8cbd b85a 813c
00000050: 763c f7bd b005 bcbc 3c46 a13d 3414 81bd
00000060: 5bb6 17be bc86 703d f036 cebc c061 46bc
00000070: aca1 423d d24f 03bd 2a86 d03d e511 023e
00000080: ccaa 783d 487c 923d 2a31 983d 6a76 04bd
00000090: 4613 1abe c0aa 5a3d 9046 243d cb88 0ebe
000000a0: b679 01be 8a7b 98bd a2d4 c23d 50ad bebc
000000b0: 0286 0ebe 8820 b13c 008a aaba 7c42 5f3d
000000c0: ffcf aabd e49f d4bd 7538 87bd f047 843c
000000d0: a056 7fbc adac 1b3e 0023 2e3d af16 133e
000000e0: 405d 1a3b 84cb dcbd f787 153e d6cc c13d
000000f0: d999 053e 1c62 383d b837 193d 78e0 943c
00000100: 0a8c a7bd c0f1 f6bb 5a87 fc3d d4be 253d
00000110: 40e7 f3bc afe6 083e 4275 bcbd e890 093d
00000120: c0f9 c8bb dac0 e73d 9ab4 19bd 6003 ab3b
00000130: 86c7 e33d 0867 c0bd 8efe e63d ecf8 1dbd
00000140: e80c 8e3d 2b00 0f3e 7092 ac3c 9c56 42bd
00000150: d0c4 0d3d ec47 c0bd 3487 76bd 1c7c 893d
00000160: e8f7 d1bc 10f0 923d b03d f9bd 1464 3abd
00000170: b37d dabd d087 993c f632 27bd 4c9f cfbd
00000180: f0cf 8c3d 448d 8e3d 9cef bc3d 01fe e3bd
00000190: 0321 083e 6078 cb3c 31c5 a9bd 20ba e4bb
000001a0: 0214 9c3d 82bd dd3d 046e 473d 98b6 8dbc
000001b0: e81e d2bc aab4 32bd 0072 263d 0021 343c
000001c0: 0611 c0bd 8717 18be 1b61 bbbd 7e1a 3fbd
000001d0: 390b 023e ab38 083e c292 e03d eefd 56bd
000001e0: 489a 01be b828 313d d8e7 f83c ceca d83d
000001f0: 5da4 073e f812 31bd 3047 c33d c8fa debc
00000200: f9e6 03be 04e0 743d 4099 c9bd 9440 c9bd
00000210: 8078 2f3c 4844 383d 40d8 39bb b078 12bc
00000220: 48c5 70bd 47db 043e 2c65 cbbd d4ee b13d
00000230: 704c 9bbc 6e8c f33d 1253 05be 03cb 003e
00000240: 5a08 a9bd b59e 0bbe d6eb b23d 7cf2 78bd
00000250: a03a 723c 8e12 fb3d 0cf9 2a3d 09d8 f6bd
00000260: 122c d03d 21ac 0b3e 3808 05be e263 d8bd
00000270: 8d2a c4bd d08b f63c 57d7 b4bd 1409 16be
00000280: b8e3 9e3c 3050 bc3c f8fa 17be 8c4c 1cbe
00000290: 35c3 98bd 0843 e6bd 56d2 04be 52ce 45bd
000002a0: 88d2 0a3d cf30 f4bd 2bee 113e 4a1b 913d
000002b0: 7e9b 0dbe e87f 8e3c 5dd4 033e 322b de3d
000002c0: 18c9 d5bc d5b6 aebd 77f2 0e3e 8ba3 113e
000002d0: c175 14be 10c1 933d 5675 c83d 0393 83bd
000002e0: b7f5 97bd c2e9 da3d f8c4 fcbd 5978 bebd
000002f0: a295 16be c0cb 75bc e031 00bc 3879 523d
00000300: e4a1 083d 68a7 c33d 40f2 e0bc 38ca acbd
00000310: 40f1 b5bc 8d3c 093e f4c3 e7bd 3473 243d
00000320: fa1a 993d a04e 063c a0c8 a4bd 86ae f03d
00000330: 31a9 b6bd 9b94 083e 6ef4 b9bd 7c85 b53d
00000340: bb1e 153e 72c0 8ebd 4767 103e 66a3 ff3d
00000350: 7768 eebd e862 aabd 8dec 10be e6c5 f73d
00000360: 20c1 a0bb 4486 7e3d 9e57 d53d d5cc 96bd
00000370: 188f d2bc ea03 b03d 1299 11be 2df3 07be
00000380: 4b63 0cbe c883 7a3d 2198 f9bd 4e05 37bd
00000390: eef5 b83d b254 62bd 7132 103e 39ea 113e
000003a0: ef6b 043e 382a cbbc dcdc b73d 4894 903d
000003b0: 80c0 b73d 78c7 d6bc eae4 2dbd e036 333c
000003c0: a059 e4bb 0221 4fbd 6f17 06be 5237 14be
000003d0: e7b6 003e 289f 59bd 19b5 c0bd ecd2 a5bd
000003e0: 7240 fbbd 3a16 b13d 4894 103d d52c 123e
000003f0: 26cb e4bd 383f 19be 8320 abbd b744 1bbe
0.10931991 -0.1098896 -0.06957322 0.14218508 0.04171194 0.14048232 -0.13552922 -0.062353477
-0.14302003 0.06953809 -0.008606374 -0.012522206 0.026579276 -0.070772454 0.038660526 -0.109672904
-0.13188718 0.0056920797 -0.068758644 0.015790328 -0.12072079 -0.02295193 0.07874724 -0.063026816
-0.14815657 0.058722243 -0.02517268 -0.012108266 0.047517464 -0.032058544 0.1018184 0.12702139
0.06070976 0.07152611 0.07431252 -0.03233949 -0.15046415 0.053385496 0.040106356 -0.1391937
-0.12644085 -0.07445438 0.09513213 -0.023276001 -0.13918307 0.021621957 -0.0013011098 0.054506764
-0.08340453 -0.10382059 -0.06602565 0.016147584 -0.015584618 0.1520259 0.042513847 0.14364122
0.0023554116 -0.10781005 0.14602648 0.094628975 0.1304697 0.04501544 0.037406653 0.018173441
-0.08181007 -0.007536143 0.12330504 0.04046519 -0.029773355 0.13369249 -0.09202053 0.03358546
-0.006133288 0.113160804 -0.03752575 0.005218908 0.111220405 -0.09394652 0.11279021 -0.03856747
0.069360554 0.13964908 0.02106592 -0.04744588 0.034611523 -0.09388718 -0.060187533 0.06713125
-0.025630906 0.071746945 -0.12169969 -0.0455056 -0.106685065 0.018741518 -0.040820085 -0.10137805
0.068755984 0.06960538 0.09225389 -0.11132432 0.13293843 0.024837673 -0.082895644 -0.0069801956
0.07621004 0.10827161 0.048688903 -0.017298982 -0.025649503 -0.043629326 0.040636063 0.010994196
-0.09378247 -0.14852725 -0.09149381 -0.046656124 0.12699594 0.13302867 0.10965492 -0.05248826
-0.1265651 0.043251723 0.03038399 0.10585557 0.13246293 -0.04323098 0.09535062 -0.027219191
-0.12881078 0.05978395 -0.09843683 -0.098267704 0.010709882 0.044986993 -0.0028357655 -0.008939907
-0.058781892 0.12974273 -0.099314064 0.08688131 -0.018957347 0.11892019 -0.1301997 0.12577443
-0.08253546 -0.1363476 0.087363884 -0.060778126 0.014784485 0.122593984 0.041741416 -0.12052924
0.10164656 0.1363988 -0.12991416 -0.10565926 -0.095784284 0.030095965 -0.08830135 -0.146519
0.019395694 0.022987455 -0.1484183 -0.15263575 -0.07459108 -0.11243254 -0.12970862 -0.048292466
0.033892184 -0.11923372 0.1425101 0.07085283 -0.13828847 0.017394975 0.12873979 0.108480826
-0.026096866 -0.08530966 0.1395968 0.14222543 -0.14498045 0.07214558 0.09788005 -0.06424525
-0.07419913 0.10689117 -0.12342256 -0.09300298 -0.14705518 -0.015002191 -0.007824391 0.051385134
0.033357516 0.095534146 -0.027459264 -0.08437008 -0.022209764 0.13402005 -0.11316672 0.04014893
0.074758485 0.008197457 -0.08046079 0.11752038 -0.089189894 0.13337938 -0.090798244 0.08863351
0.14562504 -0.069703 0.14101897 0.12482338 -0.11641019 -0.08319646 -0.14152737 0.12098293
-0.004905835 0.062139764 0.10417102 -0.07363287 -0.025702998 0.085944965 -0.14218548 -0.13276358
-0.13709752 0.061160833 -0.121872194 -0.044682793 0.09031282 -0.055256553 0.14081742 0.14249505
0.12931798 -0.024800405 0.089776725 0.070595324 0.08972263 -0.026218161 -0.042454638 0.010938376
-0.006968692 -0.050568588 -0.13094877 -0.14474228 0.12569772 -0.0531303 -0.09409542 -0.08096871
-0.12268151 0.086468175 0.035297662 0.14274915 -0.1117156 -0.14965522 -0.083558105 -0.15162931

net.2.bias f4 [128]
00000000: 0000 0000 0000 0000 0000 0000 0000 0000
00000010: 0000 0000 0000 0000 0000 0000 0000 0000
00000020: 0000 0000 0000 0000 0000 0000 0000 0000
00000030: 0000 0000 0000 0000 0000 0000 0000 0000
00000040: 0000 0000 0000 0000 0000 0000 0000 0000
00000050: 0000 0000 0000 0000 0000 0000 0000 0000
00000060: 0000 0000 0000 0000 0000 0000 0000 0000
00000070: 0000 0000 0000 0000 0000 0000 0000 0000
00000080: 0000 0000 0000 0000 0000 0000 0000 0000
00000090: 0000 0000 0000 0000 0000 0000 0000 0000
000000a0: 0000 0000 0000 0000 0000 0000 0000 0000
000000b0: 0000 0000 0000 0000 0000 0000 0000 0000
000000c0: 0000 0000 0000 0000 0000 0000 0000 0000
000000d0: 0000 0000 0000 0000 0000 0000 0000 0000
000000e0: 0000 0000 0000 0000 0000 0000 0000 0000
000000f0: 0000 0000 0000 0000 0000 0000 0000 0000
00000100: 0000 0000 0000 0000 0000 0000 0000 0000
00000110: 0000 0000 0000 0000 0000 0000 0000 0000
00000120: 0000 0000 0000 0000 0000 0000 0000 0000
00000130: 0000 0000 0000 0000 0000 0000 0000 0000
00000140: 0000 0000 0000 0000 0000 0000 0000 0000
00000150: 0000 0000 0000 0000 0000 0000 0000 0000
00000160: 0000 0000 0000 0000 0000 0000 0000 0000
00000170: 0000 0000 0000 0000 0000 0000 0000 0000
00000180: 0000 0000 0000 0000 0000 0000 0000 0000
00000190: 0000 0000 0000 0000 0000 0000 0000 0000
000001a0: 0000 0000 0000 0000 0000 0000 0000 0000
000001b0: 0000 0000 0000 0000 0000 0000 0000 0000
000001c0: 0000 0000 0000 0000 0000 0000 0000 0000
000001d0: 0000 0000 0000 0000 0000 0000 0000 0000
000001e0: 0000 0000 0000 0000 0000 0000 0000 0000
000001f0: 0000 0000 0000 0000 0000 0000 0000 0000
0.0 0.0 0.0 0.0 0.0 0.0 0.0 0.0
0.0 0.0 0.0 0.0 0.0 0.0 0.0 0.0
0.0 0.0 0.0 0.0 0.0 0.0 0.0 0.0
0.0 0.0 0.0 0.0 0.0 0.0 0.0 0.0
0.0 0.0 0.0 0.0 0.0 0.0 0.0 0.0
0.0 0.0 0.0 0.0 0.0 0.0 0.0 0.0
0.0 0.0 0.0 0.0 0.0 0.0 0.0 0.0
0.0 0.0 0.0 0.0 0.0 0.0 0.0 0.0
0.0 0.0 0.0 0.0 0.0 0.0 0.0 0.0
0.0 0.0 0.0 0.0 0.0 0.0 0.0 0.0
0.0 0.0 0.0 0.0 0.0 0.0 0.0 0.0
0.0 0.0 0.0 0.0 0.0 0.0 0.0 0.0
0.0 0.0 0.0 0.0 0.0 0.0 0.0 0.0
0.0 0.0 0.0 0.0 0.0 0.0 0.0 0.0
0.0 0.0 0.0 0.0 0.0 0.0 0.0 0.0
0.0 0.0 0.0 0.0 0.0 0.0 0.0 0.0

net.4.weight f4 [128, 128]
00000000: 7069 363d 458d 033e e667 e73d d1f0 dcbd
00000010: d810 853d effe 9fbd 30b2 b33d b544 b7bd
00000020: 0a3b 83bd 4c8b c23d 4825 203d c1a0 babd
00000030: 04ab 0bbe 00d8 db3b c1f0 153e ec86 fbbc
00000040: 9bff 023e 1cfa f6bc 2eb0 debd 3d9d 113e
00000050: 00fb 17be c85f 6bbd 60cf 16bc 3e7d c9bd
00000060: 107a 6b3d c343 0b3e 91b2 0cbe 6044 b13b
00000070: 42f6 ecbd 96fa ea3d 2e0d 9b3d 30ee ad3c
00000080: 58f8 073d f3d0 013e 40b8 603c 00c1 573b
00000090: 7ce0 0e3d b31c 9abd a063 9abc 1961 bdbd
000000a0: 288f bbbd 228f e13d bcf8 0c3d d284 923d
000000b0: 69b0 003e 8c97 6b3d e2c9 64bd e0da b9bc
000000c0: b463 0cbe a630 da3d f8f7 ea3c 18a6 63bd
000000d0: 1869 fe3c 99a3 043e 629d 823d 209f 1a3d
000000e0: ae57 e23d 40cc 92bc 4ab2 d83d 08ce e4bd
000000f0: 4086 a8bb 541e febd ce73 af3d 3ad3 df3d
00000100: 04c3 e3bd 2cb8 d7bd 964c f13d 5292 cd3d
00000110: 9643 0ebd eed0 883d d048 34bc 744f 103d
00000120: 4406 023d 0054 713b 1c41 013d e87b cebc
00000130: cb9a 85bd c059 393c 800d 11bc cca9 1bbd
00000140: 53b4 02be b2e5 f2bd 61ad 18be c800 c83c
00000150: a7b7 1a3e 261d cbbd 2c5c dcbd 420b c93d
00000160: a7e2 edbd 72b4 7ebd 08d2 fa3c 7f9a bcbd
00000170: b2f9 8d3d b054 9c3c b283 d03d ce7d f2bd
00000180: 0061 e7bd 663d 8bbd 8087 c6bb be7c 08be
00000190: ba77 db3d 9ab4 8d3d 0ca9 5b3d 7663 ac3d
000001a0: 73c2 033e fccc 5b3d 67b5 1a3e f9f8 1b3e
000001b0: 2d4c 133e 49bd a2bd 25e8 073e e0b2 cabd
000001c0: 15b3 043e f61b 2fbd ae09 01be d75d b0bd
000001d0: cb85 0e3e 7858 2fbd 10f3 9d3d ce87 0ebe
000001e0: 3d86 9fbd 0ffa 183e 587f 97bc 2d64 03be
000001f0: d611 993d 082e 10be f0d1 0ebc d5c0 023e
00000200: 0035 cebc c8e8 e33c 98f4 6d3d f40d 863d
00000210: b302 99bd f8cd c33c c0f0 11bd 38a1 b1bd
00000220: 1fe2 02be 884c 54bd ee68 d13d 180b da3c
00000230: 700f 973d f6a2 9b3d a026 943d c35d 1b3e
00000240: 589a f73c 4831 9c3c b289 cebd 003d 80bd
00000250: 6ca7 6cbd 0060 d7bb 80d3 ef3b b1f7 8dbd
00000260: e173 babd 4cd3 01be bce2 5f3d e24b 843d
00000270: 8fdb b1bd 26cf 53bd 9ea5 ee3d c438 e5bd
00000280: 9e16 ddbd 1270 f63d 38e6 a6bc df53 0b3e
00000290: ccf0 2f3d b2b0 cc3d 9805 73bd 943b 503d
000002a0: 2061 9dbc 1cae b23d 0c5a 00be 78f5 153d
000002b0: c0d5 5abc 206a 96bd 581f 1abe 0257 05be
000002c0: 0099 143b 12c4 be3d c27b 18bd 20f4 b83d
000002d0: dedf e23d c048 703d 30fd d0bc 7057 013c
000002e0: b67d c13d 1048 f03c d80c 82bc def8 06be
000002f0: 8a1b adbd 0ad4 a33d f178 11be dbab 133e
00000300: 1061 8c3c 2aa6 ce3d 606f f73c 2d74 183e
00000310: e08b d0bb d1f0 f5bd fe0b ad3d 0a0f 10bd
00000320: 50f5 ad3d 9c42 07be 7803 8c3d 4a34 a03d
00000330: 3596 003e 202e 19be 1aae d73d 15f6 113e
00000340: 7a6b a43d 1887 a03d 950f 84bd 4cdd dcbd
00000350: f019 29bc 4173 013e 9c98 3d3d d064 423d
00000360: 57b9 b1bd f4a2 09bd dc45 11be 500b 17bc
00000370: d0f8 afbc 60a4 8ebc bc5b 153d 4024 d03b
00000380: dc18 14be f81d e43c 7ad3 c93d 9064 ccbc
00000390: f8a3 bbbd 0a27 e73d 99ee 013e a44d 993d
000003a0: 1679 883d 0594 19be 646c 023d 4acd a93d
000003b0: 176c 103e 408a 053b a63d bf3d 8451 aa3d
000003c0: 40d3 b6bc 2c21 17bd 56fc 33bd 77e3 0c3e
000003d0: 80d9 523b 1036 703d 2707 0b3e 862c 81bd
000003e0: 48fa 6a3d 7a5f ccbd daa5 c73d 77c0 003e
000003f0: ce38 c53d c65a dc3d 6929 00be c5d2 dabd
0.044534147 0.12846859 0.11299114 -0.107881196 0.06497353 -0.078122966 0.08774221 -0.08948652
-0.06407745 0.09499225 0.039098054 -0.091126926 -0.13639456 0.006709099 0.14642622 -0.030703984
0.12792818 -0.030148558 -0.10873447 0.14220138 -0.14841843 -0.05746439 -0.0092047155 -0.09838341
0.057489455 0.13600068 -0.13739993 0.0054097623 -0.115704075 0.11473577 0.07570873 0.02123174
0.033195823 0.12677364 0.013715804 0.0032921433 0.034882054 -0.07525005 -0.018846333 -0.092470355
-0.09158164 0.110136285 0.0344169 0.0715424 0.12567295 0.057517573 -0.055856593 -0.022687376
-0.13709909 0.1065381 0.028682694 -0.05557832 0.031055972 0.12953033 0.06377675 0.03774941
0.1105188 -0.01791966 0.10580881 -0.1117211 -0.005142957 -0.124081284 0.0856701 0.1092896
-0.11121181 -0.10533175 0.11782186 0.10037674 -0.034732424 0.06680475 -0.011003688 0.035232022
0.031744257 0.003682375 0.031556234 -0.025205567 -0.06523665 0.011312902 -0.008853316 -0.038003728
-0.127641 -0.11860217 -0.14909889 0.024414435 0.1510912 -0.09917669 -0.10759768 0.098166004
-0.11615496 -0.062183805 0.030617729 -0.09209155 0.06932391 0.01908335 0.10181369 -0.118404016
-0.11297798 -0.0679882 -0.0060586333 -0.13328835 0.107161954 0.06919213 0.053628013 0.08417408
0.12867145 0.053662285 0.15108262 0.15231694 0.14384528 -0.079462595 0.1327215 -0.09897399
0.1295894 -0.042751275 -0.12601349 -0.086116485 0.13918225 -0.04280898 0.07712376 -0.13918993
-0.07789276 0.1493914 -0.01849334 -0.12831183 0.07474105 -0.1408006 -0.008717045 0.12768872
-0.025171757 0.02782096 0.05809459 0.0654563 -0.07471218 0.023901924 -0.035629988 -0.08673328
-0.12781571 -0.0518308 0.10225092 0.026616618 0.07375991 0.07599442 0.0723393 0.15172486
0.030224964 0.019066468 -0.10084857 -0.06261635 -0.057776853 -0.0065727234 0.007318914 -0.06932009
-0.091041334 -0.1267826 0.05465959 0.06459786 -0.086844556 -0.051711224 0.11652683 -0.11192468
-0.107953295 0.120330945 -0.020373449 0.13606213 0.04295425 0.099946395 -0.059331506 0.050838068
-0.019211352 0.08724615 -0.1253435 0.03661105 -0.013356626 -0.073444605 -0.15051019 -0.13021472
0.0022674203 0.09314741 -0.0372274 0.09030938 0.110778555 0.05866313 -0.025511354 0.007894382
0.094478056 0.029331237 -0.015875265 -0.13180873 -0.08452518 0.079994276 -0.14206292 0.14421026
0.017136127 0.10090287 0.030204475 0.14888068 -0.0063643306 -0.12008823 0.08449553 -0.035170592
0.08494055 -0.13209003 0.06836599 0.07822473 0.125573 -0.14959002 0.10531254 0.14254029
0.08028312 0.07838267 -0.064482845 -0.107843965 -0.010321125 0.12641622 0.046288118 0.047459424
-0.08677929 -0.03360267 -0.14186805 -0.009219006 -0.021480948 -0.017412364 0.036464438 0.0063519776
-0.14462608 0.027846321 0.09854789 -0.024950296 -0.09162134 0.11286743 0.12688674 0.07485512
0.0666372 -0.14997871 0.03184165 0.08291109 0.14103733 0.0020376593 0.093379304 0.08316329
-0.022317529 -0.03689687 -0.04394182 0.13758646 0.0032173097 0.058645308 0.13576947 -0.0630732
0.057367593 -0.09979148 0.097484306 0.1257342 0.09629975 0.10759501 -0.12515797 -0.10684732

net.4.bias f4 [128]
00000000: 0000 0000 0000 0000 0000 0000 0000 0000
00000010: 0000 0000 0000 0000 0000 0000 0000 0000
00000020: 0000 0000 0000 0000 0000 0000 0000 0000
00000030: 0000 0000 0000 0000 0000 0000 0000 0000
00000040: 0000 0000 0000 0000 0000 0000 0000 0000
00000050: 0000 0000 0000 0000 0000 0000 0000 0000
00000060: 0000 0000 0000 0000 0000 0000 0000 0000
00000070: 0000 0000 0000 0000 0000 0000 0000 0000
00000080: 0000 0000 0000 0000 0000 0000 0000 0000
00000090: 0000 0000 0000 0000 0000 0000 0000 0000
000000a0: 0000 0000 0000 0000 0000 0000 0000 0000
000000b0: 0000 0000 0000 0000 0000 0000 0000 0000
000000c0: 0000 0000 0000 0000 0000 0000 0000 0000
000000d0: 0000 0000 0000 0000 0000 0000 0000 0000
000000e0: 0000 0000 0000 0000 0000 0000 0000 0000
000000f0: 0000 0000 0000 0000 0000 0000 0000 0000
00000100: 0000 0000 0000 0000 0000 0000 0000 0000
00000110: 0000 0000 0000 0000 0000 0000 0000 0000
00000120: 0000 0000 0000 0000 0000 0000 0000 0000
00000130: 0000 0000 0000 0000 0000 0000 0000 0000
00000140: 0000 0000 0000 0000 0000 0000 0000 0000
00000150: 0000 0000 0000 0000 0000 0000 0000 0000
00000160: 0000 0000 0000 0000 0000 0000 0000 0000
00000170: 0000 0000 0000 0000 0000 0000 0000 0000
00000180: 0000 0000 0000 0000 0000 0000 0000 0000
00000190: 0000 0000 0000 0000 0000 0000 0000 0000
000001a0: 0000 0000 0000 0000 0000 0000 0000 0000
000001b0: 0000 0000 0000 0000 0000 0000 0000 0000
000001c0: 0000 0000 0000 0000 0000 0000 0000 0000
000001d0: 0000 0000 0000 0000 0000 0000 0000 0000
000001e0: 0000 0000 0000 0000 0000 0000 0000 0000
000001f0: 0000 0000 0000 0000 0000 0000 0000 0000
0.0 0.0 0.0 0.0 0.0 0.0 0.0 0.0
0.0 0.0 0.0 0.0 0.0 0.0 0.0 0.0
0.0 0.0 0.0 0.0 0.0 0.0 0.0 0.0
0.0 0.0 0.0 0.0 0.0 0.0 0.0 0.0
0.0 0.0 0.0 0.0 0.0 0.0 0.0 0.0
0.0 0.0 0.0 0.0 0.0 0.0 0.0 0.0
0.0 0.0 0.0 0.0 0.0 0.0 0.0 0.0
0.0 0.0 0.0 0.0 0.0 0.0 0.0 0.0
0.0 0.0 0.0 0.0 0.0 0.0 0.0 0.0
0.0 0.0 0.0 0.0 0.0 0.0 0.0 0.0
0.0 0.0 0.0 0.0 0.0 0.0 0.0 0.0
0.0 0.0 0.0 0.0 0.0 0.0 0.0 0.0
0.0 0.0 0.0 0.0 0.0 0.0 0.0 0.0
0.0 0.0 0.0 0.0 0.0 0.0 0.0 0.0
0.0 0.0 0.0 0.0 0.0 0.0 0.0 0.0
0.0 0.0 0.0 0.0 0.0 0.0 0.0 0.0

net.6.weight f4 [128, 128]
00000000: 1224 fd3d c896 fcbc c065 953c f1bc 043e
00000010: b559 b7bd 1e0d b13d c03c ea3b f13e 033e
00000020: 98e3 a6bc 77ac e8bd 3ddf a7bd a048 e5bc
00000030: c36f 0e3e 00f4 be39 2fba e5bd be46 fdbd
00000040: 9ab5 c73d 5094 a13d a0c4 cc3c 13ad 053e
00000050: e6cf 01be 9b5a 0cbe bd7b 1c3e 8ed2 06be
00000060: 29a1 0abe 61fe d1bd 08b8 bdbc ec3f 303d
00000070: 1c28 083d 3c81 0fbd d888 dc3c 3018 bcbd
00000080: efac 0d3e 90e2 febd 40a0 6cbb 70e8 5fbc
00000090: 523e 80bd 389c 2b3d daef d23d a08a 09be
000000a0: cda4 07be 9d43 003e c069 aa3d b88c 0fbd
000000b0: 0055 f63b 01ab 00be 001c c339 ace2 493d
000000c0: 9a4c 863d 9d01 09be 08f8 91bd eca8 313d
000000d0: 7a56 8dbd bd41 cbbd be83 be3d b254 36bd
000000e0: d5a5 1abe 71b3 00be c0ac 7a3c 34ad 74bd
000000f0: deac e7bd c02c 8fbb 7696 a8bd 24ba 913d
00000100: ee60 78bd 7039 e83c e0d3 c1bc 249a 3c3d
00000110: 22df 883d f0d6 10be 7798 cabd 66ae 41bd
00000120: 9e9c e93d 219e afbd aca5 283d 1114 02be
00000130: 952f 02be 8e14 ab3d 4edf e13d 7441 07be
00000140: 6dfa 033e 5722 a5bd 007a 10bb 7edc 803d
00000150: 4b48 99bd 9076 4cbc de28 be3d 1322 133e
00000160: 42b9 d1bd e065 263c d482 833d fe8b 0fbe
00000170: aa89 d2bd f011 52bc b65a d13d f8c4 a2bc
00000180: dcd1 763d 5bee 0c3e 1cc8 d1bd c0ab 993b
00000190: 88a7 003d 48eb fcbc 36ee d33d 0869 383d
000001a0: c268 b53d 9238 ee3d 6050 4a3c 00d4 ecba
000001b0: aeb5 853d 989b 973c 2785 113e 222e 21bd
000001c0: bc8f 4a3d 16ea 03bd 6c04 2bbd d84b ac3c
000001d0: 40de 273c e0b6 f8bb 583c b2bc b64f 4cbd
000001e0: 4977 9fbd 61e9 153e e14d 9cbd b077 3c3c
000001f0: 788c 35bd 3858 a7bd 1f16 f0bd 9add f7bd
00000200: 0036 6c3d cccc a03d 8060 c93a 203b f3bd
00000210: 22eb ce3d 5cbd 653d 6091 06bd 4eb7 9f3d
00000220: 2b73 0c3e 313b 83bd df40 bcbd 3eb0 e5bd
00000230: 880c d5bc 0475 4bbd 804b c83c 7e56 98bd
00000240: d589 0fbe f05f 6b3c ac04 213d d0d3 533d
00000250: bca2 613d e0c3 853b f22c b43d 43cb 0f3e
00000260: c028 103b 9889 4b3d e3d2 acbd e39c a0bd
00000270: 2833 33bd 5afc d4bd 60bd 7a3d 9766 073e
00000280: e85a dbbd 9960 89bd 3b4d 133e 48c2 a6bc
00000290: 585e a53d f0cd df3c 72c7 babd 88e5 cd3c
000002a0: 8e2a 13be c036 93bd 2cbd 15be 7fd6 03be
000002b0: 4eac d63d fe97 0abe 4c85 56bd d404 ffbd
000002c0: dacb 0bbe c05e 89bc 9fef 0cbe 5000 5c3d
000002d0: 1b7d d9bd fe85 a1bd ec81 383d e059 d13c
000002e0: f0f4 9bbc 3883 393d 4056 81bc 20f8 fcbb
000002f0: fcd1 ad3d f24e f1bd b448 2c3d 40a5 8a3d
00000300: 8c4a 0bbe 56c1 e23d 0013 5fbb a763 123e
00000310: e6f5 ec3d 60e2 8e3b 5024 91bd 6416 983d
00000320: 6e46 dabd 1499 f8bd 0045 b33d 7e63 13be
00000330: 1439 fdbd 60c3 28bd a8f2 09bd b6c4 71bd
00000340: fc87 0abd 32ee a53d 785a e0bd 9ee2 b1bd
00000350: e620 06be 21c1 153e 68c0 bf3d f9cf a2bd
00000360: 04d2 34bd 58b5 debc ad69 143e 203d 853d
00000370: 1e1e 3cbd 84d4 c8bd d046 c8bc ba46 fc3d
00000380: 28f9 f4bd 025f 6ebd 70ad cb3c 8038 0b3d
00000390: fb5d 12be 574c 0b3e 8483 58bd 1f60 0cbe
000003a0: 2830 b03d 1016 5dbd 318a a1bd c081 c93b
000003b0: 00a0 ec37 aced 803d 5d2e 043e 38a5 8ebc
000003c0: b212 f2bd 747a 8cbd 4095 2e3d 3230 d53d
000003d0: ceac e4bd 2403 243d 000c 13b9 c9e8 143e
000003e0: 8bef 0a3e e0a4 a43b 70cc a9bd 1bb7 0e3e
000003f0: 71dd 93bd d2f6 06bd ae5c e83d 59d9 b1bd
0.123603955 -0.030833617 0.018236995 0.129627 -0.08952657 0.0864508 0.0071483552 0.12816979
-0.020372197 -0.1136102 -0.08196876 -0.027988732 0.13909821 0.00036421418 -0.11217152 -0.123670086
0.097514346 0.078896165 0.024996102 0.13054304 -0.12676963 -0.13706438 0.15281577 -0.13166258
-0.1353804 -0.10253597 -0.023159042 0.04302971 0.033241376 -0.035035357 0.026920721 -0.09184301
0.138355 -0.12445557 -0.0036106259 -0.013666257 -0.06261887 0.04189703 0.10299654 -0.13431787
-0.1324646 0.12525792 0.083209515 -0.03504631 0.007517457 -0.12565233 0.0003721416 0.049288437
0.06557579 -0.13379522 -0.07127386 0.043373987 -0.0690126 -0.09924648 0.093024716 -0.044514365
-0.15102322 -0.12568451 0.015299976 -0.059735492 -0.11312269 -0.0043693483 -0.08231823 0.07115582
-0.060639314 0.0283477 -0.0236606 0.046045437 0.06683184 -0.14144492 -0.098923616 -0.04728546
0.114068255 -0.085750826 0.041173622 -0.12702967 -0.12713464 0.0835353 0.1102892 -0.13208562
0.12888499 -0.080631904 -0.0022045374 0.062920555 -0.07484492 -0.012479439 0.092851385 0.14368467
-0.10240413 0.010156125 0.06421438 -0.14018247 -0.102801636 -0.012821659 0.1022238 -0.019869313
0.06025873 0.137628 -0.10243246 0.0046896636 0.03140977 -0.03087391 0.103481695 0.04502204
0.088578716 0.11631884 0.012348264 -0.0018068552 0.06528793 0.01850681 0.1421095 -0.039350636
0.049453482 -0.032205664 -0.041752264 0.021032259 0.01024586 -0.00759016 -0.02175729 -0.049880706
-0.07786424 0.14639808 -0.07632042 0.011503145 -0.044323415 -0.08171123 -0.11722969 -0.12102814
0.057668686 0.07851562 0.0015363842 -0.118765116 0.10103442 0.05608879 -0.032853484 0.077986345
0.13715808 -0.06407774 -0.09192061 -0.11215256 -0.026006952 -0.04967214 0.024450064 -0.07438372
-0.14017422 0.014366135 0.039311096 0.051715672 0.055086836 0.004082188 0.08797635 0.14042382
0.0021996945 0.049691767 -0.08438661 -0.07842424 -0.04374996 -0.10399695 0.06121576 0.13222729
-0.10710698 -0.06707878 0.1438493 -0.020356312 0.08074635 0.027319878 -0.091200724 0.025133863
-0.14371702 -0.07188177 -0.14622945 -0.12874793 0.10482083 -0.13534543 -0.052373216 -0.12452093
-0.13651982 -0.016768813 -0.13763283 0.053711236 -0.10619565 -0.07886885 0.04504578 0.025555551
-0.019037694 0.045291156 -0.015788198 -0.0077200085 0.08487317 -0.11782636 0.042061523 0.067698
-0.13602656 0.11072032 -0.0034038424 0.14295827 0.11570339 0.004360482 -0.07087004 0.07426146
-0.10657965 -0.12138572 0.08753395 -0.14393422 -0.123644024 -0.04120195 -0.03367868 -0.05902549
-0.03382109 0.08102073 -0.109547555 -0.08685802 -0.13098487 0.14624454 0.093628705 -0.07949824
-0.0441456 -0.02718608 0.14493437 0.06505799 -0.04592716 -0.09806159 -0.024447829 0.123181775
-0.11961585 -0.058196075 0.024862975 0.03398943 -0.14293663 0.1360334 -0.052859798 -0.13708542
0.08602935 -0.05397612 -0.07887686 0.0061495006 2.8207898e-05 0.06295332 0.12908311 -0.017412767
-0.11819972 -0.068592936 0.042622805 0.10409583 -0.111657724 0.040042058 -0.00014023483 0.14541925
0.13567941 0.0050245374 -0.082909465 0.13937037 -0.07219971 -0.03295023 0.11345802 -0.08684034

net.6.bias f4 [128]
00000000: 0000 0000 0000 0000 0000 0000 0000 0000
00000010: 0000 0000 0000 0000 0000 0000 0000 0000
00000020: 0000 0000 0000 0000 0000 0000 0000 0000
00000030: 0000 0000 0000 0000 0000 0000 0000 0000
00000040: 0000 0000 0000 0000 0000 0000 0000 0000
00000050: 0000 0000 0000 0000 0000 0000 0000 0000
00000060: 0000 0000 0000 0000 0000 0000 0000 0000
00000070: 0000 0000 0000 0000 0000 0000 0000 0000
00000080: 0000 0000 0000 0000 0000 0000 0000 0000
00000090: 0000 0000 0000 0000 0000 0000 0000 0000
000000a0: 0000 0000 0000 0000 0000 0000 0000 0000
000000b0: 0000 0000 0000 0000 0000 0000 0000 0000
000000c0: 0000 0000 0000 0000 0000 0000 0000 0000
000000d0: 0000 0000 0000 0000 0000 0000 0000 0000
000000e0: 0000 0000 0000 0000 0000 0000 0000 0000
000000f0: 0000 0000 0000 0000 0000 0000 0000 0000
00000100: 0000 0000 0000 0000 0000 0000 0000 0000
00000110: 0000 0000 0000 0000 0000 0000 0000 0000
00000120: 0000 0000 0000 0000 0000 0000 0000 0000
00000130: 0000 0000 0000 0000 0000 0000 0000 0000
00000140: 0000 0000 0000 0000 0000 0000 0000 0000
00000150: 0000 0000 0000 0000 0000 0000 0000 0000
00000160: 0000 0000 0000 0000 0000 0000 0000 0000
00000170: 0000 0000 0000 0000 0000 0000 0000 0000
00000180: 0000 0000 0000 0000 0000 0000 0000 0000
00000190: 0000 0000 0000 0000 0000 0000 0000 0000
000001a0: 0000 0000 0000 0000 0000 0000 0000 0000
000001b0: 0000 0000 0000 0000 0000 0000 0000 0000
000001c0: 0000 0000 0000 0000 0000 0000 0000 0000
000001d0: 0000 0000 0000 0000 0000 0000 0000 0000
000001e0: 0000 0000 0000 0000 0000 0000 0000 0000
000001f0: 0000 0000 0000 0000 0000 0000 0000 0000
0.0 0.0 0.0 0.0 0.0 0.0 0.0 0.0
0.0 0.0 0.0 0.0 0.0 0.0 0.0 0.0
0.0 0.0 0.0 0.0 0.0 0.0 0.0 0.0
0.0 0.0 0.0 0.0 0.0 0.0 0.0 0.0
0.0 0.0 0.0 0.0 0.0 0.0 0.0 0.0
0.0 0.0 0.0 0.0 0.0 0.0 0.0 0.0
0.0 0.0 0.0 0.0 0.0 0.0 0.0 0.0
0.0 0.0 0.0 0.0 0.0 0.0 0.0 0.0
0.0 0.0 0.0 0.0 0.0 0.0 0.0 0.0
0.0 0.0 0.0 0.0 0.0 0.0 0.0 0.0
0.0 0.0 0.0 0.0 0.0 0.0 0.0 0.0
0.0 0.0 0.0 0.0 0.0 0.0 0.0 0.0
0.0 0.0 0.0 0.0 0.0 0.0 0.0 0.0
0.0 0.0 0.0 0.0 0.0 0.0 0.0 0.0
0.0 0.0 0.0 0.0 0.0 0.0 0.0 0.0
0.0 0.0 0.0 0.0 0.0 0.0 0.0 0.0

net.8.weight f4 [1, 128]
00000000: 485b 363e 064e 183e 96e4 533e a0f7 7abd
00000010: c052 49be a0ac 0c3e 522c 4a3e 062b 4cbe
00000020: 6d36 5abe a840 9e3d fe3e 0e3e 27f4 48be
00000030: faec 32be f875 b53d 1772 fdbd dc0f 09be
00000040: 4259 373e d074 72bd f2ae 2c3e b89c 1f3d
00000050: dcfc 9b3d 327d f0bd 2054 b6bb d489 08be
00000060: e45c 48bd d7fd d5bd c861 093e 2ee2 37be
00000070: c07a 71bd b4a3 a5bd 020f 003e 82e3 e7bd
00000080: f686 0cbe 97e2 40be 70b4 6f3d 5006 b7bd
00000090: 7ab0 353e ecb6 20be b03d 2a3c 6f11 44be
000000a0: a580 3ebe 36f7 d2bd 0083 c43b 76e3 143e
000000b0: 928f 233e 6608 a2bd 9aa3 2f3e 7e49 0c3e
000000c0: 9a2a 16be 3721 33be e28d 423e 7d0b 47be
000000d0: 8a99 303e 7c53 13bd daf3 05be 62ed 303e
000000e0: 0839 b2bc 0467 b63d 8ebf 393e fea7 26be
000000f0: d4ee b53d 3f06 4bbe 208e f03d 5373 5abe
00000100: 3040 003e 405f 363d 30c3 073e d410 ba3d
00000110: cedd 3b3e f603 8cbd 3c9d 9b3d ef32 3fbe
00000120: 0044 c23d 2476 52be 445e 1dbd 807e 03be
00000130: 2068 2cbe 6b3d e4bd 2000 103c 28fe a6bd
00000140: 6067 45bd 9087 073e 1066 4a3e c01f c23d
00000150: e2c6 1a3e 8031 cd3b 809a 9d3a 2852 c73c
00000160: 9c67 313e 9eb4 19be ec3c b43d b072 013e
00000170: a8d8 b13c ec51 343e d4cb 44be 5085 2f3d
00000180: 0e21 503e 9428 36be 0882 2dbe 5829 6e3d
00000190: 002a f4ba b272 0e3e e813 083e 90aa 863d
000001a0: c0e2 1a3d d8d7 74bd 207b 62bc 6024 14bc
000001b0: bb5c 3abe dc6d 15be c8bc c83d d095 263d
000001c0: 6890 94bc b610 e9bd 9058 153d ecfc 72bd
000001d0: 20dd 473d b65d 473e d880 2cbd 3840 3e3d
000001e0: d8ea 25bd 8a3e 163e c882 563d 1442 2e3e
000001f0: 9009 39bd d05c d13d 1efd 2bbe f85b 29be
0.17808259 0.14873514 0.20692667 -0.06127131 -0.19660473 0.13737726 0.1974347 -0.19938287
-0.21309824 0.07727176 0.13891217 -0.19624387 -0.17473212 0.088603914 -0.123752765 -0.13384956
0.17905143 -0.059193432 0.16863611 0.038967818 0.076165885 -0.11742629 -0.0055642277 -0.13333827
-0.048916712 -0.10448807 0.13416207 -0.17957374 -0.058954954 -0.080878645 0.12505725 -0.113226905
-0.13723359 -0.18836437 0.058521688 -0.08936751 0.17743102 -0.15694779 0.010390684 -0.19147275
-0.18603761 -0.10301058 0.0059970617 0.14539894 0.15972736 -0.07911758 0.17152253 0.1369991
-0.14664689 -0.17493139 0.18999436 -0.19437976 0.1724607 -0.03596829 -0.13081303 0.17278054
-0.02175571 0.089063674 0.18139479 -0.16275021 0.088834435 -0.19826601 0.11745858 -0.21333055
0.12524486 0.04452443 0.13258052 0.09085241 0.1834633 -0.06836693 0.075983495 -0.18671773
0.09485626 -0.2055288 -0.038419977 -0.12841225 -0.16836596 -0.11144527 0.008789092 -0.08153945
-0.04819429 0.13235307 0.19765496 0.09478712 0.1511493 0.0062620044 0.0012024194 0.024331167
0.1732468 -0.15010306 0.088006824 0.12641406 0.021709755 0.17609376 -0.1921838 0.042851746
0.2032511 -0.17788917 -0.16944134 0.058144897 -0.001862824 0.1391094 0.13288844 0.06575501
0.037813902 -0.059776157 -0.013823301 -0.009041876 -0.18199436 -0.1459269 0.09801632 0.040670216
-0.018135265 -0.113801405 0.036461413 -0.059323236 0.048794866 0.19469342 -0.042115062 0.046447963
-0.040507168 0.14672294 0.052370816 0.17017394 -0.045175135 0.10222781 -0.16795775 -0.1653899
