modelparameter/willie_lognormal8_2.pth (torch, 206743 bytes, 9 tensors)

net.0.weight f4 [128, 8]
000000 71 ac 67 3e f1 54 1a 3e ae 92 35 be be 46 f1 bc
       0.22624375 0.15071465 -0.17731735 -0.029452678
000010 9b 31 b4 3d 26 59 97 be cc dd aa 3d 42 bf e2 3d
       0.08798524 -0.29560202 0.08343086 0.11071636
000020 9b b9 cf bc 72 e1 35 be 3b f2 0e be a6 9a 16 be
       -0.025357058 -0.17761782 -0.13959591 -0.14707431
000030 eb 06 e7 bc 57 21 79 bd 9a 03 66 3d 41 9a 94 3d
       -0.028201541 -0.06082281 0.05615578 0.07255984
000040 b5 3e 0b 3e 37 5f 3c be 05 fb b6 3d 4a 03 00 be
       0.1359814 -0.18395697 0.08934597 -0.12501255
000050 30 5c 7a bd 72 17 40 3e 33 63 8c 3d 9c 08 06 3d
       -0.061123073 0.18758944 0.06854858 0.032723054
000060 7e 03 66 bd 3b 11 79 3d 0e 53 2b 3d 70 03 3d 3d
       -0.056155674 0.060807448 0.041827254 0.046145856
000070 cf 12 28 be 13 c8 71 bd 94 55 a9 3b 01 be db ba
       -0.16413425 -0.059028696 0.0051676724 -0.0016765
000080 c4 cc 10 3d 1a 14 67 3e d0 19 97 3c 82 e6 bb 3d
       0.03535153 0.22566262 0.018444926 0.09174825
000090 58 d4 56 3d 9b 25 7d be e9 9e b9 bc 00 57 4e be
       0.0524486 -0.24721377 -0.022658782 -0.20150375
0000a0 7f 35 8f 3e 98 5d 05 be 2c 28 08 3d 9d 9d b5 bd
       0.27970502 -0.13023984 0.033241436 -0.08867953
0000b0 c9 53 56 be ae 30 16 bd 70 10 94 3c 82 b7 e9 3c
       -0.20930399 -0.03666752 0.018074244 0.028529886
0000c0 d8 7e 36 3d 80 5b 86 3e b9 bc a9 be 37 e8 92 3e
       0.04455456 0.26241684 -0.33151796 0.2869279
0000d0 01 78 52 3d ca 2d 26 3d d5 c5 53 be 8c c9 01 be
       0.051383976 0.04057101 -0.20680936 -0.1267454
0000e0 fa 67 86 3d 95 e5 52 bd 21 9c ae be 0a 59 da bd
       0.06562801 -0.051488478 -0.34103492 -0.10661514
0000f0 48 91 b4 3c 23 8b 17 3e 50 f1 d7 3d cb f8 a5 3c
       0.022041932 0.1479917 0.105440736 0.020260235
000100 78 19 92 bd 6b 0d 6d 3e 66 e7 3f 3d f6 e0 1e be
       -0.07133764 0.2314965 0.046851538 -0.15515503
000110 c3 39 c1 bd 6b bb 8a 3d 93 10 83 3e dd 92 5c be
       -0.09434845 0.067740284 0.25598583 -0.21540399
000120 06 db 9b bc 50 55 81 3c b9 49 45 3c 96 4d 3c bd
       -0.019025337 0.01578775 0.012041503 -0.04597243
000130 58 68 21 bd 11 64 5a bd c9 62 0c be 66 a7 97 3d
       -0.03940615 -0.053318087 -0.13709559 0.074049756
000140 be 20 e4 bd 21 99 f9 bc ef 47 66 3d 51 9d f7 3d
       -0.111390576 -0.030468525 0.056220945 0.120905526
000150 f8 8b 10 3e 5f 23 bf 3d 5f f2 57 be be cd 40 bd
       0.14115894 0.093329184 -0.21088551 -0.04707121
000160 90 fa bf bd 47 2e 38 3e 19 c9 8a 3e 4d af 8c 3d
       -0.09373963 0.17986403 0.2710655 0.068693735
000170 59 4b 5f be 19 ac 52 bc fc e7 90 bd c6 37 97 bc
       -0.21806087 -0.012858414 -0.070754975 -0.018459212
000180 73 ab dc bd 69 f5 40 3e 75 ab 73 bc 3d 8f 39 be
       -0.10774889 0.18843617 -0.0148724215 -0.18121047
000190 b0 b3 e1 bb b9 1e 98 3c ba 5f f1 bd 50 19 7c 3e
       -0.0068878755 0.018569337 -0.117858365 0.24619031
0001a0 48 7c 21 bd 09 17 43 bd 19 68 2f be e4 3e 3e bd
       -0.039425164 -0.04762939 -0.17129554 -0.046446696
0001b0 89 39 06 be c0 d8 c7 3e eb 2a 72 bd 4c ed 04 be
       -0.13107885 0.39032555 -0.05912296 -0.12981147
0001c0 8d 1a 94 3d 9a 96 82 be 24 4b 63 3d e5 bd 15 bd
       0.07231627 -0.25505525 0.05549158 -0.03655805
0001d0 a9 c3 2d 3e 40 18 74 3e b3 57 d0 3a 82 47 71 be
       0.1696917 0.23837376 0.0015895277 -0.23562434
0001e0 7b 10 0f be e9 71 98 3c 37 fa ea bd 5d 95 e2 3d
       -0.1397113 0.018609004 -0.11473506 0.11063645
0001f0 80 1a ca 3c d9 00 8d 3d 97 ff c9 bd 84 33 98 3e
       0.02467084 0.06884927 -0.09863203 0.29726803
000200 77 88 b8 3d 01 59 9d bd f0 5b 32 bd 7f c0 b3 3c
       0.090104036 -0.07682992 -0.04354471 0.021942375
000210 bc 59 07 3d 05 54 95 bd 70 49 4a 3e 22 8c fa bd
       0.03304456 -0.07291416 0.19754577 -0.122337595
000220 c8 a3 7f 3d d5 75 fb bd 52 a7 55 3e 85 04 f5 bd
       0.062412053 -0.12278334 0.20864609 -0.11963753
000230 48 78 4e bc 50 c5 70 be ea f1 08 be 72 4a a7 3d
       -0.0126019195 -0.23512769 -0.13373533 0.08168496
000240 1d 08 21 3e 44 32 df bd b8 59 db bc 1e 08 d0 bd
       0.15725751 -0.10898259 -0.02677618 -0.10157798
000250 0b 1e a5 bd 41 05 27 be a2 38 ae 3c e3 b5 01 3e
       -0.08062371 -0.16310598 0.021267239 0.1266704
000260 cb 7a 52 3e 6d 4f 37 3e fc 51 9a be 71 b6 ec bd
       0.20554654 0.17901392 -0.30140674 -0.115582354
000270 a3 16 a2 3c 0d 30 57 be bc 16 ba 3b a9 e0 16 3e
       0.019786185 -0.21014424 0.0056789797 0.14734139
000280 f7 2b 97 3c df aa de 3d 06 8f af 3d 9c 3f 98 be
       0.018453581 0.10872435 0.085722014 -0.2973603
000290 e4 52 57 3d 95 ef 1c 3e e7 4d 2b bc 20 72 3c 3d
       0.052569285 0.15325768 -0.010455585 0.046007276
0002a0 f3 99 6f 3d e4 8c 94 3b 50 ac c4 3d 66 2f 79 bc
       0.058496427 0.004533397 0.096031785 -0.015209055
0002b0 5f 16 6f bd df 00 16 3c c5 ef 3f bc 27 f3 7b be
       -0.058370944 0.009155481 -0.01171488 -0.24604474
0002c0 f2 fa 4e be a7 86 0c be b8 08 f8 3d 1e c7 8b 3d
       -0.20212916 -0.13723241 0.12111038 0.06825088
0002d0 1a e2 91 bd 57 39 f6 bd fb c2 12 be 6c fd 5b 3d
       -0.071232036 -0.120226555 -0.14332192 0.05370848
0002e0 cb bf 22 be 16 08 35 be 56 c2 27 be 31 8c 24 39
       -0.15893476 -0.17678866 -0.16382727 0.00015692484
0002f0 16 9d f3 3e 35 ba f9 bd 94 2a d8 3d d9 ba 1f 3b
       0.47580785 -0.12193719 0.10554996 0.0024372844
000300 ac 81 e7 bc ee 76 a9 bd b9 63 1b be b5 22 6b 3d
       -0.028260075 -0.08274637 -0.1517476 0.057406146
000310 81 3e 87 bd a2 b9 d8 3d 38 55 0d 3e 7a 42 0f be
       -0.066037185 0.10582282 0.1380204 -0.13990203
000320 df d2 f9 bb f5 73 09 3e aa 7a 5c 3d 74 19 78 3c
       -0.0076240147 0.1342314 0.05382792 0.015142787
000330 82 f3 77 bd e0 64 53 bd 50 11 5c bd cb 16 79 3e
       -0.06053496 -0.051609874 -0.053727448 0.24325101
000340 21 68 81 3d ca 93 17 3d 69 88 e0 bd 34 72 ea 3c
       0.06318689 0.037006177 -0.10963518 0.02861891
000350 7e 56 bc 3e f5 dd 7e bd a5 9e 98 3b 2c af 2a bd
       0.36784738 -0.062223393 0.004657584 -0.041670963
000360 b6 09 f5 3d 75 b0 4f be 59 46 65 be 53 77 11 bd
       0.11964743 -0.20282157 -0.22390117 -0.035514187
000370 4f ce 56 3d 6e 49 0c 3e ae 77 7b 3d 9d b1 cb 3d
       0.052442845 0.13699886 0.061393432 0.099459864
000380 f5 86 b7 bb 3f f1 a5 bc 10 7a a2 3e 6c 46 b6 bd
       -0.005600805 -0.020256637 0.3173375 -0.08900151
000390 ff 54 3f 3e 0e 1d b5 bd 4f d2 7f 3a 0a 0f 3f 3d
       0.18684767 -0.08843432 0.00097588164 0.0466452
0003a0 aa de dc bc 4d ba 85 bd b6 3f 2d 3e 34 f1 d5 bd
       -0.026961643 -0.06529675 0.16918835 -0.104463965
0003b0 5c 7e c8 39 78 11 1e be 56 d8 a9 3d 8b 19 23 bd
       0.00038241118 -0.15436351 0.08293216 -0.03981928
0003c0 ab 4c f1 bd 55 3b 24 be 9f eb 65 3e ac b4 a4 3e
       -0.117822014 -0.16038258 0.22453164 0.32169092
0003d0 f5 fc 2e 3d f3 2e 7a bd 3a 6e 1d be 88 1b 19 ba
       0.042721707 -0.06107993 -0.1537408 -0.00058405893
0003e0 e0 63 64 3d 1b f8 17 3d e4 43 15 bd 27 aa 21 be
       0.05575931 0.037101846 -0.0364417 -0.15787564
0003f0 9a da ae bc 0f 0e 34 3e 0d ea f1 3d 4f 61 6a be
       -0.021344472 0.17583488 0.1181222 -0.22888683

net.0.bias f4 [128]
000000 74 2f a1 3d e0 a4 23 3e 44 c2 c5 3b 57 e0 85 3e
       0.07870379 0.15980864 0.006035121 0.2614772
000010 8d 32 bf bd c5 ef 22 be 01 bb e6 3c f0 89 12 3e
       -0.09335814 -0.15911777 0.028165342 0.14310431
000020 98 aa 0f 3e a3 d3 31 3e 57 1b 13 3e bc 7c 14 3c
       0.1402992 0.17365889 0.14365898 0.009062942
000030 75 1e b7 bc 1f ae ca 3b b3 a7 e8 bd 1a 12 e7 3d
       -0.02235339 0.0061853076 -0.11360111 0.112827495
000040 c9 c4 2d 3e 71 f0 ba 3d 1b 23 bd 3c 5e e6 d6 3d
       0.16969599 0.09127892 0.023088029 0.10493158
000050 c1 1e dd bc 0f 99 84 3d e8 74 fa 3d a7 22 d8 bd
       -0.026992204 0.06474506 0.12229329 -0.105534844
000060 95 d7 a2 3e 5b 87 2d 3d cb b0 bc 3d c6 b2 cb 3c
       0.318051 0.042365413 0.09213408 0.02486552
000070 bd 0a 85 bd a6 d8 84 3d 1b 4a 0e 3c c0 23 33 bc
       -0.06496189 0.06486635 0.00868466 -0.010933816
000080 ff f0 ce bd 46 72 cd 3b ed 78 50 bd 2e 26 f1 3d
       -0.1010456 0.006269726 -0.050896574 0.1177486
000090 2f 83 ca 3d d9 39 88 3e 8c 28 a0 3c c5 b7 88 bd
       0.098883025 0.26606634 0.019550584 -0.06675676
0000a0 7e 7d 20 bd 14 7f f1 3d 9c ee 07 3e 43 96 14 3e
       -0.03918218 0.11791816 0.13274616 0.14510445
0000b0 93 70 d1 bd 02 2a 5a 3e b4 99 94 3e 3d 67 18 3e
       -0.1022655 0.21305087 0.29023516 0.14883132
0000c0 f0 2f 83 3e fd 3e 10 3e 0a bd 23 bd d3 61 87 3e
       0.2562251 0.14086528 -0.039975204 0.2644182
0000d0 5f 80 a2 3e c7 a7 06 3e e0 8b 81 3e e1 62 12 3e
       0.31738564 0.1314994 0.2530203 0.14295532
0000e0 5d 54 7c 3c 07 a3 8d 3e 2a 25 9b 3c b5 57 19 bb
       0.015400973 0.27663442 0.01893862 -0.0023398225
0000f0 12 22 9a 3e 16 a2 3c 3c cb 9f 5e 3e f1 b1 30 3e
       0.3010412 0.011513254 0.21740644 0.1725538
000100 dc fd 3c bd 8a 25 80 3d dd f4 0f bd 10 75 5c 3e
       -0.046140537 0.0625716 -0.03514563 0.21529031
000110 64 8d 42 3c 43 1a ba bd 12 44 a8 bc 19 a2 f1 3c
       0.01187453 -0.0908704 -0.020540271 0.02949624
000120 03 06 9b 3e e6 7c 3b 3e 48 2b 6c 3d a3 a3 22 3e
       0.30278024 0.18309364 0.057658464 0.15882735
000130 f3 fc 82 3e 45 27 8d 3d 3a 1c 2d 3e ad d4 ad bd
       0.2558361 0.06892256 0.16905299 -0.0848783
000140 ac e5 a3 3d a0 f2 14 3e 5a 5b 81 3e 25 ff 90 3e
       0.08002791 0.14545679 0.25265008 0.2831966
000150 20 2e 41 3e 97 6f 69 3e 35 48 7c 3e 7c 4b 05 3e
       0.18865252 0.22796474 0.2463692 0.13017076
000160 4d 46 b6 bd 7e 15 ae 3e 5c a2 49 3e e5 04 9a 3d
       -0.089001276 0.34000772 0.19690841 0.07520465
000170 50 cb ab 3d 05 d0 8c 3e 61 81 22 3e b9 1e 8d 3d
       0.08388388 0.27502456 0.15869667 0.068906255
000180 0c 24 15 3e a8 ff 42 3e 2c bd c5 3d a7 08 15 ba
       0.14564532 0.19042838 0.09655222 -0.0005685188
000190 0c 0c 49 3e 65 87 36 3e 84 45 82 3e cf b5 3f 3e
       0.19633502 0.17825086 0.2544366 0.18721698
0001a0 ca a8 09 3e 0f 0c 77 be 5b 5d dd 3b ed 54 32 3d
       0.13443294 -0.24125694 0.0067555136 0.043538023
0001b0 42 9f 0d 3e 06 c2 19 3c b0 a8 94 3e f6 78 c1 bd
       0.13830283 0.009384638 0.29034948 -0.094468996
0001c0 9a 7c 53 be b7 de c9 3d e3 d3 ba 3e f0 8a 60 3d
       -0.20653 0.098569326 0.36489782 0.05482
0001d0 e1 9d 39 3d e6 82 98 3d 88 6d c9 3d 8b f3 0c 3d
       0.04531658 0.07446842 0.098353446 0.03441195
0001e0 96 c0 97 3d 30 62 ad 3d 90 61 fa 3d 89 f2 16 bd
       0.0740978 0.084659934 0.1222564 -0.036852393
0001f0 88 0b 5f 3e a5 8d c3 3d 02 fa 85 bc 7f 80 f1 3d
       0.21781743 0.09548501 -0.016354565 0.11792087

net.2.weight f4 [128, 128]
000000 5b d2 2c be 06 be f4 bc c0 21 c6 3c dc 94 05 3e
       -0.16877119 -0.029875766 0.024186015 0.13045067
000010 ea 99 cd 3d c6 63 f8 3d ae 4d 77 bb db 64 47 3d
       0.100391224 0.12128405 -0.003773551 0.048680168
000020 97 2f 17 be 06 7b 1b be 6e 07 d1 bd 40 c1 87 3c
       -0.14764248 -0.15183648 -0.10206495 0.016571641
000030 7f c4 ef bd 76 16 af 3b b0 c1 66 3d cc 40 87 bd
       -0.117074005 0.0053432537 0.05633706 -0.06604156
000040 a5 24 ce 3c 6b bb 3e 3c a9 34 20 3c f3 f5 57 3c
       0.025163958 0.011641364 0.00977818 0.013181197
000050 e8 97 0a bd b7 c3 72 bd 43 30 b8 3d 65 ea 0e bd
       -0.033836275 -0.05926868 0.0899358 -0.034891505
000060 51 3b 45 3b 84 a6 07 3e a8 cd 01 3e 29 63 e3 bd
       0.003009517 0.13247114 0.12676108 -0.11102898
000070 e1 d4 58 bc 76 df 0c bc e6 26 bd bd cf d4 17 bd
       -0.013234348 -0.008598199 -0.09235935 -0.037068184
000080 b1 a6 69 bd 57 9b 07 bd b4 ea da bd d3 d9 15 bc
       -0.057043735 -0.033107128 -0.10689297 -0.009146172
000090 77 6d 2e bd f0 e8 a7 bd 1b f3 97 bc 84 4b 46 bd
       -0.042584863 -0.08198726 -0.018548539 -0.04841186
0000a0 1b 46 64 bd 96 84 9a 3e a0 9d 6d bb 62 f5 81 3d
       -0.05573092 0.3017928 -0.0036257282 0.06345631
0000b0 e6 97 90 3d 60 f2 b3 bc 19 2a b2 3c 30 cf 7f 3d
       0.07060222 -0.02196616 0.02174859 0.06245345
0000c0 81 71 bf bd 80 af c4 bd fc db 01 be 9d 21 99 3e
       -0.09347821 -0.096037865 -0.12681574 0.29908457
0000d0 ad ad ea 3d ff 78 ea bc a0 b9 e5 bd 54 e6 8d 3e
       0.11458907 -0.028622149 -0.11217046 0.2771479
0000e0 70 20 f6 3d 31 e4 c3 3d bf 31 a3 bd 14 65 89 bd
       0.12017906 0.095650084 -0.07968473 -0.06708732
0000f0 2c b8 2b 3e 57 97 46 bc 2e ec c3 3c e6 be 84 bd
       0.16769475 -0.012121043 0.02391633 -0.064817235
000100 a9 c9 15 3e df fb 8e bd 2a 56 8a bd 01 86 05 3d
       0.14627708 -0.06981634 -0.06754716 0.0325985
000110 c3 69 2c be 82 48 9d bd 58 8e bf bd e7 44 a6 bb
       -0.1683722 -0.076798454 -0.09353322 -0.005074132
000120 d4 d3 3f bd 13 76 58 bb e8 05 1b 3e ae 09 a1 be
       -0.046832874 -0.0033029362 0.15138972 -0.31452698
000130 be fe 50 bd 5d 02 c8 bc 29 60 9f bd 73 4d 1f bd
       -0.05102419 -0.02441519 -0.07782013 -0.03889222
000140 85 36 fe 3d dd c8 5c bd 20 b1 5a 3e eb 81 89 3e
       0.124127425 -0.053902496 0.2135663 0.26856932
000150 89 7e ba bd 21 17 05 3e f7 55 da 3d 3e dd 2e be
       -0.09106166 0.12997104 0.10660928 -0.17076585
000160 de b5 50 bb 28 39 11 3c 13 86 46 3d e1 ba 86 bd
       -0.0031846683 0.008863725 0.048467707 -0.06578613
000170 1e cb fe bd cf 98 2f 3e db 21 9a bd cd e7 1f bd
       -0.12441085 0.17148136 -0.07525989 -0.03903942
000180 5b a7 8c bd 50 64 13 be fb 9a f8 3c 4f 66 07 3d
       -0.06867858 -0.14393735 0.030347338 0.033056553
000190 4f b4 63 bd bb 6a 0e 3e 83 ec a0 3d ec 00 93 be
       -0.055591878 0.13907902 0.07857611 -0.2871164
0001a0 d5 fb 31 be af 0e 1d bd a3 43 1d bd 00 0b a4 3d
       -0.17381223 -0.03834408 -0.03839458 0.080099106
0001b0 69 83 9d bd 39 6b 4f 3d 09 51 24 3e 23 6a 8d 3d
       -0.0769108 0.050639365 0.16046537 0.069050096
0001c0 de 5c 0a be 6e c7 85 bd 54 6a 0b bc 39 26 d7 3c
       -0.13511989 -0.06532179 -0.008509237 0.026263343
0001d0 ac 88 80 3d 0a 8a 93 3d e4 cb 3b bd 53 fd ee 3d
       0.06276068 0.07204063 -0.045848742 0.116694115
0001e0 11 88 1f bd 83 68 22 bd 5a d9 c9 bc 9a fd 0b be
       -0.038948122 -0.03965045 -0.024639774 -0.1367096
0001f0 a0 6d 5c bd b9 d3 07 bd 68 14 0b be 04 d0 a8 3d
       -0.053815484 -0.0331609 -0.13582003 0.08242801
000200 85 4e 0d be cc 70 e7 3c 98 d3 c0 3d 2e 92 13 3d
       -0.13799484 0.028252028 0.09415358 0.03602808
000210 42 6b 2e 3e 5f 62 bc 3d ea 4e c6 bc 56 b7 11 bb
       0.17033103 0.0919845 -0.024207551 -0.002223452
000220 05 83 ca 3d 84 0e 33 bc 93 bd c5 bc 19 21 e1 bc
       0.09888271 -0.010928754 -0.024138248 -0.027481603
000230 a3 54 38 bc 6f 8e 39 be ea 72 05 be 8a aa ee 3a
       -0.011250648 -0.1812074 -0.13032117 0.0018208784
000240 0e 38 d5 bd be 1e 45 be d1 18 0a be f9 72 2b bc
       -0.10411082 -0.19250008 -0.13486029 -0.010464423
000250 b2 ac 2e 3e 4b 14 e3 bd d8 2e 5a 3d ab c2 b0 bd
       0.17058066 -0.11087855 0.05326733 -0.0863088
000260 44 89 23 3e 56 a2 2e ba 0a 1a 2a 3c 9b 8a e0 ba
       0.15970331 -0.0006661763 0.010382185 -0.0017131151
000270 61 b9 e1 bd ab 1f cd bd 14 46 70 3d 80 66 29 bd
       -0.11021686 -0.10015806 0.05866058 -0.041357517
000280 58 65 68 bd d2 85 f2 3d 5b f9 dd 3d 93 85 c3 3c
       -0.056737274 0.118419304 0.108385764 0.023867404
000290 59 6a 62 3b f8 e6 a1 3d a8 da 97 bd a3 e7 0f 3d
       0.0034548251 0.07905382 -0.07414752 0.035133015
0002a0 77 39 04 bd bb 75 73 bd 5b 08 16 be ca 2a 98 3d
       -0.032281365 -0.05943845 -0.14651625 0.07430036
0002b0 d5 2c 5c 3d 8a 63 1e 3e 9f b3 10 3c aa 16 5a 3e
       0.053753693 0.15467659 0.0088318875 0.21297708
0002c0 a0 45 40 be 2e 0f 8a bd 45 e0 d2 3d 7a 93 1f 3c
       -0.1877656 -0.067411765 0.10296682 0.009739751
0002d0 9a 1f 89 3e fb 2d 21 3d 1a 10 b1 3e 6f 00 68 3d
       0.26781923 0.03935049 0.34582597 0.05664104
0002e0 55 9e 42 3d 27 66 e6 3d 4d 68 51 3e a9 a4 60 bd
       0.04751428 0.11249953 0.20449944 -0.054844532
0002f0 c0 42 38 3b 17 55 8c bc 4e 7e a7 bd c3 0c d9 bd
       0.0028115958 -0.017130418 -0.081783876 -0.10598137
000300 dd da d1 3b d1 e2 49 3c 73 14 f9 bd 5a 67 18 bd
       0.0064042644 0.012322144 -0.121621035 -0.03720794
000310 b2 04 1e 3e f5 5a c1 3b db 0d 43 3d e3 62 32 bd
       0.15431479 0.0059007355 0.047620635 -0.043551337
000320 b5 14 02 bd f3 ba 15 be f6 9f ed 3c db 9c 0d 3e
       -0.03175803 -0.14622097 0.02900694 0.13829367
000330 09 b2 14 3e 5d 9d a4 bc 15 0a 73 3d 6b e7 7f bd
       0.1452104 -0.020094568 0.059335787 -0.062476557
000340 35 4c 00 bd 72 7c 91 3e 49 7c 9a bd 0c fe 0d 3d
       -0.031322677 0.28415257 -0.07543237 0.034666106
000350 d0 b1 57 3d 84 2f 49 3d 34 43 78 3c 45 e5 88 bd
       0.05265981 0.04911758 0.015152741 -0.06684355
000360 f6 f1 5a 3c b7 80 e9 3d e3 32 01 3c 34 99 09 bc
       0.013363352 0.114015035 0.0078856675 -0.008398343
000370 ef 44 96 bc d9 a9 ff bc 67 ba 6c 3d f6 04 8e 3d
       -0.018343417 -0.03120892 0.057794955 0.0693454
000380 ab 08 32 3d 1c 25 ec 3d 07 72 6f bb 45 b8 cb bc
       0.043465298 0.115305156 -0.0036536471 -0.02486814
000390 ec 4e 86 3d 53 6b 0c bc 04 aa 6a 3d 01 25 21 be
       0.06558022 -0.00857051 0.057291046 -0.15736772
0003a0 57 c8 9e bd 03 b9 b8 3d 03 b1 06 3e 03 21 17 3d
       -0.077530555 0.09019663 0.13153462 0.036896717
0003b0 ef 68 84 3d bd b4 3e ba d8 a9 c5 bc 60 e5 d7 bd
       0.06465327 -0.0007274857 -0.02412884 -0.10541797
0003c0 8c b1 38 be 27 da b1 3d 19 a4 0f 3e 9b 4c 5c bb
       -0.18036479 0.086841874 0.14027442 -0.0033614996
0003d0 e0 f2 02 be ea aa bf 3d b9 8c 36 3c bb 9b 8b bc
       -0.12787962 0.09358771 0.011141949 -0.017042032
0003e0 a3 88 76 3d bf 12 c6 bd 0f fb 16 bd 5a d3 4e 3d
       0.0601889 -0.09671544 -0.036860522 0.05049453
0003f0 19 c3 c2 ba 5a 6b 3e be 2b e6 b8 3d f2 ee f6 bd
       -0.0014859169 -0.18595639 0.09028276 -0.12057294

net.2.bias f4 [128]
000000 11 33 34 3d 3c a7 98 3d 59 d6 53 3c 2b 8f 3f 3c
       0.043994013 0.074537724 0.012929522 0.011691849
000010 0e 39 04 3e b4 22 90 3d ac ff d8 3d b7 07 32 3d
       0.1291239 0.07037869 0.105956405 0.04346439
000020 3f ef c0 bc 09 c5 a0 3c e3 99 6a bc f4 0e 0b 3c
       -0.023551581 0.019625204 -0.014318916 0.008487452
000030 d0 7a 32 bb 0b 41 79 3d 89 aa 7c be 9b 88 46 3d
       -0.0027233846 0.060853045 -0.24674429 0.04847012
000040 5b ea 02 bc cd 45 c4 ba b8 46 86 3c 24 1b 04 bd
       -0.007990445 -0.0014974416 0.016391143 -0.032252446
000050 7a d2 03 3d e3 eb ac 3d f6 19 a4 3d 67 6d b3 bd
       0.032183148 0.08443429 0.08012764 -0.08761101
000060 3e 3d 9d bc b5 da 19 bc 47 ff e2 3d cd 69 42 bc
       -0.019194242 -0.009390523 0.110838465 -0.011866045
000070 00 43 b1 bd 73 e6 ab 3c d4 43 e4 bc 3d 34 15 3e
       -0.08655357 0.02098391 -0.027864374 0.14570709
000080 23 6a 01 3d 8b 58 c8 3d ef b9 87 3c a6 ac 99 bd
       0.03159536 0.09782513 0.016568152 -0.07503633
000090 ca fd 3e 3d 9d 53 4c bc 32 49 cf 3c 46 98 c1 bc
       0.04662875 -0.012471107 0.025303457 -0.02363218
0000a0 81 46 86 3d 2d 95 68 bd 8d de 20 bd ec 32 fe 3b
       0.06556416 -0.05678289 -0.03927474 0.007757535
0000b0 ef 4e 60 3d a8 bc e7 3c ee 2e b9 bc de 5a c9 3c
       0.054762777 0.0282882 -0.022605386 0.024579462
0000c0 52 50 94 bd 99 7d 31 be c7 8f 90 bd 79 be 87 3d
       -0.072418824 -0.17333068 -0.07058673 0.06628127
0000d0 dd 5e 44 be 14 78 c7 bd d5 93 a3 3b 5b 9d 53 3e
       -0.19176812 -0.097397 0.004991988 0.20665495
0000e0 87 a6 33 3d 78 eb 10 3b 9b 56 49 3d 52 5e f5 bd
       0.043859985 0.0022113007 0.04915486 -0.11980881
0000f0 89 9d b9 3d 17 c3 7d bd db d8 a9 3e eb af 4a be
       0.090632506 -0.06195363 0.3317326 -0.1979367
000100 af ce 1d bc c8 df df bd 74 48 04 bd 08 4d d4 3d
       -0.009631797 -0.10931355 -0.03229566 0.10366255
000110 5e b8 93 bd 70 58 9c 3c a9 fe 2f 3d 9f 98 21 3d
       -0.072128996 0.019085139 0.042967472 0.03945219
000120 4c 49 de bb 80 bd c2 3d 6e c8 df bc c8 31 f3 3d
       -0.00678364 0.095088005 -0.027317252 0.118747294
000130 71 26 16 3e 31 e9 61 3e e4 94 92 be 3d 7b b2 3c
       0.14663102 0.22061612 -0.2862922 0.02178728
000140 8a c0 08 3e 4a 0e b9 3d d0 c2 38 3d e5 4c 4c be
       0.13354698 0.090359285 0.045107663 -0.19951208
000150 7e 52 0c 3e 8f 1a 0f be ad d6 3e 3e 34 14 d9 bb
       0.13703343 -0.13974975 0.1863658 -0.006624723
000160 94 02 83 3d 79 fa 7b 3c e3 b5 84 3c 1d 5d bb bd
       0.06396976 0.015379542 0.016200012 -0.09148619
000170 78 68 92 3d 04 70 83 3d 59 d7 a1 bd 2d 84 d5 bd
       0.07148832 0.0641785 -0.079024024 -0.10425601
000180 97 03 e9 3b 5e c4 d1 3c c0 3e 05 bd 22 b9 1e bd
       0.0071110236 0.02560633 -0.032530546 -0.038750775
000190 4e 71 37 bd d2 d9 bb bd 79 d1 00 3e 7c 49 3f bc
       -0.04478579 -0.09172405 0.12579907 -0.011675235
0001a0 06 92 28 be df bd b0 bd 88 77 b8 3d a4 51 27 3b
       -0.16461954 -0.08629965 0.09007174 0.002553084
0001b0 c9 67 3d bd 61 e1 f6 3b 9c ef d8 3d d1 ec 04 bd
       -0.046241555 0.0075341915 0.10592577 -0.03245241
0001c0 1c d8 0c bd 34 ee de bc ab 07 b0 bd 29 17 84 3d
       -0.034385785 -0.027213193 -0.085952125 0.0644973
0001d0 ea 12 1b 3d 34 ec 6b bc 1f b8 d7 3d 28 b0 be bb
       0.037859835 -0.014399577 0.10533165 -0.0058193393
0001e0 80 3a 01 3e ee 15 7f 3d 90 38 72 3a 2c 0f 68 3d
       0.12619972 0.062276773 0.0009239996 0.056655094
0001f0 31 f7 ab bd fe e5 7b bd 50 ca 1f bd 4d ab fa bd
       -0.083967574 -0.061498635 -0.0390113 -0.12239704

net.4.weight f4 [128, 128]
000000 a1 e3 da 3d fd 24 a0 3d f8 c3 40 39 dc 72 5a bd
       0.10687948 0.07819555 0.00018383551 -0.053332195
000010 35 30 eb 3d 8d fd 0d be d9 94 11 3b b5 21 87 3d
       0.11483804 -0.13866253 0.0022213964 0.06598226
000020 b3 0f 99 bd d9 05 f7 3d a3 f6 c5 3d d5 e9 10 3d
       -0.074736975 0.12061662 0.09666183 0.03537925
000030 f6 93 99 3d a1 b2 a6 3d b4 74 e1 bd 38 03 a6 3d
       0.074989244 0.081395395 -0.110085875 0.08106083
000040 45 f7 0c 3e 01 28 b1 bc e0 20 b1 bd 19 7e 1f 3e
       0.13766201 -0.02162552 -0.086488485 0.15575446
000050 73 24 0c bc 50 1d 2f bd 2d 8c d8 3b 54 c1 02 be
       -0.008553612 -0.042752564 0.006608507 -0.12769061
000060 0e 38 1a be ea 6e ae 3d 6b 0e 1a 3e 98 6e 54 bd
       -0.15060446 0.08517249 0.15044563 -0.051863283
000070 48 fb 1d bd ea c4 ed 3b 66 5a 99 bc af ab 3c bd
       -0.03856972 0.00725614 -0.018719863 -0.046062168
000080 3f dd 57 3d 1a 8d b7 bd 4a cd 94 bd 07 94 de bb
       0.05270123 -0.0896246 -0.07265718 -0.0067925486
000090 6c 90 17 be 2e ae b4 3c 99 b1 b1 bd 63 ca 5d be
       -0.14801186 0.022055712 -0.08676452 -0.21659236
0000a0 f5 d7 94 bd 1e 5d 03 3d ba 07 28 3d 0b 19 33 ba
       -0.07267753 0.032071225 0.041022994 -0.000683204
0000b0 d2 6e d3 3d 76 82 f1 3d 12 0b 1f 3d 40 dc 1f 3d
       0.10323872 0.117924616 0.038828917 0.039028406
0000c0 df 91 08 be e0 33 3e 3d 96 aa 13 3e 3a c6 25 bb
       -0.13336895 0.04643619 0.14420542 -0.0025295154
0000d0 eb fa 31 be e9 df 7f 3d 2f 58 47 bc 23 06 fd bd
       -0.17380874 0.062469397 -0.012167021 -0.12354686
0000e0 e7 fa d9 3d 30 cc 03 3d 04 7e e0 3d 93 11 f1 3b
       0.10643559 0.03217715 0.109615356 0.0073568313
0000f0 c9 42 ab bb 32 bf 09 be d8 51 24 be 9c 2b 60 3d
       -0.0052264673 -0.13451841 -0.16046846 0.05472909
000100 ae 9c b3 bd e7 4a 2e 3d 87 56 3f 3d 5c 77 36 3d
       -0.08770119 0.0425519 0.04671338 0.044547424
000110 54 87 c8 3e 21 18 58 bd ea f4 2a bd e4 07 e1 3d
       0.39165747 -0.052757386 -0.041737475 0.10987833
000120 98 5f 93 3d 5f 5f 36 bd bf 22 74 bc f9 18 0f 3e
       0.071959674 -0.044524547 -0.014900862 0.1397437
000130 e2 72 cd 3d ae d9 e7 3d 04 90 03 be 66 4e 0c 3e
       0.10031678 0.11320816 -0.12847906 0.13701782
000140 04 d9 2b bd c2 b8 f1 bd 02 6d 35 be 0f 6b 88 3d
       -0.04195501 -0.11802818 -0.17717364 0.06661045
000150 ae a3 f5 3d 42 f3 0e be 80 42 81 3e 6a fc 2c bd
       0.1199411 -0.13959983 0.25246048 -0.04223291
000160 1a 1c 0c 3e 84 87 8c bd c4 14 28 bd 51 ce 52 3d
       0.13682595 -0.06861785 -0.04103543 0.05146629
000170 aa 35 e7 3d 2c 42 a6 3c ab f2 fd 3d e0 4a 03 3e
       0.112895325 0.020295225 0.12399801 0.12821531
000180 8f 98 fe bd e3 d0 61 3d 67 74 b0 3d 24 77 1c be
       -0.12431442 0.05513085 0.08615952 -0.15279824
000190 0b 04 8f bd e8 51 b3 bd e7 b8 29 3d 11 b5 15 bb
       -0.06983193 -0.08755857 0.041436102 -0.002284352
0001a0 74 16 8d 3c 73 45 c0 3d f8 e2 b2 3d cb be b5 bd
       0.01722262 0.093882464 0.08734697 -0.088742815
0001b0 04 7f a7 3b 3b 69 8c bd 76 86 14 3e cc dd ff 3c
       0.005111577 -0.068560086 0.14504418 0.03123369
0001c0 2e 95 86 3d 35 2a 63 3d 08 c9 83 bd f5 b2 06 be
       0.065714225 0.055460174 -0.06434828 -0.13154204
0001d0 fd ca 8e 3d 4b ea f5 bd 1a e4 0a 3d 25 d7 a2 bd
       0.06972311 -0.120075785 0.03390894 -0.07951192
0001e0 b0 f3 3c 3d fc 1d 23 bd 8e c1 cd bd 61 3c b7 bb
       0.046130836 -0.039823517 -0.10046683 -0.0055919145
0001f0 bc b0 c4 bd 84 93 f6 3d 0a 50 d3 3d f0 c5 2f bd
       -0.09604022 0.12039855 0.103180006 -0.042913377
000200 48 2e 40 bd 14 73 86 3d 38 f9 0d be 90 47 79 3d
       -0.046919137 0.06564918 -0.138646 0.060859263
000210 8b d5 1b 3d 05 af e5 bc 6d 96 d6 bd 10 e3 39 bc
       0.038045447 -0.028037557 -0.1047791 -0.01134564
000220 19 1d 8f bc dd 2c ea 3d 0c 0c b5 3d ad 2c 70 bd
       -0.01746993 0.11434338 0.088401884 -0.058636356
000230 17 d4 e4 bc 9e 2c 0e be a9 9b 10 be 1a 7d 00 bd
       -0.027933164 -0.13884208 -0.1412188 -0.031369306
000240 bd de 3f 3c 19 7c c3 3c 30 15 ea 3c 71 3f ef bc
       0.01171082 0.023862885 0.028574556 -0.029205056
000250 fe ef 31 3d e3 89 bb ba f0 06 c1 bd 47 34 af 3d
       0.043441765 -0.0014308061 -0.09425151 0.08554893
000260 5b 82 d1 39 6c 17 29 3e f3 bd f6 bd ff e3 ef bd
       0.0003996071 0.16512841 -0.12047949 -0.11713409
000270 56 1c 31 3e bb bc dc 3d 4c 3a 89 3d c3 d3 2e be
       0.17295966 0.10778185 0.06700572 -0.17072968
000280 46 d1 c4 3d 47 ac 75 3d 08 ac 59 bd 74 9b 35 3e
       0.09610228 0.05997875 -0.053142577 0.17735082
000290 33 83 25 3e 29 2a a6 bd 15 34 80 3d e5 ee bf 3d
       0.1616333 -0.0811351 0.06259934 0.093717374
0002a0 a2 09 b0 bd 7c 7e d6 bc 68 34 4e bc 0e 2b a2 3e
       -0.08595587 -0.02618336 -0.012585737 0.31673473
0002b0 32 c9 bd 3d f3 c2 ae bd f6 c9 5b 3d 95 cc 5a bd
       0.092668906 -0.08533277 0.0536594 -0.05341776
0002c0 68 e8 dd bd 1a 97 5f 3d ff 7b 08 be 0d 50 fc 3d
       -0.108353436 0.05458746 -0.13328551 0.12319956
0002d0 e0 a9 e0 bd 7f 9e 9d bd 26 b6 56 3e 27 21 9f bd
       -0.10969901 -0.07696246 0.20967922 -0.07769995
0002e0 2c 4c fe 3d b4 73 f0 bd 82 86 58 bc 64 7e ff bc
       0.124168724 -0.117408186 -0.013215663 -0.031188197
0002f0 42 53 09 3e e8 3d ff bd 34 8b 6e 3d 5e 4b 9c bd
       0.13410667 -0.124629796 0.058238223 -0.07631563
000300 cc 2f 69 3d 2a 42 1e be 1f 3d 00 3b e8 e9 92 bd
       0.05693035 -0.15454927 0.001956768 -0.0717352
000310 cf fb 5e 3d f7 31 dc bd 3e fe c6 bc 34 19 6d bd
       0.054439362 -0.107517175 -0.024291154 -0.057885364
000320 84 ce e1 3d d2 0a 75 3d 72 38 a2 3e d7 30 0f be
       0.11025718 0.059824772 0.3168369 -0.13983475
000330 ad 8e 85 bd ce 11 b6 3b fb 18 26 bc d8 43 d2 3d
       -0.06521354 0.0055563217 -0.010137792 0.102668464
000340 e4 09 58 3e e1 f3 bf 3d 61 d1 d9 bd 39 71 90 3c
       0.21097523 0.09372688 -0.10635639 0.017632114
000350 08 f0 cb 3d f9 8b f5 bd fb 8f 51 3e 89 86 e6 bd
       0.09957892 -0.11989588 0.2046508 -0.11256129
000360 20 9d b5 bd 97 88 ca 3c 78 1d 0c 3d f1 2f 00 3d
       -0.0886786 0.024723334 0.03420779 0.03129572
000370 92 78 da bc a7 e1 25 3e 39 8e a9 bd 05 4c 9a 3c
       -0.02666882 0.16199361 -0.0827908 0.018835077
000380 13 8d 78 3d a8 48 52 bc ff d8 ab 3c 1c 44 1b be
       0.060681414 -0.012834705 0.020977495 -0.151627
000390 04 91 10 be 37 5a b6 bd 94 40 24 be 90 e0 01 be
       -0.14117819 -0.08903926 -0.1604026 -0.1268332
0003a0 e7 09 d6 3c 31 6b a0 bd 84 46 a1 3c d0 6c 2a 3d
       0.026127769 -0.07832945 0.019686945 0.041607678
0003b0 a9 af 17 be ea 7a 57 be f2 7d a4 3c 30 f3 98 bc
       -0.14813103 -0.21042982 0.020079587 -0.018670648
0003c0 ec 5a d0 bd 60 a2 11 3e df f8 92 bd ef 43 30 3d
       -0.10173592 0.14222097 -0.07176375 0.043033537
0003d0 44 2e 1f bd 56 2c b1 bc fc 95 3f 3d 2b 95 53 be
       -0.03886248 -0.021627586 0.046773896 -0.20662372
0003e0 db 88 ad bd f4 2e 98 bd 76 4f e1 3d e1 01 07 3e
       -0.08473369 -0.074308306 0.11001484 0.1318431
0003f0 ee 0e c2 3d 05 c1 31 be 12 6d 11 be 55 5f 0c be
       0.09475504 -0.17358787 -0.14201763 -0.13708241

net.4.bias f4 [128]
000000 bd ff 72 3c d5 9e 1f 3e 42 82 8b bd 5f 35 2f bd
       0.014831481 0.15587933 -0.06811954 -0.042775508
000010 cd a2 bf 3b de af 7e 3d f8 f0 89 bc e9 41 f4 3d
       0.005848265 0.06217944 -0.016838536 0.11926634
000020 ae 25 10 bd 0f 52 a8 3c 43 d0 a5 bd 5a 88 7c bd
       -0.035192184 0.020546941 -0.080963634 -0.061653472
000030 01 56 1e 3c b3 d6 81 ba 02 95 1c 3d bd ed b6 bc
       0.00966406 -0.0009905904 0.038228042 -0.02233016
000040 a3 59 8f 3d e5 aa 0b 3c a4 33 46 3e 3a a1 01 bd
       0.06999519 0.008524631 0.19355637 -0.0316479
000050 e6 b5 e7 bc 38 60 98 bd 2c af 5a bc 70 05 9a bd
       -0.028284978 -0.07440227 -0.013347428 -0.07520568
000060 92 3a 21 3d 3c fa cb 3d 84 ea 43 bd 2f 53 bd bc
       0.039362498 0.09959838 -0.047831073 -0.023110954
000070 73 f4 ee 3c 65 0d 34 bd cf 8a bc 3a ae 37 e4 3d
       0.029169297 -0.043958087 0.001438463 0.111434326
000080 d9 bd 17 be b5 4e 92 bd 6a 2b dd 3d 4d 09 91 bb
       -0.14818515 -0.071439184 0.10799296 -0.0044261576
000090 08 26 26 3d 56 21 b9 3d 3d 62 a1 3c 45 c6 fa bc
       0.040563613 0.090395615 0.019700164 -0.03061212
0000a0 d2 2d e0 3c df f6 68 3c ae bc c4 3d 18 e9 fa 3d
       0.027365599 0.014219015 0.096063 0.1225149
0000b0 a7 6f f2 3c a9 b6 92 bd fc b3 01 3d b0 ad 8d 3d
       0.029594256 -0.07163746 0.031665787 0.06917894
0000c0 73 42 49 3d 74 3d 8a 3d a5 cf ac 3d d3 36 0c bb
       0.049135637 0.067500025 0.084380426 -0.0021394982
0000d0 c0 bb c3 3d 8a 9a 23 bc c8 2c ac bd 1c e1 f4 bc
       0.09557295 -0.009985575 -0.08406979 -0.029892497
0000e0 6d cf ba bd b2 35 a8 bc 41 73 8b 3c 1d 17 af 3d
       -0.091215946 -0.020533416 0.01702273 0.085493304
0000f0 81 cc ba 3d 3a 2f 81 3e e2 e9 6e 3e 3b 3c ce bc
       0.09121037 0.25231344 0.23331407 -0.025175205
000100 a9 e1 cf 3b bd d3 59 bd 93 a2 93 bd cf e4 05 3e
       0.0063440395 -0.053180445 -0.07208743 0.13075565
000110 5a b4 24 bb 76 88 c9 bd b9 09 b8 3c 56 bb ce 3d
       -0.0025131912 -0.09840481 0.022465574 0.10094325
000120 e0 39 ea bc 18 02 5e 3d ca 22 26 3c d0 ae 8b 3b
       -0.02859205 0.054201216 0.01014013 0.0042627826
000130 3f 05 52 3d 79 77 40 be 75 55 64 bd 94 b2 44 3d
       0.051274534 -0.18795575 -0.05574556 0.048021868
000140 6e 82 4b bc 37 27 1a bd 77 c0 61 3a 10 99 6e bd
       -0.012421234 -0.037635054 0.00086117483 -0.05825144
000150 95 f4 45 3d d6 8e 96 bd f6 81 c9 3c 6b 03 54 bd
       0.048328955 -0.073514625 0.024598103 -0.051761072
000160 f1 11 9d 3d 72 eb d2 ba 0c 5b 7d bd 00 f9 b1 3d
       0.07669438 -0.0016091897 -0.061854407 0.08690071
000170 a2 12 4a bd 5a 95 fb bd 85 65 67 bd 39 a4 4f 3c
       -0.049334176 -0.12284346 -0.0564933 0.012673431
000180 84 b0 83 3c 3b e2 7d bd 27 aa 00 3d 9d ba 14 3d
       0.01607538 -0.06198333 0.03141227 0.03631078
000190 d8 4c 9b 3c 61 44 fb bd fb c1 04 3f 0c d5 8a 3d
       0.01895754 -0.122689016 0.5185849 0.06778917
0001a0 4f 69 98 3d 05 ba 0d 3d 3f ec 89 3d f8 18 a3 bd
       0.07441961 0.03460123 0.067345135 -0.07963747
0001b0 76 d6 73 bc e1 0c 46 3d c5 14 a1 3d 82 96 0a 3e
       -0.014882674 0.048352126 0.078652896 0.13533977
0001c0 56 cb 48 3d 89 9b 17 3d 43 f7 3c 3b 1f 08 db 3d
       0.04902204 0.037013564 0.0028833903 0.10694908
0001d0 ef 73 ed bc e7 40 5e 3c ef b0 19 bd bc a4 90 3a
       -0.028985946 0.013565279 -0.037522253 0.0011035423
0001e0 e3 e8 8a bc ea 41 25 3d e5 b1 02 bd 11 d9 70 3d
       -0.016956752 0.040346064 -0.031907935 0.05880076
0001f0 23 b6 40 3d 7c bc a6 3c 5b 0b e1 3c 73 9a e8 3d
       0.0470487 0.020353548 0.027471235 0.11357584

net.6.weight f4 [128, 128]
000000 41 be b7 3d 5e 5b c7 bc dc 96 11 3d 57 6c 5f be
       0.08971835 -0.02433556 0.03554426 -0.21818672
000010 9c 3c 0c be 86 b2 05 3e 4e 61 31 bd 35 4d ff 3c
       -0.13694996 0.13056383 -0.043305688 0.031164745
000020 67 b0 db 3d f9 cc da 3b c6 2f 9c bd 6b 3d 01 3e
       0.107270055 0.0066772667 -0.076262996 0.12621085
000030 9e ed 0c be 26 de 87 bc 43 57 bb bd cf e4 aa bd
       -0.13762519 -0.01658542 -0.09147503 -0.08344423
000040 a2 e2 0f be dd 08 85 bd e5 92 65 3d d6 2a d3 bd
       -0.14051297 -0.06495831 0.056048293 -0.10310905
000050 76 84 5a bd 89 fc db 3a a0 99 1e bd 86 72 98 bd
       -0.05334898 0.0016783635 -0.038720727 -0.074437186
000060 18 7d 7f 3d ec 30 e0 bd a2 8c 91 3d a5 3f 07 3e
       0.062375158 -0.10946831 0.07106902 0.13207872
000070 bf 06 b2 bd 75 a7 e0 3d 59 8e 1c 3b 91 bb 0e 3d
       -0.08692693 0.1096944 0.0023888557 0.034846846
000080 a4 5a 13 3e e1 54 c0 bd 6a 50 0a bc 4c b5 0b bd
       0.14390045 -0.09391189 -0.008442024 -0.034108445
000090 d3 45 f7 bd 5b 31 ab bd 50 59 3d be 8d ab 1d be
       -0.12073865 -0.08359023 -0.18491101 -0.15397473
0000a0 9e 69 4c be 18 41 91 3e 51 c5 09 bd a4 cb bf bc
       -0.19962165 0.28369975 -0.03363544 -0.023412533
0000b0 e1 f2 9e bd c6 99 a3 bd 8e 83 ba bd 3c 82 09 3d
       -0.07761169 -0.07988314 -0.09107123 0.033571467
0000c0 a2 8c 0a 3d 8f c1 c6 3c 37 d3 37 3d 97 b3 0b be
       0.033825524 0.024262218 0.044879165 -0.13642727
0000d0 a8 76 e0 3d 6d b8 19 bd 41 45 0e bc 71 aa f9 bc
       0.10960132 -0.037529398 -0.008683504 -0.03047678
0000e0 56 f4 7f bb f8 5d f7 3d 25 e9 8b bc 54 54 32 3e
       -0.0039055548 0.1207847 -0.017078945 0.17414981
0000f0 7b 95 8e 3c 6a 69 5e bd 42 1e e1 3d 42 2d 24 bd
       0.017405262 -0.05429975 0.10992099 -0.040082224
000100 a7 82 f9 3d 6e d6 15 3e db 47 35 3d 89 e2 28 bb
       0.12183123 0.1463258 0.04425798 -0.002576979
000110 78 52 12 be 17 46 f6 bc 81 c3 bc 3d de d2 c9 bc
       -0.14289272 -0.030062718 0.09216977 -0.024636682
000120 e5 d5 56 bc 00 fd b0 3d d3 3e af bb 74 5d dd 3d
       -0.01311252 0.08642006 -0.0053480654 0.108088404
000130 96 f2 c9 bd 9e 72 3e 3d db 84 1d be 41 53 68 3d
       -0.09860723 0.046496026 -0.15382712 0.056720022
000140 ba f5 c9 3d 73 b4 35 be a3 89 f1 bd 0c 8e fc bd
       0.09861322 -0.17744617 -0.1179383 -0.12331781
000150 ae 35 29 bc e6 e8 a1 3d 7a 08 18 3e b0 6f f7 bd
       -0.01032774 0.0790575 0.14846984 -0.120818496
000160 9d 51 a4 bd b1 c9 6d bd d2 ef 27 bd fe 55 f2 3d
       -0.08023379 -0.058053676 -0.041000195 0.11832808
000170 b0 a5 34 be 78 78 06 3e c1 f9 6b bd a5 20 8d 3d
       -0.1764133 0.13131893 -0.05761123 0.06890992
000180 58 1f 0b 3d 2f f7 d0 3d a9 29 2a 3e 3a 05 0d be
       0.03396544 0.102033965 0.16617455 -0.13771525
000190 e9 a3 c4 bd 2b 37 45 bd 4a 01 cf 3d 50 3f a2 3d
       -0.09601576 -0.048148315 0.10107668 0.07922232
0001a0 2c 7f 45 3e fa e8 23 bd 05 31 ee 3d 50 cf 81 bd
       0.19286793 -0.040017106 0.116304435 -0.0633837
0001b0 2f 2b 0d bd e9 8b 16 be 4a c9 99 bc 0c 05 49 be
       -0.03446501 -0.14701809 -0.01877274 -0.19630831
0001c0 20 a9 81 3a 0c fd 3d 3e a7 4d a7 3c e3 74 fe bc
       0.0009892322 0.18553561 0.02042277 -0.031061595
0001d0 aa 1d 99 bd 96 c9 e4 3d bb 5f 8b 3d e7 f9 9c 3d
       -0.07476361 0.11171262 0.068053685 0.076648526
0001e0 27 01 7f 3d 69 6a 71 bd ea d9 c0 3d c2 b3 36 3d
       0.06225696 -0.05893937 0.09416564 0.044605024
0001f0 64 d0 fb 3d e4 77 da bd 56 0e 26 be 36 37 b3 3d
       0.12295607 -0.106673986 -0.16216406 0.08750765
000200 6e 5e 8e 3d 45 53 e5 bd d4 c9 25 3d 9e ff a6 bd
       0.06951605 -0.11197523 0.04047568 -0.08154224
000210 ad 3c 03 bd 7e 21 22 3e ba 82 57 be a9 44 16 bd
       -0.032040287 0.15833089 -0.21045962 -0.036686573
000220 e4 ac a6 bd a8 92 fb 3d 6e 75 9b 3d 92 21 df bc
       -0.08138445 0.12283832 0.07590757 -0.027237687
000230 07 c4 b7 bd 25 e2 12 be 60 60 55 3c ee 1f 0b be
       -0.08972936 -0.1434408 0.013023466 -0.13586399
000240 59 18 eb 3d 41 67 61 bd eb 30 54 3d 14 8a 16 be
       0.11479253 -0.05503011 0.051804464 -0.1470111
000250 09 5d b1 3c f0 9f 20 3e 86 9d fc 3d c6 37 96 3d
       0.021650808 0.15686011 0.12334733 0.07334857
000260 aa fe 24 3e e0 2b b5 bc 26 cd 85 bc dc 5a e1 bb
       0.16112772 -0.022115648 -0.016333174 -0.0068772864
000270 bf a8 dd 3c 39 7b 04 3e ad 18 9f bc e9 6d dc 3c
       0.027058003 0.1293763 -0.019420946 0.026907878
000280 3d 0c 1e bd b9 2e ce 3d 2e 78 00 3d 89 ed 44 bd
       -0.03858589 0.100675054 0.031364612 -0.048078094
000290 cc 9a 38 bd cb 6e 8a bc 10 12 0e 3d 6b da 20 bd
       -0.0450695 -0.016898533 0.034685194 -0.0392708
0002a0 f9 24 11 3e ee 79 36 be 34 b3 ce 3c aa a9 e7 bc
       0.1417426 -0.1781995 0.025231935 -0.028279144
0002b0 78 46 e3 3a d3 21 01 3e 90 6b ed 3d d9 3d 9d bb
       0.0017339727 0.12610559 0.115927815 -0.0047986326
0002c0 71 aa c2 3d f7 bc 6d bd a4 e0 ef 3d 0e cb 10 be
       0.09505165 -0.05804154 0.11712769 -0.14139959
0002d0 80 f8 0b be e3 ef b4 bd be d2 f1 3d 2d f9 16 3d
       -0.13669014 -0.08834817 0.11807774 0.036858726
0002e0 a1 1e 09 3e 3e 07 86 3d 43 75 d3 3d 60 27 64 bd
       0.1339059 0.0654435 0.103251 -0.055701613
0002f0 f2 63 15 3e 44 11 22 bd e1 dc a7 3d 33 ee da bd
       0.14588907 -0.039567247 0.08196426 -0.10689964
000300 6e 4e e1 3d 34 80 ba bd 8a 52 1b bd 5b 5b 05 be
       0.110012874 -0.09106484 -0.037920512 -0.1302313
000310 01 2d 73 3d b4 a5 fa bd a5 12 c9 3d e3 1a f9 3c
       0.05936909 -0.122386366 0.09818009 0.030408328
000320 da 0f ef 3d 4d 7c 05 be ff bf 00 3d 0c b5 3d 3d
       0.11672945 -0.13035698 0.0314331 0.046315238
000330 dc bb be 3c fa 24 ca bc 56 39 c8 3c ff c6 c2 3d
       0.023282938 -0.024675835 0.024441402 0.09510612
000340 69 c5 43 3d a1 9f 3a 3d 28 b1 34 bd 06 03 9e bc
       0.047795687 0.04556239 -0.044114262 -0.019288551
000350 c2 08 8a bd 0f 91 cc 3d f0 c0 bc 3d ec 89 06 bd
       -0.06739952 0.09988605 0.092164874 -0.032846376
000360 27 f7 c1 3c f0 87 d7 3d 25 4c 4a bd 32 45 80 bd
       0.023677422 0.10523975 -0.049389023 -0.06263198
000370 1b 74 fd 3d 9b 32 9c 3d 93 4e b7 bd 38 db 82 bd
       0.12375661 0.0762684 -0.08950534 -0.06389469
000380 a2 ca f5 3c 70 e2 ff bd bd c0 a8 bc 6d 63 e0 bc
       0.03000385 -0.124943614 -0.020599717 -0.02739116
000390 4c f6 b9 3c 14 a4 91 3d 4b 30 bc 3d 9a 81 24 3d
       0.022700451 0.071113735 0.09188899 0.04016266
0003a0 72 49 de bd f7 f8 2f 3e dd 75 80 3b 27 b0 9e bd
       -0.10853852 0.17184816 0.0039203004 -0.07748442
0003b0 45 fd 12 3e ac 68 c0 3d f2 16 07 3d 08 1e 4a 3e
       0.14354427 0.093949646 0.032980867 0.19738019
0003c0 2e d9 77 3c d7 a6 ed bc f7 77 a0 3d d0 80 3c 3b
       0.015127463 -0.02901022 0.078353815 0.0028763302
0003d0 29 28 e0 bc 67 97 18 ba ca 5a 87 3d 40 7d 35 3d
       -0.0273629 -0.00058209006 0.066091135 0.0443089
0003e0 ab 15 b2 bd 77 85 2b bd 5b 17 0a be e8 97 4b bd
       -0.08695539 -0.04187533 -0.13485472 -0.049705416
0003f0 ae 2b 96 bd cb f0 3f 3d 6c 8f 86 3d db 13 13 bd
       -0.0733255 0.046860497 0.06570324 -0.035907608

net.6.bias f4 [128]
000000 84 14 27 3c 29 8d df bc 75 27 74 bc f7 84 0f bd
       0.010197762 -0.02728899 -0.014901985 -0.035038915
000010 ee 69 84 bc 65 2e 56 bd 80 4f 51 bd a9 77 19 3d
       -0.016163792 -0.05229034 -0.051101208 0.037467632
000020 1a a5 b9 bc bc 44 4b 3b ab d9 c1 ba 2f e2 1e bd
       -0.022661734 0.003101631 -0.0014789602 -0.038789924
000030 2d ca 33 3e ed ab 83 3d ec b7 d9 bc 4a 6b 82 ba
       0.17557593 0.064292766 -0.026576959 -0.0009950188
000040 e3 da fa bc 1a 5e 2c 3d d3 64 b4 bc b2 d8 8c 3d
       -0.030621951 0.04208193 -0.022020733 0.06877269
000050 f1 a8 c0 bc 0d 2f 8b bd 4f 86 1e 3d 00 5d 17 bd
       -0.023518058 -0.067960836 0.038702305 -0.036953926
000060 3d e8 41 bd 07 cd 33 bc 2f cc d6 bc 6e ac 03 bd
       -0.04734062 -0.010974175 -0.02622041 -0.032146864
000070 66 6a ff 3c 45 45 37 bd fb 7c 46 bd a5 fb 8e ba
       0.031178664 -0.044743795 -0.048459034 -0.0010908736
000080 0f e6 e7 3d d4 3b cb 3d 0c 1c 04 3e 76 7d 97 3d
       0.11323177 0.09923521 0.12901324 0.07396977
000090 8b 60 f8 bc 92 c3 65 bc de ce 76 3e 34 43 b5 3c
       -0.030319473 -0.014023678 0.24102351 0.022126772
0000a0 53 da 1e 3d a1 d1 64 bd de 30 2b bc 67 ed 3c 3c
       0.03878243 -0.05586398 -0.010448663 0.0115312105
0000b0 41 0c 9f 3c 87 b9 65 bd d5 6d 18 3b 93 d8 40 3c
       0.019415023 -0.056085136 0.0023258824 0.011770385
0000c0 54 c5 b9 bc df a8 a8 3d 8e 9a 06 be b5 b4 55 3d
       -0.022677101 0.082353346 -0.13144895 0.05217429
0000d0 0d 27 e5 bc 5f e7 11 bc 80 dc fe ba 61 dd ce 3b
       -0.027972722 -0.008905261 -0.0019444376 0.0063130115
0000e0 b1 2a 66 bd fc cf a9 bc dc b5 77 bd 1a 11 8e 3e
       -0.056193057 -0.020729057 -0.06047617 0.27747422
0000f0 b4 7a 8d bc 24 1c 0c 3c 50 e7 b1 3d 51 b9 61 bc
       -0.017270423 0.008551631 0.086866975 -0.013777093
000100 27 9d ae bc ff 9e 9d bc 0a 79 6f bc 5f b2 f9 bc
       -0.02131517 -0.019240854 -0.01461626 -0.030480562
000110 bf 38 9a 3d 9c f1 20 bc 69 bc 99 3d 29 74 58 3d
       0.07530355 -0.009823229 0.075066395 0.052845154
000120 d5 66 1b bc 83 5f df 3d 3b 93 6a bc b3 17 a6 bc
       -0.009484966 0.10906889 -0.014317329 -0.020274973
000130 90 54 3d bd 69 72 79 3c 5d 50 db 3b 41 3a 1a 3d
       -0.046223223 0.015225031 0.0066929297 0.03765321
000140 26 92 c7 3d 4e e2 db 3c 14 c6 b0 3d 33 f0 62 3b
       0.097446725 0.026841309 0.086315304 0.0034628033
000150 0f b5 ae 3e d0 d9 c5 bd 53 ef f9 bc b1 19 d9 bb
       0.34122512 -0.09660685 -0.030509626 -0.006625377
000160 9e c3 15 3d 3d 8c 9a 3b 23 32 ef bc a4 25 a2 3d
       0.03656351 0.0047164247 -0.029198712 0.07917336
000170 87 e8 f2 3d 3e 03 79 3d 36 3a 1a bc 83 ab ed 3b
       0.11860757 0.060794108 -0.009413293 0.007253112
000180 b9 9b 0f bd 37 ed 90 3c b2 0f 07 bd ab ed 9a 3d
       -0.035060618 0.017691238 -0.032973953 0.07564863
000190 5e 3e a0 bc c8 ae b6 bc 3f 08 70 bc 5c bf 55 bd
       -0.019560989 -0.02230014 -0.0146504035 -0.052184448
0001a0 6f 9e 33 3c 9a d5 70 3d b5 06 aa bc fd 2d 1a 3d
       0.0109630665 0.058797456 -0.020755151 0.037641514
0001b0 66 5b ac 3c 9d 55 60 bc 64 0b 2d be 5d de a6 3d
       0.021039676 -0.013692287 -0.16898876 0.08147881
0001c0 a7 1e 19 bb 18 84 00 bd 65 ce 6e 3d 23 60 89 3d
       -0.0023364217 -0.031375974 0.058302302 0.0670779
0001d0 4d e6 02 bd 9a 18 91 3d ea ed cc 3c 0e 69 11 bd
       -0.031957913 0.070847705 0.02501579 -0.03550058
0001e0 c7 76 70 bc ae 44 4d bd 10 2d c8 bc 3e ab 7c 3c
       -0.014676756 -0.050114326 -0.02443555 0.015421687
0001f0 f7 3e cf bb 0e 4c 86 bd 4c 88 20 be 95 51 c3 bb
       -0.0063246447 -0.06557475 -0.15676993 -0.005960653

net.8.weight f4 [1, 128]
000000 11 3e 3c bc e2 aa 89 bd 8e 97 47 ba 90 42 5e bd
       -0.011489407 -0.067220464 -0.0007613831 -0.054262698
000010 5d a1 16 3d ea 22 cd 3c eb 24 f9 bb 11 98 df 3b
       0.03677498 0.025041062 -0.007603278 0.0068235477
000020 0b ba 43 3b c8 f0 d1 3d 37 56 db 3d 8e 43 4a bd
       0.002986553 0.102510035 0.107098036 -0.04938083
000030 77 a2 05 3f 18 99 25 3d 10 3c f8 bc 95 a8 90 bd
       0.52201027 0.040429205 -0.030302078 -0.070634045
000040 7a 38 50 3e 0c 0a 2b 3b 78 07 0e 3b cc 71 04 3d
       0.20334044 0.0026098518 0.0021671932 0.032335088
000050 0e 0a c2 be 80 33 31 3d d4 94 37 3c ab 8f fb 3c
       -0.37898296 0.043262005 0.011204917 0.030708155
000060 c8 9a 39 39 29 39 5c 3d c5 88 04 3c 8e af 8a 3d
       0.00017700635 0.05376545 0.008089249 0.06771766
000070 b7 e7 83 ba 4e f4 21 3e d3 71 71 3c 96 53 bd bc
       -0.0010063563 0.15815851 0.01473661 -0.023111146
000080 dc 19 1c 3c 50 21 11 bc c7 53 ca 3d 49 9d ff 3c
       0.00952765 -0.00885804 0.098792605 0.03120293
000090 58 fa 48 ba 78 1a 20 3d c8 9e 1e 3e ef 68 05 be
       -0.00076666987 0.039087743 0.15490258 -0.1302831
0000a0 f7 51 a3 3d 0c 77 8c 3b 69 23 ec bb 81 da e2 bd
       0.07974618 0.0042866524 -0.0072063697 -0.110768326
0000b0 85 0d 1c bc ee ed 0d bc 90 b3 c7 3d d1 af 68 3b
       -0.009524708 -0.008662684 0.09751046 0.0035505185
0000c0 ee 8e b1 bd e8 dd 1b 3e 0b 7b fe bb 1e 8a 99 3d
       -0.0866984 0.1522137 -0.0077661327 0.07497047
0000d0 58 5d b3 3d d6 85 ea 3c 8b 8e 41 3c 1e c6 6b be
       0.08758038 0.028628271 0.01181377 -0.23024794
0000e0 65 3e ce 3d 6f 52 51 3c b5 92 5d 3a 72 56 c8 3d
       0.100704946 0.012776001 0.0008452342 0.09782113
0000f0 c2 1a 97 3d 0c 80 d7 3c 73 4e 6a 3d 16 63 4e bd
       0.073781505 0.026306175 0.05720372 -0.050387464
000100 ed d7 48 3d 55 dd 20 3e 1b 79 9f 3a 00 7b 8f bd
       0.049034048 0.15709431 0.001216683 -0.07005882
000110 b8 96 73 3c 6b cf c4 b9 e7 2e 0d 3d d4 35 81 3b
       0.014867477 -0.00037538572 0.034468558 0.0039431844
000120 13 44 b2 3c ab d8 1c 3d 58 84 1a 3e e7 b3 44 bc
       0.021760976 0.03829257 0.15089548 -0.012005783
000130 01 9e 84 3d 75 37 27 3c 96 be d4 3b f1 50 71 3c
       0.06475449 0.010206093 0.006492446 0.014728771
000140 24 ec d7 3d 39 4a d9 bc 2f 1d 8a 3d c4 21 98 3b
       0.10543087 -0.02652465 0.067438476 0.004642697
000150 a1 4b 8c 3e 2a ee f3 bc e7 ac 15 be 19 6a 93 3b
       0.2740145 -0.029776651 -0.14616738 0.004498732
000160 44 d0 a5 3c 07 f7 66 3c 8c e2 54 bc dd 56 f8 3c
       0.02024091 0.014096982 -0.012993466 0.030314857
000170 bf 36 05 3d 4e f6 12 3d d9 3e a1 3c ee ad 2d 3d
       0.032522913 0.035879426 0.019683288 0.0424022
000180 7b 27 c1 3b 88 01 ec 3d 89 58 f8 bd d6 d4 1b 3d
       0.005894599 0.115237296 -0.12126262 0.038044773
000190 91 df 8b 3a 83 fa bb 3b d3 56 85 ba 71 43 e3 bd
       0.0010671486 0.0057366504 -0.001017297 -0.11096848
0001a0 a7 8c 85 3c 52 8c 59 3c 32 2e bc 3d e4 54 fa 3d
       0.01630242 0.013278084 0.091884986 0.12223223
0001b0 17 0f f4 ba 72 d7 f8 3d 99 72 17 bf 11 aa b6 3d
       -0.001862022 0.12150468 -0.5915924 0.08919156
0001c0 49 03 99 3c 16 66 79 3d 79 d4 ca 3d 05 21 96 ba
       0.018678324 0.060888372 0.09903807 -0.0011453932
0001d0 09 85 3a be 9d 6f e9 3b ee 15 d0 3b db 44 49 bd
       -0.18214811 0.007123901 0.0063502705 -0.04913793
0001e0 6f 19 88 3d dc 6f 0a 3c 16 7b af bb 19 99 33 3c
       0.06645476 0.008449521 -0.005355249 0.010961794
0001f0 7c 34 4a be 56 40 4d 3d 32 3d 1e 3e 51 f1 fc 3d
       -0.19746584 0.050110184 0.15453032 0.12350715
