modelparameter/willie_lognormal12_6.pth (torch, 208803 bytes, 9 tensors)

net.0.weight f4 [128, 12]
000000 56 8f 92 3d 27 e3 96 bd 6f de df bc 16 80 6b bd
       0.071562454 -0.073675446 -0.027327744 -0.0574952
000010 88 c4 45 3e 4a f7 7d 3c 12 1a f0 bd 6f cf 36 3d
       0.19313252 0.015500853 -0.117237225 0.044631418
000020 81 05 12 bd 8f 5c 83 bd b7 42 88 be 18 c6 cb 3e
       -0.03564978 -0.064141385 -0.266134 0.3979957
000030 e3 2f f0 bd 8f 12 46 3e 6e 78 2e be 53 fa ed 3d
       -0.11727884 0.19343017 -0.17038128 0.11620011
000040 0b 94 70 bd 2e 99 ee bc 66 a1 51 3e d6 fe de 3d
       -0.058734935 -0.029125776 0.20471725 0.1088845
000050 f8 d2 d7 bd 04 4c e6 bd bf a1 8d 3d 6d 1a 65 3d
       -0.10538286 -0.112449676 0.06915616 0.055933405
000060 04 8a 64 bd a1 6b 13 3e be 2d 4a 3b 9c eb a0 3d
       -0.055795684 0.14396526 0.0030850018 0.07857439
000070 78 0f 7d bd 59 75 50 bd 1d 81 ae 3d 47 9c 90 be
       -0.06178233 -0.05089316 0.0852072 -0.2824423
000080 7f 68 fa bd 4e 1d 9c 3e 37 44 ef bd b1 7a 57 3d
       -0.12226962 0.30491108 -0.11682933 0.052607242
000090 72 a0 10 3d ef 01 98 be 17 6b 83 3e 20 94 97 bd
       0.035309263 -0.29688975 0.2566764 -0.074012995
0000a0 3c ca 04 bd 0d 32 cf 3d a4 6c 72 3e 41 2d 12 be
       -0.03241943 0.10116968 0.23674256 -0.14275075
0000b0 bf b3 01 be 02 1a 35 be 8b bd 59 3d 4f e9 05 3e
       -0.12666224 -0.17685702 0.053159278 0.13077281
0000c0 61 e3 0f 3b c3 35 63 3d f1 54 6d 3e a2 31 64 bc
       0.0021955597 0.055471193 0.23176934 -0.013927849
0000d0 c0 8e 3e be 52 a1 92 bd 22 14 9e 3d 09 ae c0 bd
       -0.18609142 -0.07159676 0.07718684 -0.094081946
0000e0 88 1f 02 3e f3 9b 47 3d 59 d5 a0 3d 3e 74 6f be
       0.1270734 0.04873271 0.07853193 -0.23384187
0000f0 6f e7 49 bd 68 65 e3 3d 6c d7 33 be 0b 65 9c be
       -0.049292978 0.11103326 -0.17562646 -0.3054584
000100 0b ae 4a bb f9 76 c7 bd 93 f7 94 bd 50 17 c1 3e
       -0.0030926492 -0.09739489 -0.072737835 0.377131
000110 20 b2 bb 3d 46 65 3b bd 24 b4 28 3e 90 d4 0d 3e
       0.09164834 -0.04575088 0.16474968 0.13850617
000120 cb 6b 44 3e fa f3 ad 3d 7d d9 d7 3d 5d 17 72 3e
       0.19181745 0.084938005 0.105395295 0.23641725
000130 e8 f6 7b 3e 4a a4 6d be 0a 57 14 bc 1d e8 18 3e
       0.24605906 -0.23207203 -0.009053955 0.14932294
000140 c3 33 75 bd 5c c0 46 bd a2 06 bb be c7 c9 80 be
       -0.059863817 -0.048523292 -0.36528498 -0.25153944
000150 9c aa f2 bd 77 54 92 3e ee 5e 1c 3e d2 45 1b bd
       -0.118489474 0.28580067 0.15270588 -0.037908383
000160 20 b4 c0 bd 50 65 47 3e f1 51 61 be 9e c3 44 3d
       -0.09409356 0.19472241 -0.22003914 0.048038118
000170 30 b1 76 be 3a da 2b 3e a9 e7 82 bd 0a 80 6b bd
       -0.24091029 0.16782466 -0.06391842 -0.057495154
000180 17 f5 51 3c 4a db a4 bd a9 d8 b5 bd c4 c4 8a 3d
       0.012814782 -0.080496386 -0.08879215 0.06775811
000190 4d b3 0c 3a 1a d1 09 3e 96 c3 91 3e f5 10 45 bd
       0.0005367294 0.13458672 0.28469533 -0.048111875
0001a0 22 e8 0b 3d 4a a0 96 3c da 75 0e be 07 24 07 be
       0.034156926 0.018386979 -0.13912144 -0.13197337
0001b0 03 4a 01 3e 51 65 c9 bd 56 a8 4f 3d 99 92 3d bd
       0.1262589 -0.09833778 0.050697647 -0.046282385
0001c0 7d c1 d6 be 1c 81 c3 3d 75 f3 18 3e 71 eb d4 bd
       -0.41944495 0.0954611 0.14936621 -0.103964694
0001d0 0f 02 bb 3d ea b2 af 3d 1d 1e 75 3d e1 29 3b 3d
       0.09131252 0.08579047 0.05984317 0.045694236
0001e0 9a e8 77 be d8 2d 13 be 3e 61 a2 bd 88 3a d1 be
       -0.24209824 -0.14372957 -0.07928704 -0.40864968
0001f0 2b e6 05 3e 5d d7 cd 3e d4 78 cb 3d 2f 88 41 3e
       0.13076083 0.40203372 0.099351555 0.18899606
000200 a0 80 37 3e ff eb c0 3d 2d 1a f9 3d f5 98 43 be
       0.1792016 0.09420013 0.12163196 -0.19101317
000210 61 e4 2f 3e cb 52 99 bd b2 29 c7 bc 26 94 fb 3d
       0.17176963 -0.07486495 -0.024311874 0.122841164
000220 1e 87 5b 3e 71 98 e3 bc 05 8e 22 be bd 98 e7 3d
       0.21438262 -0.02778265 -0.15874489 0.113084294
000230 69 5d 85 bd 5f 60 99 3d 93 7a 75 be c7 94 ad 3d
       -0.06511957 0.074890845 -0.2397254 0.08475643
000240 90 0d 9d bd 91 e6 52 3e 9a 55 2c bc 0e b1 c2 3e
       -0.076686025 0.20595767 -0.010518456 0.38025707
000250 8a 8c 6e 3d ee 30 3e be ab b8 83 be c9 9a ac bd
       0.058239497 -0.18573353 -0.25726828 -0.084279604
000260 b7 98 85 be 56 6e b8 3d b6 33 23 3e c5 97 5a 3d
       -0.26093075 0.0900542 0.15937695 0.053367395
000270 97 8f 81 bb 4b b0 9a be ba 42 29 3e 99 b3 25 be
       -0.003953885 -0.30212626 0.1652936 -0.16181792
000280 b6 56 91 bd 2b 5d b5 bd e9 1a 7d 3d ee 07 5e be
       -0.07096617 -0.08855661 0.06179324 -0.21682712
000290 7a 5f 3b 3e 3f 6d 9a ba 9c 5e 89 3e ca 1d 3f 3e
       0.1829814 -0.0011781825 0.26829994 0.18663707
0002a0 68 a8 59 bd 35 2f 09 3e f7 10 0d be 0f 94 dc bd
       -0.05313912 0.13396914 -0.13776003 -0.107704274
0002b0 53 9a b7 3d 06 e0 d4 bd b9 cb af bd 56 7f d1 bd
       0.08964982 -0.103942916 -0.08583779 -0.102293655
0002c0 e8 cb d9 3b b0 e7 0f 3e e1 dc 4b 3c f2 ab 80 3d
       0.006646622 0.14053226 0.012442798 0.06282796
0002d0 2c 62 42 3c 6d 06 67 3e e8 97 4b 3e bb d2 2a 3c
       0.011864226 0.22561045 0.19882166 0.010426219
0002e0 fc 85 ff bc 53 b4 b4 bd 26 89 84 3e dc 7e 7f bd
       -0.031191818 -0.088234566 0.25885886 -0.062376842
0002f0 2a 7e 33 bd 76 ca d1 bd ed 0e 54 be c7 7b 98 bd
       -0.04382149 -0.102436945 -0.20708819 -0.07445484
000300 91 53 3e 3d 0b 43 82 3d 4f 27 fc bd fc e3 74 be
       0.046466414 0.06360444 -0.12312185 -0.23915094
000310 0e 7b 21 3e 46 5f e1 bd 00 27 b6 3e 1e 5c 41 3e
       0.15769598 -0.110045 0.3557663 0.18882796
000320 35 dc 95 bc 15 31 ce be 8d 91 45 3e 9b f5 1f bd
       -0.01829348 -0.40271822 0.19293804 -0.039052587
000330 c1 45 3d 3e 99 e5 a9 3d 32 bc 2d be 2e d3 39 be
       0.1848364 0.082957454 -0.16966322 -0.18146965
000340 8f 92 bd 3d 85 39 fc bd e1 6e b5 bd 26 50 bd bc
       0.092564695 -0.123156585 -0.08859039 -0.023109507
000350 d6 94 06 3e a8 e5 b4 3e 9a cb f1 bd 00 76 e2 bd
       0.13142714 0.35331464 -0.11806412 -0.11057663
000360 27 f1 9e bd 40 0e dd 3b 7e bc 88 bd f5 f9 4a 3e
       -0.0776084 0.0067460835 -0.06676577 0.19821914
000370 3e 7a 43 be b8 09 5a bd 2c 31 eb bd 43 0d 67 3e
       -0.190896 -0.053231925 -0.11483988 0.22563653
000380 29 42 71 3e 5a f4 41 be 7b 35 d1 3b ce 8e b2 3c
       0.23560394 -0.18940869 0.006384549 0.02179661
000390 17 37 90 3e d7 44 b0 bd ac a2 a4 bd 52 9f 34 3e
       0.2816703 -0.0860688 -0.0803884 0.17638901
0003a0 49 d0 e0 bd 85 a7 3b be 0b 8e 0c 3c 4f ce 8e bc
       -0.10977227 -0.18325622 0.008578788 -0.01743236
0003b0 39 f3 3a 3e 7f 59 0f bd 55 50 0e bd 9b a3 ba bb
       0.18256845 -0.03499746 -0.03474458 -0.005695773
0003c0 9e 4e 02 ba 57 83 01 be 82 1b e2 bd d6 98 71 3c
       -0.00049708213 -0.12647758 -0.11040403 0.014745912
0003d0 7a 1f 5f bd 0e f9 5e 3e ac 43 f9 bd 16 ab 1d be
       -0.054473378 0.21774694 -0.121711105 -0.15397295
0003e0 63 ee 95 3e 98 54 0f 3e 4b 4d 80 bd f9 8a 00 3c
       0.29283437 0.13997114 -0.062647425 0.007845634
0003f0 67 45 65 be c0 7c 39 bd 85 8d 83 bc 6c 44 ed 3a
       -0.22389756 -0.045284986 -0.016058693 0.0018102056

net.0.bias f4 [128]
000000 a3 1d 22 3d 0d 49 12 3e e9 17 db 3c e4 df c7 3c
       0.039579045 0.14285679 0.0267448 0.024398752
000010 7c cf 81 3d 9a 5a 9d 3c b0 b1 5f 3d ed 05 e1 bd
       0.06338403 0.019208241 0.054612815 -0.109874584
000020 0f 0b ec bc a5 07 90 3c 26 7f ae 3d 29 de 79 3e
       -0.028813867 0.01758177 0.085203454 0.24401154
000030 eb 0d 89 3d be 97 8f 3c fb ab 5c 3e ea 3d 22 bd
       0.06692108 0.017528411 0.2154998 -0.039609827
000040 bf 4c 0c 3d fc 03 18 3d 7a fa 89 bd 3a bb 88 3c
       0.03425288 0.037113175 -0.06737228 0.01669084
000050 20 a8 45 3d 03 29 94 3a 99 a5 62 3e 95 13 71 3e
       0.04825604 0.0011303726 0.22133483 0.23542626
000060 33 df b6 bc aa 90 24 3d 1a 71 65 3d 7f 85 f7 bb
       -0.022323227 0.040177025 0.056016065 -0.007553756
000070 66 87 b4 3c bf 6b a0 3d bc 28 fc 3c 89 ee f6 3d
       0.02203722 0.07833051 0.030781142 0.12057216
000080 65 7f db 3b 43 24 65 bc 46 3b 67 3e 8f b7 11 3e
       0.006698536 -0.013985696 0.22581205 0.14230178
000090 80 ee a7 3c 0d 2d 1f 3d ed 2b df 3b 0f 73 1a 3d
       0.020499468 0.038861323 0.0068106563 0.037707385
0000a0 91 2c 35 bd 96 c9 22 3e 30 e9 1a 3d 33 c4 81 3e
       -0.044231955 0.15897211 0.03782004 0.25345
0000b0 68 dd 1c 3c ae 90 02 3c 3a a9 8d 3d 9f c2 18 3e
       0.009574272 0.007969065 0.06917043 0.14917992
0000c0 49 a5 6d 3d 92 ee cf 3d 5a e8 44 3d 04 b0 ea 3c
       0.058018956 0.101529256 0.04807315 0.028648384
0000d0 a7 02 10 3c f3 5a be 3d 82 5c 33 3c 60 cc 4f bd
       0.008789695 0.09294691 0.010947349 -0.050732017
0000e0 46 73 88 3d 15 c6 3b 3d fd 68 15 3d d1 56 25 3e
       0.06662612 0.045843203 0.036477078 0.16146399
0000f0 12 a8 88 3d 06 1f 4b 3e ce d6 8a bd 12 78 10 3c
       0.06672682 0.19836053 -0.06779252 0.0088176895
000100 78 1e 90 3c 1a 7f 52 bd 20 62 3b 3e 7e 30 c2 3d
       0.017592654 -0.051390745 0.1829915 0.094819054
000110 24 65 fe 3d 68 63 42 3e 86 61 af 3d 3c 67 0b 3e
       0.12421635 0.18983233 0.08563523 0.136136
000120 41 d4 8a bc 9a 47 08 3d b3 2c d0 3c 85 2e 22 3d
       -0.016946914 0.03327141 0.02541194 0.039595146
000130 66 6a c8 3d 7d e3 db 3c a3 bc 02 3e 6b b7 a5 3d
       0.09785919 0.026841873 0.12767272 0.08091625
000140 07 9b 1e bc 97 fa b8 3d 83 9d 12 3d 93 5d 5a 3d
       -0.009680516 0.09032171 0.035794746 0.053311896
000150 7e 90 fd 3c 0f 70 45 bd 7d d6 66 3d f7 9b bb 3c
       0.030952688 -0.04820257 0.056356896 0.022901518
000160 5c 03 90 3d b0 8f 4b 3d f4 56 05 3d 92 a7 88 3d
       0.07031891 0.049697578 0.032553628 0.066725865
000170 e8 da 99 3e d4 81 2d 3d a1 16 78 3d f4 5a 9a bd
       0.30049825 0.042360142 0.060568456 -0.07536879
000180 13 be 8d 3d f6 b7 96 3e 4a 68 08 3d 4f de 3f 3d
       0.069210194 0.29437226 0.033302583 0.04684287
000190 34 bb 18 3d 40 44 31 3d 2c 33 06 3d 17 12 83 3e
       0.037287906 0.04327798 0.032763645 0.2559974
0001a0 12 64 92 3d 90 ea a2 3e 51 c2 74 3e c9 7f 99 3e
       0.07147993 0.31819582 0.23902251 0.29980305
0001b0 76 4c 3e bc df e7 4e 3e e9 68 63 bc 33 95 c5 bc
       -0.011614909 0.2020564 -0.013879993 -0.024118995
0001c0 f5 e7 34 3d 96 6f 72 3e 14 e6 15 3e d0 ba 38 3d
       0.044166524 0.23675379 0.14638549 0.045100033
0001d0 0b 3d c1 b9 89 2e 12 3e 9d 54 74 3d ba 18 30 bd
       -0.0003685731 0.14275564 0.059651006 -0.04299233
0001e0 00 da 9a 3c e2 5f cf 3c d1 11 9c 3d 17 7c 0c 3e
       0.018902779 0.025314275 0.07620586 0.13719212
0001f0 3f ee 9d 3e 58 0b f7 bb 6f 90 a2 bc 26 02 4a 3e
       0.3084583 -0.007539194 -0.019844262 0.19727382

net.2.weight f4 [128, 128]
000000 1c 01 e0 3d 19 b7 04 3c d6 a8 53 bc 9c ba 77 3d
       0.109377116 0.0081002945 -0.012918672 0.0604807
000010 88 7c 81 bd 19 25 d0 3d fd be 16 bd e8 83 45 bd
       -0.063225806 0.10163326 -0.036803234 -0.0482215
000020 77 37 96 3d 16 b3 a8 bd a0 b4 65 bd 6b 52 5d 3d
       0.07334798 -0.08237283 -0.05608046 0.054033678
000030 b8 0a 3e 3d 53 f9 0e 3d 20 1e 3d 3d 79 54 9f 3d
       0.04639694 0.034905743 0.046171308 0.07779784
000040 bc c3 5e 3e 0b a7 63 3e c1 3c 06 3e 1d 3c 0d 3c
       0.21754354 0.2223169 0.13109113 0.008620289
000050 75 c4 04 be 3a 19 0d 3e bb 7e 0e 3e b7 c4 1c bd
       -0.12965567 0.13779154 0.13915531 -0.03827354
000060 fb 47 06 be 38 b3 42 be 68 44 0c bc ea b6 10 be
       -0.13113396 -0.19013679 -0.008561231 -0.14132276
000070 db 0a 25 3e a9 dd 0f be 17 15 ee 3c 52 b2 f5 3d
       0.16117422 -0.140494 0.02906279 0.119969025
000080 0e 06 61 bd b4 e6 01 3e 0c a7 21 bc 45 ed 38 3e
       -0.054937415 0.12685663 -0.009866487 0.18059261
000090 41 65 05 bd 7f f4 d0 3d 81 0e 20 3c 9e 48 b0 bc
       -0.032567266 0.10202884 0.009769083 -0.021519002
0000a0 da b6 8f 3d 60 8e f9 bd 4b 9c d8 3d 2f eb 1e 3d
       0.07017298 -0.12185359 0.105766855 0.038798507
0000b0 2b 4a 65 bd 53 3c 01 be 32 63 23 bd 70 b1 93 3d
       -0.055978935 -0.12620668 -0.039889522 0.07211578
0000c0 5a 9c 41 bd 0e fd 89 bd be e7 7f 3d 70 8f 8e 3d
       -0.04726825 -0.067377195 0.062476866 0.06960952
0000d0 b1 26 09 3e c2 05 68 3d 7a 10 1c 3e 2f c1 48 be
       0.13393666 0.056646116 0.1524066 -0.19604944
0000e0 1d f2 78 bd 8f 5c 8a 3d e1 e5 fa 3d 6a ad 6a bd
       -0.060777772 0.067559354 0.12250877 -0.057294287
0000f0 f5 71 24 3e 61 c7 92 bd d8 d5 ef bd 10 7e ab 3d
       0.16059096 -0.07166935 -0.11710709 0.08373654
000100 d1 b3 43 3d f9 6c de bd 03 64 ce bd b8 87 29 3d
       0.04777891 -0.10860629 -0.100776695 0.041389197
000110 6b c4 74 3d 72 47 9f bc d1 63 e8 bd 50 70 c2 bd
       0.05975763 -0.019443247 -0.113471635 -0.09494078
000120 65 48 0f 3d 33 ef e7 bd a7 4c 25 3d 13 4c 63 bd
       0.03498115 -0.113249205 0.040356304 -0.055492472
000130 5e 98 bd bd b9 29 5f bc 67 c9 41 3d b1 c8 93 bd
       -0.09257577 -0.013620787 0.047311213 -0.07216013
000140 f4 bd cc 3d 59 75 84 be db d5 1e be 53 0c c4 bc
       0.09997168 -0.2587078 -0.15511267 -0.023931658
000150 9e f6 78 3d 40 82 9d 3e 61 c6 22 3e a6 f8 31 3e
       0.060782067 0.30763435 0.15895988 0.17380008
000160 4a d8 97 3d 82 28 96 bd d0 e7 9f bd 94 a9 04 3e
       0.07414301 -0.07331945 -0.078078866 0.12955314
000170 f4 db fe bd 75 0b 31 3d d8 f7 e0 3d 99 13 aa bd
       -0.124442965 0.043223817 0.109847724 -0.08304519
000180 ab 74 b6 3d ba 95 48 bd bc 86 e1 3d 88 08 33 be
       0.089089714 -0.048970915 0.11012027 -0.17483723
000190 ec 94 0f bd 98 59 3c be 11 73 27 bc 02 03 aa bd
       -0.035054132 -0.18393552 -0.010220305 -0.08301355
0001a0 77 e4 41 bd 07 25 3c 3e 0b 76 4c bd 0f 4e 43 bc
       -0.04733702 0.183735 -0.049917262 -0.011920466
0001b0 ca 34 93 bd 0e fc da 3c 38 95 90 be 0a f7 d2 3d
       -0.07187803 0.026731517 -0.28238845 0.10301025
0001c0 8d 3e 79 3e 08 c5 f1 bd ab c5 c0 bd 89 56 00 bb
       0.24340267 -0.11805159 -0.09412702 -0.001958283
0001d0 48 24 98 3c d8 27 68 3e 64 bc 8f 3c b3 32 92 3d
       0.018571988 0.22671449 0.017545886 0.07138576
0001e0 d3 86 86 3e 30 7f 6a 3e ed 09 34 3e 7e dc 21 bd
       0.26274738 0.2290008 0.17581911 -0.03951692
0001f0 f3 76 b4 3d a9 15 35 be e0 97 00 3e 9d 25 23 3d
       0.0881175 -0.17684044 0.12557936 0.039830793
000200 35 9e 3e 3d 91 e4 ca 3d f9 79 1e 3e 77 e4 42 3d
       0.046537597 0.09906877 0.15476216 0.047581162
000210 a9 42 5c 3a f4 7a 8e bd 7a db df bd 48 21 86 bd
       0.0008402267 -0.06957045 -0.10930534 -0.06549317
000220 2e a4 01 3e 9f 8b ab 3d e2 ea e4 bd 6c 41 5f 3d
       0.12660286 0.0837624 -0.11177613 0.05450575
000230 64 14 87 3e 3f 36 02 3e cf bf e6 bd 9c c4 b5 3d
       0.26382744 0.12716006 -0.11267053 0.08875391
000240 00 bf da 3d 62 3e f6 bd e9 7e 67 3c a6 21 0c be
       0.106809616 -0.12023617 0.014129379 -0.13684711
000250 cc 77 cb 3c 6c cc e2 bd dc 3d 13 bd 0d 00 7b bd
       0.024837397 -0.11074147 -0.035947666 -0.061279345
000260 16 08 7f bb 97 4b 3a 3e 27 f1 73 be c6 e8 84 3d
       -0.0038914732 0.18192898 -0.23822461 0.064897105
000270 ac 0d 63 3e aa 3a ec 3c 33 91 62 3d 7b 3c d3 bc
       0.22173184 0.028836567 0.055314254 -0.025785675
000280 97 a3 2e bc 3c 91 3a ba 39 53 65 3d a6 17 6e bd
       -0.01065912 -0.00071169785 0.05598757 -0.05812802
000290 a3 12 de 3d 1e 50 be bd 2f 95 92 3d 85 06 0b 3e
       0.108433984 -0.09292625 0.07157361 0.13576706
0002a0 b6 70 bc 3d 3a 04 de 3d 4b 28 d2 3c 12 56 de 3d
       0.092011854 0.1084065 0.025653979 0.1085626
0002b0 82 58 b1 3d a5 45 5b bd 72 52 22 be 6c 41 93 3c
       0.0865946 -0.053533215 -0.15851763 0.017975532
0002c0 67 67 ed bd 58 c1 c4 bd 9c fa c4 bd 3f 42 ac 3d
       -0.11591988 -0.0960719 -0.096181124 0.08411073
0002d0 2c 2a fe 3d bd 17 1d 3e 9f 70 72 be 67 3b 86 3d
       0.124103874 0.15341087 -0.23675774 0.06554299
0002e0 6c 0b fe 3c d6 24 1a 3e fa ec 02 be a0 31 36 3d
       0.031011306 0.15053114 -0.12785712 0.04448092
0002f0 ee e0 bd bd 6d 35 93 bd b1 48 59 bd 81 92 e2 3c
       -0.092714176 -0.071879245 -0.05304784 0.02765775
000300 16 c8 4e 3d 85 fb 04 3d 6b 69 2c be 5b 2f 3d 3e
       0.050483786 0.03246643 -0.16837089 0.18475096
000310 7c 91 0e 3d 07 3c 01 be 5f b8 02 be 04 c8 a0 bd
       0.034806713 -0.12620555 -0.12765644 -0.0785065
000320 dc ab f2 3b ac 4f a1 3c fd d9 d2 bb 3f ea 1e 3d
       0.007405741 0.01969131 -0.0064346776 0.038797613
000330 4e 18 b1 bd 2b a2 fb 3d 64 ed f8 3d d7 49 20 bc
       -0.08647214 0.122867905 0.12154654 -0.00978323
000340 5a 37 01 3e 09 17 79 be f3 42 bd bc c9 1b 30 be
       0.12618771 -0.24325193 -0.023103213 -0.17198099
000350 55 af 24 be a6 1d b2 3a eb 6e fc 3b e2 5a 10 3e
       -0.16082509 0.0013589158 0.007703652 0.14097169
000360 75 8e 39 3e f0 52 7c 3e 1c cd 6d be a5 d3 08 bd
       0.1812075 0.24641013 -0.23222774 -0.033404965
000370 35 25 97 bb 80 8d ce bd 3e 90 35 3c a1 f3 51 3e
       -0.0046125897 -0.10085583 0.011081753 0.20503093
000380 b4 5d 78 3d 44 b1 81 bd 32 e7 56 bc 48 10 8e bd
       0.060636237 -0.06332639 -0.013116645 -0.06936699
000390 b0 6c 20 3d c4 6d 33 3d 47 1b a5 3d 80 e2 e6 3b
       0.039166152 0.043805853 0.08061843 0.007046044
0003a0 9c 43 9b 3d 69 ad 8a bd df d6 b5 3d a1 81 a8 3d
       0.07581255 -0.067713566 0.08878874 0.0822785
0003b0 d7 81 06 3d 45 65 27 3d db 82 5e bd 68 90 13 be
       0.03283867 0.040868063 -0.054324012 -0.14410555
0003c0 f4 1a 28 3d 6f e4 78 3e 06 42 21 3d 6d d4 7f 3e
       0.04104133 0.2430589 0.039369605 0.24983378
0003d0 9d 1b 58 3d 1d 86 cf 3a 9f 97 28 3a cb 6d 03 3e
       0.05276071 0.0015832816 0.0006431285 0.12834851
0003e0 a7 f6 d1 bc 98 1c dd 3c da aa 88 bd 30 5f fc 3c
       -0.025630308 0.026991174 -0.06673212 0.030807108
0003f0 d8 93 1e bd b3 55 4a 3e 21 22 23 3e 2c 08 25 be
       -0.038715214 0.19759254 0.15930988 -0.16116399

net.2.bias f4 [128]
000000 3a 19 80 bd 7a 89 3f bd 79 6f 6a be d2 d5 48 3c
       -0.062548116 -0.046761967 -0.22894086 0.01225801
000010 7e c1 e0 bd b5 70 f1 bd 5e f1 5f 3c 4e 5b 27 3d
       -0.10974406 -0.11789075 0.013668386 0.04085856
000020 70 f6 03 be b6 96 89 3c da 2f 43 3c 7f e9 df bd
       -0.12886977 0.016795497 0.011913264 -0.10933208
000030 a8 15 1c be f3 78 10 bd d4 1e 49 be da 18 1e 3c
       -0.15242636 -0.035271596 -0.19640666 0.00964948
000040 03 16 a2 bb 67 fb 86 3d 8e 8b 93 3d e9 38 d0 bd
       -0.0049464717 0.0659092 0.07204352 -0.10167105
000050 b3 18 81 3c 48 4d 0c be 7e 6f 60 3d a7 e3 b0 bd
       0.015758848 -0.13701355 0.054793827 -0.08637171
000060 bc d6 59 bb 57 13 da bc 6a 5b 9e 3d c2 4a 0e 3e
       -0.0033239564 -0.02662055 0.077322796 0.13895705
000070 88 98 20 bb 1d 83 29 3d cb aa 71 3d 47 6d ba 3d
       -0.0024504978 0.041384805 0.05900077 0.09102874
000080 ef ef 52 3c ab 56 eb bd 70 71 8b bd 89 79 1f 3e
       0.012874587 -0.1149114 -0.06808746 0.15573706
000090 5c 9e 60 bd 6a 60 5e 3d cb 5e f1 3c 85 e0 b5 bc
       -0.054838523 0.054291166 0.029464146 -0.022201786
0000a0 a9 ca 5d bd b9 2a 45 3d 2a c8 0d bd bc ae 3d bc
       -0.05414835 0.048136447 -0.03461472 -0.011577304
0000b0 37 80 9b bd b0 9d 94 ba cb 6e 20 be cd 2d 21 be
       -0.075928144 -0.0011338498 -0.15667264 -0.15740128
0000c0 83 5d cb bd f3 ea 50 bc bf e3 e5 bd b2 50 55 3d
       -0.09929945 -0.012751329 -0.1122508 0.05207891
0000d0 85 8f 10 be b9 20 c8 3c 8f 04 5f bd 9d c8 42 be
       -0.14117248 0.024429666 -0.054447707 -0.1902184
0000e0 50 6a bf bc 6e 13 56 be 4a 83 96 bc d1 e8 d8 bb
       -0.023366123 -0.2090585 -0.01837315 -0.0066195508
0000f0 ea 3f 9e 3d 05 41 90 3c 3e 16 53 3d 1c 58 48 bc
       0.077270344 0.017609129 0.051534884 -0.012228038
000100 b1 7d 3b bd d3 f8 3a 3d 69 c8 1d 3d 2c 25 d6 3d
       -0.045774166 0.045647454 0.038521204 0.10456309
000110 6f 52 22 3a f9 8f 4c bd d7 bc 14 3d ea 76 85 3d
       0.0006192093 -0.04994199 0.036312904 0.06516822
000120 b4 66 e8 bc 96 1d 94 bc 0e e6 ba 3d 75 f6 14 be
       -0.028369285 -0.018080514 0.09125911 -0.14547141
000130 b6 db ce 3d 04 82 f5 bd 27 2b 16 be d1 a2 84 bc
       0.101005 -0.11987689 -0.14664899 -0.016190918
000140 bd 14 a4 3d 6a b8 06 be ef 4c 79 3d e1 35 97 bc
       0.08011768 -0.13156286 0.060864385 -0.018458309
000150 03 05 8f 3e 6f e8 5a 3c 2d 32 fa 39 45 19 77 3d
       0.2793351 0.013361081 0.000477211 0.060326833
000160 0c f4 09 3d b9 aa 80 be 99 92 c6 bd 3f 81 36 3d
       0.033680007 -0.2513025 -0.0969593 0.044556852
000170 c5 97 ac bc 53 2b 3a be 59 9a b1 bd ed a1 4a 3e
       -0.021068463 -0.1818059 -0.086720176 0.19788332
000180 aa 22 a0 3d 54 f3 4e bd f7 43 56 3e 78 8d 35 3e
       0.07819112 -0.050525025 0.20924364 0.17729747
000190 c4 23 bc bb 66 73 7e be 0c 76 0c bd dd 29 b3 bd
       -0.0057415683 -0.24848709 -0.034292266 -0.08748219
0001a0 0b ba 0a bd 4c f5 92 3d a6 4d 8e 3d 60 33 ab 3d
       -0.03386883 0.07175693 0.06948404 0.083594084
0001b0 1f a0 b5 3e 67 29 49 bd a6 c8 dd bd 51 77 ae bd
       0.35473725 -0.04911175 -0.10829286 -0.085188515
0001c0 76 99 90 3d 6e e4 48 3d d3 2b c5 bc 7f 37 91 3e
       0.0706052 0.049045973 -0.024068749 0.28362653
0001d0 f6 79 92 3d 41 2d fe 3c c6 6d d3 bd bb 89 10 bd
       0.071521685 0.031027438 -0.10323672 -0.0352876
0001e0 90 c6 63 be 58 ff 1e be a5 a2 97 be 97 7b 1e 3e
       -0.22243714 -0.15527093 -0.29616275 0.15476833
0001f0 ac f4 ef 3a c3 85 68 bc 1e fe 8f 3d 1d 74 28 bd
       0.0018307171 -0.0141920475 0.07030891 -0.04112636

net.4.weight f4 [128, 128]
000000 e7 f0 4f 3d 58 b7 09 be 61 8f c3 bd 1a 31 3c bc
       0.05076685 -0.13448846 -0.09548832 -0.011486316
000010 4b c3 40 bd 59 44 6b 3e 86 f7 9a 3d 1e 31 df bd
       -0.047061246 0.22975291 0.075667426 -0.1089804
000020 3b bb 21 3d 7e 15 da bd 1d 9b 8b bd 9e ae 98 3d
       0.039485198 -0.106486306 -0.06816695 0.074551806
000030 f0 bc be 3d 77 cb 5e 3e d8 8a cd 3d 88 d9 5a be
       0.09313381 0.21757303 0.10036248 -0.21372044
000040 47 69 1a be 94 92 57 bd 4d d7 f8 3d bc 34 0a bc
       -0.15079223 -0.052630022 0.1215044 -0.008435424
000050 7a 66 99 bd b1 3d c7 bd 26 91 52 3e 85 75 ae ba
       -0.07490249 -0.097285636 0.20563182 -0.001331017
000060 c0 ea f6 3d c0 00 35 bc 85 cf 51 3e f2 eb cf bc
       0.12056494 -0.011047542 0.20489319 -0.025381062
000070 4f bd 0a 3e c2 14 3d 3d cd e3 3b bd ef 54 9f 3d
       0.13548778 0.046162374 -0.045871545 0.07779872
000080 0f f6 da 3d 09 c4 20 3e fc 75 55 bb ac 7c 08 bd
       0.10691463 0.15699781 -0.0032571545 -0.03332202
000090 53 55 f4 3c 0b cc 25 3e c4 83 20 bd db c0 fb bd
       0.029825842 0.16191117 -0.03918816 -0.12292644
0000a0 70 0d 1b be 21 33 ab 3d b7 d9 2e bc 28 b2 1e 3d
       -0.15141845 0.083593614 -0.010672024 0.03874412
0000b0 14 41 6f 3d 33 01 39 3d cb c7 0c bd 06 32 f7 3d
       0.058411673 0.04516716 -0.034370225 0.12070088
0000c0 08 6a 70 3d 89 61 46 3d 2c b9 c4 bd 5a c7 31 3d
       0.05869487 0.04843286 -0.09605631 0.043403007
0000d0 fe e9 f6 3d 72 bb 0e bd a3 0e 21 3e 12 0e ed 3d
       0.12056349 -0.03484673 0.1572824 0.11574949
0000e0 35 0e bc 3b ef 20 05 3d 1e cd 89 3d 87 79 ed 3b
       0.0057389983 0.03250211 0.06728576 0.007247153
0000f0 ff f6 1c 3e 5a 51 a6 3d 87 06 7e bd ca 4b 8a 3d
       0.15328597 0.08120985 -0.062017944 0.06752737
000100 f3 45 96 bd a0 f5 39 3d b7 4e f3 bd 18 33 ef 3d
       -0.073375605 0.045400262 -0.11880248 0.11679667
000110 e2 85 d3 3d 56 26 7e bc 48 cc 4b 3d 9a ab d8 bc
       0.103282705 -0.01551207 0.049755365 -0.026449014
000120 ba 73 92 3d 9b 9c 3e 3e e3 58 02 3e 15 b0 2f 3e
       0.07150979 0.18614428 0.1272922 0.17157014
000130 2f 6b 35 3e a6 28 c0 3d 6a fb 1a bd 16 fb b0 bc
       0.17716669 0.09382753 -0.037837423 -0.021604102
000140 d6 f0 4a 3d 20 d1 98 3c 96 46 21 bc 30 d6 91 3d
       0.049546085 0.018654406 -0.009843489 0.07120931
000150 b3 ce 1f be 57 3b be 3a a6 17 07 bc 5e 10 32 3d
       -0.15606193 0.0014513534 -0.008245384 0.04347264
000160 e5 c0 4c 3d ae df 11 3e 0f 2c 9d bd 12 f2 b1 bd
       0.049988646 0.14245483 -0.07674419 -0.086887494
000170 cf 72 80 bd f6 3c 3f 3d 33 c7 c0 3c 4b 9a 74 bd
       -0.06271898 0.046688996 0.023532486 -0.059717458
000180 e1 89 1d bd 83 72 00 3e b0 1f 99 3d 4c e1 9c 3d
       -0.03846157 0.12543683 0.07476747 0.076601595
000190 4b 1e 98 bd 95 df 5b bc 07 44 ba bc a6 ce 8e 3c
       -0.07427653 -0.013420005 -0.022737516 0.017432522
0001a0 4a 7d d1 3d ea 59 59 bd c8 3d 1a bd 80 f7 93 bd
       0.10228975 -0.053064264 -0.037656575 -0.07224941
0001b0 7c 58 ac 3e 77 2c 82 bd 38 7a 0e 3e f7 ad 4d 3d
       0.33661258 -0.06356137 0.1391381 0.050214734
0001c0 bd a3 6c 3e 67 4f 5a bc db f0 9f bd 09 78 73 3e
       0.23109336 -0.013324595 -0.078096114 0.23776259
0001d0 0c aa 63 be 04 6a cd 3d a1 b1 ec 3d 44 9f 2f bd
       -0.22232836 0.100299865 0.115573175 -0.042876497
0001e0 de d7 f9 3d 8a cf 04 3e 3e ab 47 3d 23 9c e3 3b
       0.121993765 0.12969795 0.048747294 0.006946103
0001f0 32 5a 3b 3c e3 25 67 3c 3d cd 34 bd 21 73 fb 3a
       0.011435078 0.014108154 -0.044141043 0.0019184091
000200 ba 8a 98 bd 21 f0 4c 3e 0b de 3e be d2 3c 9d 3d
       -0.07448335 0.20013477 -0.1863939 0.07677616
000210 9f ce 36 3e 24 8f bd 3c 80 02 14 be 37 0b 08 3e
       0.17852257 0.023139544 -0.14454079 0.13285528
000220 df d2 f4 3d 93 d8 92 be 45 9f d6 bd 91 32 61 3d
       0.11954283 -0.28680858 -0.10479597 0.054979865
000230 4f 49 12 3e d8 f0 d4 bc df 8b a3 bc 67 25 f9 bd
       0.14285778 -0.02599375 -0.019964157 -0.12165337
000240 75 cb 63 3d 78 fd 98 3b 6b 32 09 3d 51 b4 7c bb
       0.055613954 0.0046688877 0.033495348 -0.0038559625
000250 70 01 ae bd a4 55 85 3d a2 d8 e2 bd 96 38 20 be
       -0.08496368 0.06510475 -0.11076476 -0.15646586
000260 27 61 d7 bd a5 1e 20 3a 6c e5 1a bd 86 02 d9 bd
       -0.10516577 0.0006108082 -0.03781645 -0.105961844
000270 a3 7a 5f bd 44 5a 77 3e 21 38 0e 3e ce 72 84 3d
       -0.054560315 0.24155527 0.13888599 0.0646721
000280 3c 7a c3 3d 9f fa 08 3e 04 38 72 bc ca dc f1 bc
       0.09544799 0.13376854 -0.014783863 -0.029524226
000290 57 c0 8d bd 07 b3 de 3c 14 48 14 3e 6c 2f 99 bd
       -0.069214515 0.027184976 0.1448062 -0.07479748
0002a0 e6 ad e0 3d 58 cc 19 3e cc 3f 8f bd 25 28 6a be
       0.109706685 0.15019357 -0.0699459 -0.22866876
0002b0 28 c2 4a be e1 e0 d8 3d c0 fc e8 3c b4 40 e3 bd
       -0.19800627 0.10589767 0.028440833 -0.110963255
0002c0 f2 2a 04 3e d1 50 0a be 6c 19 99 bd a5 60 14 3d
       0.12907007 -0.13507392 -0.07475552 0.03622498
0002d0 66 fa 0e be 79 51 77 3c 27 8e 41 be 7d db 33 bd
       -0.13962707 0.015095108 -0.18901883 -0.043910492
0002e0 07 50 09 be 8e 15 3b 3d e1 86 2d 3d 84 3c 34 3e
       -0.13409434 0.045674853 0.04236496 0.1760121
0002f0 3a 77 15 bd 80 a3 e0 3d 36 63 9b bd 55 43 c7 3d
       -0.036490656 0.10968685 -0.07587282 0.097296394
000300 c6 e3 53 bd f4 70 f8 3d 72 ad eb bd b6 cf 49 be
       -0.051730894 0.12130919 -0.115076914 -0.19708142
000310 97 ce 12 3e 71 2f 9d bd 19 e6 97 3d 64 5c 58 3d
       0.1433662 -0.07675064 0.074169345 0.052822486
000320 ac f1 b7 3d b8 52 35 be 5b 3b 06 be e7 f6 16 bd
       0.08981642 -0.17707336 -0.1310858 -0.03685656
000330 16 4d 93 3d ac ac e4 3c 93 7c 2c 3e 16 b2 fc bc
       0.07192437 0.027914368 0.16844396 -0.030846637
000340 f5 85 a3 3b ac f9 a7 3c c3 62 76 bc 10 f5 23 be
       0.004990334 0.020504795 -0.015038195 -0.16011453
000350 5a b9 ac bd dd 70 8b 3c 36 1b 12 3d ac e5 64 3d
       -0.084337905 0.01702159 0.03567048 0.055883095
000360 ab 12 2f 3d d3 15 37 3d f4 16 ea bd 41 94 af bd
       0.042742413 0.044698548 -0.11430159 -0.08573199
000370 19 ff 5b 3d ed 7f 2b 3e 89 6f 5c be 9a b8 93 bd
       0.053710077 0.16748019 -0.21526922 -0.07212944
000380 dd 57 8a be 7a 49 83 3d 9d bd 89 3d fd 17 3b be
       -0.2702016 0.06410499 0.06725619 -0.1827087
000390 58 6d cb bd 73 11 92 3e 05 39 5d 3d 55 ca 9e bd
       -0.09932965 0.28528938 0.054009456 -0.077534355
0003a0 b1 3c 5e 3c 85 a3 05 3e c0 eb 9f 3b 82 17 ef 3c
       0.013564275 0.13050659 0.0048803985 0.029186014
0003b0 b6 d3 24 bc bd 15 46 bc 77 3c 1f 3e 5a 21 fc bd
       -0.010060241 -0.012090144 0.1555041 -0.12311049
0003c0 e1 4b a3 bd ba 62 aa bd 7f 5c 7e 3d e2 f9 27 be
       -0.07973457 -0.08319612 0.06209993 -0.16403916
0003d0 13 69 f0 bd aa 9b 76 bd 45 e1 32 bd a8 0f cd 3c
       -0.11738791 -0.060207047 -0.043671865 0.02503188
0003e0 29 45 25 3d 0b 1b 1a be 28 2c 49 3d 68 57 21 3e
       0.04034916 -0.15049379 0.049114376 0.15755999
0003f0 26 b6 07 3d f1 02 d7 3d a6 ab 4a be fc e4 72 3d
       0.033132695 0.10498608 -0.19792041 0.059300408

net.4.bias f4 [128]
000000 d7 62 b3 bc ba 19 45 3e ff ba 12 3c 38 e4 f2 bc
       -0.021897716 0.19248095 0.008955716 -0.029649839
000010 61 0b 66 3d 1f c1 ba bc 69 8f 52 bc aa 8f 68 be
       0.056163196 -0.022797165 -0.012851574 -0.22711053
000020 68 b0 f5 bc 85 6b 23 3c ba 96 75 bd 03 5b 5c 3e
       -0.029991344 0.009974365 -0.059958197 0.21519093
000030 e8 9e 45 3c ee f7 4f bd 9e 85 5a 3d c8 ce 7a bd
       0.012061812 -0.050773554 0.053350084 -0.06123236
000040 6a eb c1 bd 46 a1 da bd 8a 7f 17 3c f3 c3 cf bc
       -0.0946873 -0.10675292 0.009246716 -0.02536199
000050 4e f2 15 3d 73 63 02 be 50 bf f7 bc 46 d7 c0 bc
       0.036608033 -0.1273325 -0.030242592 -0.02354015
000060 41 b9 c3 bc a1 2d d5 3b 79 f3 8d bd 5d 73 7c bd
       -0.023892047 0.0065056835 -0.06931204 -0.061633456
000070 b0 2b 4c 3d f4 4e 97 bc 3c 28 1e bd 83 44 e4 bc
       0.04984635 -0.018470265 -0.03861259 -0.0278647
000080 c5 43 58 3d 51 c5 46 3d 7f a5 41 bd a3 a6 13 3e
       0.052799005 0.04852802 -0.04727697 0.14419036
000090 43 1f 1f bd 4e 7b b7 3d e6 96 05 3d e9 4c 2e bc
       -0.038848173 0.089590654 0.03261461 -0.010638454
0000a0 1e eb 9e 3d cb ba aa 3c 76 69 30 bc 1d 32 33 3d
       0.07759689 0.020841023 -0.010767331 0.043748964
0000b0 c5 cc 01 3c 60 3a 90 3d 8b cb 92 bc 59 a8 9e bc
       0.007922356 0.07042384 -0.017919322 -0.019367384
0000c0 20 54 f0 bc 47 73 bb bc 7e ee 09 be 08 2a 0d 3b
       -0.029336989 -0.022882117 -0.13469884 0.0021539945
0000d0 c1 2b 16 bd 5e 57 45 3b 41 24 9d 3d b1 40 62 3d
       -0.03666282 0.003011189 0.076729305 0.055237476
0000e0 86 b0 6e 3d 04 b4 cc bc 61 67 fd 3b 7b cd 0b 3e
       0.058273815 -0.024988182 0.007733271 0.13652603
0000f0 a7 a0 1c 3d 75 91 29 3d 93 17 56 bb a0 fd 21 3d
       0.038239148 0.041398484 -0.003266786 0.039548516
000100 83 6f 04 be c9 e4 86 3c 00 c5 24 bd 0c 3c 7f bc
       -0.12933163 0.016466515 -0.040226936 -0.015578281
000110 e3 8d 53 3e 80 ef 8c bd 9a 47 89 be ed cb b0 3d
       0.20659594 -0.068816185 -0.2681244 0.08632646
000120 01 2d 86 3d f8 e9 e4 bc 67 e0 f5 bc 50 5e 5c 3d
       0.065515526 -0.027943596 -0.03001423 0.05380088
000130 47 20 86 bd bf 70 45 bd e1 8b 3e 3d 17 43 54 bd
       -0.06549125 -0.048203226 0.046520118 -0.051821794
000140 57 43 16 3d 06 a5 64 be 24 d2 3d bd 0b c1 ca 3d
       0.036685314 -0.22328576 -0.046342984 0.09900101
000150 d1 5c 0c 3e ae 86 75 bc 77 aa 00 be b1 66 40 3e
       0.13707282 -0.014985723 -0.12565027 0.18789174
000160 a3 79 50 bd 0e e8 74 3d 04 e7 81 3d 56 31 5e 3e
       -0.05089725 0.059791617 0.06342891 0.21698508
000170 38 9d 59 bd 8b 0f 00 3d 15 a6 2e 3c 6a 95 c0 3c
       -0.05312845 0.031264823 0.010659714 0.023508746
000180 35 d4 a0 bc 83 85 09 bd 45 6a bb 3c f8 0c 5a 3e
       -0.019632438 -0.033574592 0.022877822 0.2129401
000190 1e 23 31 be 33 e7 73 3c cc 5e b4 3c 82 92 7a bb
       -0.17298552 0.014886665 0.022017859 -0.0038234298
0001a0 ee 8c e2 3d b1 0c 5b bc aa 35 24 3d e1 37 1e be
       0.110620365 -0.013369725 0.04009024 -0.15451004
0001b0 7e 51 88 3d 61 11 36 3e aa 11 3b 3f 63 6c a5 3c
       0.066561684 0.17780067 0.7307383 0.020193284
0001c0 f7 ac 3e 3d 60 99 b5 bc 78 5e 08 bd 99 1a 1e bd
       0.04655167 -0.022167861 -0.033293217 -0.038599584
0001d0 07 30 33 3e 2b 76 e9 bd 9d b9 a5 bd 4a 70 cd 3d
       0.1749879 -0.11399492 -0.080920435 0.10031183
0001e0 2c 98 c3 3d 6c af b2 3b 0a a0 31 bc 27 ba f5 bc
       0.09550509 0.005453041 -0.010841379 -0.02999599
0001f0 e5 35 87 3d c2 f2 4e 3d d0 bf 61 3d 1f cc 36 bc
       0.066020764 0.05052448 0.055114567 -0.011157065

net.6.weight f4 [128, 128]
000000 39 4e 9c bc 17 21 fc bd dc de 3c be 42 ca 4f be
       -0.019080268 -0.12310999 -0.18444389 -0.20291999
000010 fc 6f b3 3c 8a c2 c4 bd 9a b1 0e 3e ec c7 a8 bd
       0.021903984 -0.09607418 0.13934937 -0.08241257
000020 8f 0a 64 3d 23 4e 59 3d fb 51 ac be 46 46 2e be
       0.055674132 0.053053033 -0.33656296 -0.17018995
000030 ff 3f 7f bd c2 8f 35 bd 73 e7 d8 bd 92 0d be 3d
       -0.06231689 -0.04432655 -0.105910204 0.09279932
000040 79 20 48 3e 42 2a a8 bd f2 6c 2f bc 4c d6 2d be
       0.19543637 -0.08211185 -0.010707127 -0.16976279
000050 05 2c 5d 3d 75 6e 84 bd d5 0b 20 bd 6b b8 81 3c
       0.05399706 -0.064663805 -0.039073784 0.015835008
000060 74 d1 a4 bd 8c 30 60 bc a2 89 86 be 46 c2 0e 3e
       -0.080477625 -0.0136834495 -0.2627688 0.13941297
000070 55 6b 65 be db ec be bd 13 59 cb bd 51 0c 4e 3d
       -0.22404225 -0.0932252 -0.09929099 0.050304715
000080 39 c8 1e 3d c0 af c3 3d 5c fb 45 3d a6 68 aa be
       0.038765166 0.09555006 0.048335418 -0.33282965
000090 94 b5 cb bd 00 f5 39 bd 6a 46 78 bd 70 2e a3 bd
       -0.09946743 -0.045399666 -0.060614027 -0.079678416
0000a0 15 17 f2 ba a0 08 2a bd 5f 26 a4 bd 9e 02 a1 3c
       -0.0018470014 -0.04151213 -0.08015131 0.019654568
0000b0 12 42 9d bd 52 b4 20 bd 45 5c 95 3d 59 0b 22 3d
       -0.076786175 -0.039234467 0.0729299 0.039561603
0000c0 7c 9c 22 3e 22 1a 18 be 25 bb 80 be 22 c3 f9 3d
       0.15880007 -0.14853719 -0.2514278 0.12195422
0000d0 33 c1 5c be 7e e1 45 bd f2 94 a2 ba e8 7c 63 bd
       -0.21558075 -0.04831075 -0.0012404008 -0.05553904
0000e0 d3 b8 03 3e 65 96 1f 3e f9 ea 9a 3d b5 87 27 3e
       0.12863474 0.15584715 0.07564349 0.16360362
0000f0 af 39 ac bc 03 fe 02 bd cb 55 ef 3c 7b 45 a1 3d
       -0.0210236 -0.031980526 0.029215714 0.078745805
000100 0c 7d 18 be c6 3b 2a bd 9a 1c 0a 3e b2 eb ad be
       -0.14891452 -0.04156091 0.13487473 -0.33968884
000110 5e 6d f5 bd 66 fd 79 3d 5e 6b 07 bf aa 7b 88 3d
       -0.11983751 0.061032675 -0.52898204 0.06664212
000120 2e 58 9a bc f6 20 47 3e 46 72 ed 3d 34 e1 b4 3d
       -0.018840875 0.19446167 0.115940616 0.088320166
000130 46 00 6c bd 6e 6d 9a bc 66 6d ed bd d2 a3 51 3d
       -0.05761745 -0.018851008 -0.11593132 0.05118162
000140 ff f4 8a 3d 7c 91 db bd 77 44 fa 3d c7 26 3a 3e
       0.067850105 -0.10721108 0.1222009 0.18178855
000150 ad 61 54 bd 17 f1 66 3e d0 f6 59 3d 9f b8 26 be
       -0.051850963 0.22552906 0.053213894 -0.16281365
000160 90 dd 87 be ac 66 6b bd 06 23 03 3b de 9c 93 3d
       -0.26536226 -0.057470962 0.002000989 0.072076544
000170 ba 9d 9f bd 7f b7 d9 3d 43 85 52 3e 65 86 0c be
       -0.07793756 0.10630702 0.20558648 -0.13723142
000180 a8 56 81 bd 60 ea 6f 3d d6 a5 1e 3e ce 44 b1 3b
       -0.063153565 0.058573127 0.15492949 0.0054098135
000190 1c 8a 5f bd 4a 0f 08 3e 87 95 42 be 4e 63 0c 3e
       -0.05457507 0.13287082 -0.19002353 0.13709757
0001a0 3e 0d c2 3d 5e 61 ce 3d 05 90 2b 3e 4e a5 c2 3e
       0.09475182 0.10077165 0.16754158 0.38016742
0001b0 1e e8 7c 3e 80 38 a9 be f4 30 33 bf ab 09 85 bd
       0.2469792 -0.3305092 -0.6999657 -0.06495985
0001c0 74 3a 00 3e 64 92 32 bd f8 0a b8 3d 9a 0c c0 3d
       0.12522298 -0.04359664 0.08986467 0.093774036
0001d0 91 35 b2 bd fa 7e 14 3d 16 54 47 3e 6d b8 c5 bd
       -0.08701623 0.036253907 0.1946567 -0.09654317
0001e0 4e 19 51 3e 5e c3 33 3e fc 86 7f 3d 90 13 fe 3d
       0.20419809 0.17554995 0.06238459 0.12406075
0001f0 33 b7 05 3e f6 b0 c5 3b db d9 39 be 32 43 65 be
       0.13058166 0.0060330583 -0.18149512 -0.22388914
000200 f6 00 36 3b c1 af f3 3d 4d d5 62 3d 76 c4 01 bd
       0.002777157 0.11898757 0.0553792 -0.0316815
000210 85 63 97 3d d9 d5 8b bd 91 76 f5 3d 4f 48 90 3c
       0.07392029 -0.068278976 0.11985505 0.017612604
000220 11 e7 5e 3c 3f 16 8f bd 7b 81 3c be 52 7f 84 3c
       0.013604895 -0.06986665 -0.18408768 0.016173992
000230 e6 d3 8c 3b 37 e3 8f bd 18 bd 38 bc 28 ab d5 3d
       0.004297721 -0.0702576 -0.011275552 0.10433036
000240 75 af 6e bc 30 da b3 bd 00 49 2d bd 41 1d 61 bc
       -0.014568199 -0.0878185 -0.042305946 -0.013739885
000250 38 c9 90 3d 80 4c 05 bd 00 ef a3 bd 80 eb 0d bc
       0.070696294 -0.03254366 -0.0800457 -0.008662105
000260 6f 45 51 3c bc 99 db 3d cd 3e 11 be c9 3f d4 ba
       0.012772902 0.10722682 -0.14184113 -0.0016193326
000270 c3 ef bc bd 46 f0 34 bd 92 79 c8 3d b3 2f 96 bd
       -0.092254184 -0.044174455 0.09788813 -0.07333317
000280 45 e4 06 be cc 94 71 bd 73 b9 24 be 8b 5b 98 bc
       -0.13173015 -0.058979794 -0.16086368 -0.018598339
000290 d9 f8 31 3e 42 7f 7e 3d ef 42 b5 bd 4b b8 d3 3a
       0.17380084 0.06213308 -0.08850657 0.0016152946
0002a0 e1 58 8e bd 8c 16 ea bd 6f f1 a1 3b 2d 82 f5 3d
       -0.06950546 -0.11430082 0.004942111 0.1198772
0002b0 12 6c b7 3d 48 09 ad 3d b7 38 f9 3d 77 21 02 3e
       0.0895616 0.08449036 0.121690206 0.12708078
0002c0 a8 02 42 be 35 20 57 3c 1a 0d 46 3d 34 d9 08 3e
       -0.18946326 0.013130237 0.04835234 0.13364106
0002d0 6c df a9 3c 2b 2e cb 3d 49 a9 06 3e 5b b9 0e 3e
       0.020736419 0.09920915 0.13150515 0.13937895
0002e0 6b 50 fe 3d c6 c1 c5 bd 1c 55 5b 3b da 0a 64 3d
       0.12417682 -0.096561 0.0033467477 0.05567441
0002f0 d6 00 64 bd 26 45 84 3c ec 37 dc 3d 22 ab 6c 3d
       -0.05566486 0.016146254 0.10752854 0.057780392
000300 80 1a db bd 64 3c a8 3c 95 18 cb bd 99 8d 53 3d
       -0.10698414 0.020536609 -0.09916798 0.05164871
000310 51 7b fa bd 5d 5a 0a bd 11 df c4 3d 96 4f ee bb
       -0.12230552 -0.033777583 0.09612859 -0.007272671
000320 68 a8 a4 bd 4e b8 7e bd 8b 63 1b be 85 b0 3a be
       -0.080399334 -0.062187485 -0.15174691 -0.182314
000330 58 fe 1a be 4e c5 b5 bd da b3 14 be 1b 0f d2 bd
       -0.15136087 -0.088755235 -0.14521733 -0.102567874
000340 91 56 05 3e 9c 46 d0 3c 5d e1 8a bd 02 be cb 3d
       0.13021304 0.025424294 -0.06781266 0.099483505
000350 b7 10 0e 3b ae f1 10 be 91 2a 74 bd 82 18 38 3e
       0.0021677443 -0.14154693 -0.059610907 0.17978099
000360 23 fc a0 bb b1 b3 f7 bd e4 b9 43 bc ff a0 d5 3c
       -0.0049128695 -0.1209482 -0.011946175 0.026077745
000370 ef ff 03 3e a9 6d 17 3e 31 47 5b 3d 29 d8 8c bd
       0.128906 0.14787926 0.05353469 -0.06877167
000380 67 b8 2c bd 31 4d a5 bc 66 b1 9c bd 59 eb 4d bd
       -0.042168047 -0.02017841 -0.076510236 -0.050273273
000390 7e d4 2c 3e 8b 20 11 bd 94 4a 84 3d 3d ca 1c be
       0.16877934 -0.035431426 0.06459537 -0.15311523
0003a0 41 94 90 bc 90 ff f5 3d 04 a2 41 be 14 d3 62 be
       -0.017648818 0.12011635 -0.1890946 -0.22150832
0003b0 7e 91 94 3c 45 c4 d1 bd 84 dd 3b 3e 8a 5e 04 3e
       0.018135782 -0.102425136 0.1834622 0.12926689
0003c0 d7 50 87 3d f7 86 f0 3d 74 ee c5 3d 98 09 82 3d
       0.06607216 0.117444925 0.09664622 0.06349486
0003d0 84 b3 d4 3c 5b 0b ff bd 65 8e 80 bc e1 5b bd bd
       0.025964506 -0.12453338 -0.015692899 -0.0924604
0003e0 d0 cb eb 3d 97 9c 67 bd 45 b6 0b 3e 19 b1 b6 3d
       0.115134835 -0.05654582 0.13643749 0.089204974
0003f0 e8 fe 49 3d 21 99 b0 bd 53 84 4a bc 7a d7 bc bd
       0.049315363 -0.08622957 -0.01236065 -0.092207864

net.6.bias f4 [128]
000000 03 b3 fb 3d 02 ee 26 3e f8 bd c9 bc 44 c1 50 bd
       0.12290003 0.1630173 -0.024626717 -0.050965562
000010 f4 06 b5 39 a0 6f 79 bd 1f 87 f7 ba ce 08 de bd
       0.0003452819 -0.06089747 -0.0018884874 -0.10841523
000020 76 4b 3a bc 84 f2 34 3d 5a 1c 00 3d 28 58 3c 3d
       -0.01137053 0.044176593 0.03127704 0.04598251
000030 1e 64 50 3b d2 b3 0f 3d 77 29 17 3c f1 90 ff 3c
       0.0031797956 0.0350836 0.009226195 0.031197043
000040 5c e8 c4 bc c4 f9 bd 3d 65 b5 43 ba 1e 05 d3 bc
       -0.024036579 0.09276155 -0.00074656896 -0.025759276
000050 e8 1f 59 3d 7b 9b 1c 3d 06 76 c6 3b 21 13 7b 3d
       0.053008944 0.038234215 0.00605655 0.06129754
000060 f6 d2 8d bd 24 78 c2 3a 6d 50 16 bd 11 40 e7 3c
       -0.06925003 0.001483683 -0.036697794 0.028228791
000070 2d a7 3c 3d 88 cc 45 3e d0 aa 79 3d 00 92 91 bd
       0.04605787 0.19316304 0.060953915 -0.071079254
000080 ba 63 81 bc b2 27 73 bd 41 45 40 3d ab 00 4c 3d
       -0.015794624 -0.05936403 0.046941046 0.049805325
000090 3c de 2f 3d 41 b6 91 bc a1 3a a2 bd c0 70 b2 bc
       0.04293655 -0.0177871 -0.07921339 -0.021782279
0000a0 9c e9 1f bd 73 a4 e1 bc bf 22 b4 bd 34 c3 ea bc
       -0.039041147 -0.027544236 -0.0879569 -0.028657533
0000b0 3c a1 c3 3c 23 ab 40 3e 16 6e 23 3d 77 c9 c6 3b
       0.023880593 0.18815283 0.039899908 0.006066497
0000c0 a9 ef 8d bc 84 6c a1 bc 5d 0b 9c 3d ae b3 84 bd
       -0.017326193 -0.019705065 0.07619355 -0.06479584
0000d0 a9 ea 86 bd b8 6b 93 3c dc d7 33 3d 71 70 c7 3e
       -0.065877266 0.0179957 0.04390703 0.38952973
0000e0 80 7e 29 3c aa e8 c9 ba 05 d3 b8 bc 36 df b4 3d
       0.010345101 -0.0015404422 -0.02256156 0.088316366
0000f0 a1 2b cc 3c 89 07 43 bd 58 28 89 3e e7 e7 69 bc
       0.024923148 -0.047614608 0.26788592 -0.014276481
000100 f4 81 de bc ae e5 3c bd b2 44 d1 3c e4 c3 9d ba
       -0.027161576 -0.046117477 0.025545452 -0.0012036529
000110 18 5a 0a bd f8 3a 69 3e 33 a4 11 3d 09 72 b0 bc
       -0.033777326 0.22776401 0.035556983 -0.021538751
000120 7a 79 1b 3c fe 6a 26 3d 99 fd 3e be b6 12 22 3d
       0.0094894115 0.04062938 -0.18651427 0.039568625
000130 57 91 9f 3b bc 78 27 3d 73 1f 8e 3d 22 31 8c bd
       0.004869621 0.040886626 0.06939592 -0.06845309
000140 e2 89 46 3d 94 2b ef 3c 5a ff ad 3c 9f 51 08 3c
       0.04847134 0.029195584 0.021239925 0.008320241
000150 35 a0 2a 3c a5 0e 14 3d 46 5d 3c 3c 75 75 99 bd
       0.010414173 0.03614678 0.0114968475 -0.07493106
000160 2d 94 c7 3d 3d 54 d7 3d 5d 89 46 be 92 ea aa bc
       0.09745059 0.10514114 -0.19388337 -0.020863805
000170 0a fc 39 3c e7 fe 56 3d ba 9e 18 bc 1f 74 9c 3d
       0.011351595 0.052489188 -0.009315187 0.07639336
000180 50 2a 69 bd 09 80 bc 3c 7a 44 9c 3c e4 9d 94 bd
       -0.056925118 0.02301027 0.01907562 -0.07256678
000190 a2 f0 30 3d 19 73 d3 3c b5 0d 25 3d d0 97 fc 39
       0.043198235 0.025811719 0.040296275 0.00048178295
0001a0 50 c0 10 bc 54 5b 79 be 16 97 ab 3b 7f 36 40 3d
       -0.008834913 -0.24351245 0.0052365167 0.04692697
0001b0 ac 6d 06 ba 99 7d 3d 3d 52 23 28 bd c6 86 09 3c
       -0.0005128037 0.046262357 -0.04104931 0.008393949
0001c0 cf 6d 03 3d 64 22 1c bb 89 8b b7 bc 9b 4d 2e 3d
       0.032087144 -0.002382421 -0.022405403 0.04255448
0001d0 91 16 da 3c ae 35 c5 bd d9 d0 87 bd 6f 28 51 bd
       0.026622089 -0.09629379 -0.066316314 -0.05106395
0001e0 57 11 30 bd 7c 3b ed 3d e2 70 00 3d 2f d3 c9 bc
       -0.042985287 0.11583611 0.031357653 -0.024636833
0001f0 77 80 5d bd 4c 05 78 bd 1d fc cd 3c e6 7e a0 bd
       -0.05407759 -0.060551926 0.025144631 -0.07836704

net.8.weight f4 [1, 128]
000000 06 a8 6c be 23 b7 29 3d 5a 4b 24 3e 22 00 03 be
       -0.23110971 0.04143442 0.1604437 -0.1279302
000010 e6 00 f0 3a a7 92 de bd 6c f9 26 be ee 4a 80 bd
       0.0018310815 -0.108678155 -0.16306084 -0.06264292
000020 8c a6 ff 3d d4 62 a5 bd af ac d5 3c 2c 95 d7 bd
       0.12482938 -0.080754906 0.026083319 -0.10526499
000030 5b bd 10 be e4 5b 70 3c 53 c1 af 3c 9a 33 31 be
       -0.14134733 0.014670346 0.021454489 -0.1730484
000040 3e 21 d2 3d 56 99 10 3d 7c e8 0a 3c 62 36 03 3b
       0.10260247 0.035302483 0.00847828 0.0020021428
000050 33 f5 4a 3d a9 62 9a 3e 04 b9 41 be f7 f4 bd 3d
       0.049550246 0.30153397 -0.18918234 0.09275239
000060 d9 a1 c1 3c 38 2a a7 bc c3 b8 b8 bd 5e e4 11 3d
       0.023636745 -0.020405874 -0.090196155 0.03561818
000070 59 2b 3b 3e 8a 79 33 3e a5 fd 16 3c ae 2d e0 bc
       0.18278255 0.17526832 0.009215747 -0.027365532
000080 5f d7 8c bd d0 c9 71 be de ac d1 3c f3 8a e2 3d
       -0.06877016 -0.23612142 0.025595125 0.11061659
000090 5c 68 4c bd ed 76 04 3e 5a 79 dd 3b 60 cb 4b 3e
       -0.049904212 0.12935992 0.006758851 0.199018
0000a0 b4 fe 40 be 8c 22 22 be cc 45 48 3d b2 d7 20 3e
       -0.18847162 -0.15833491 0.04889469 0.15707281
0000b0 fa 23 80 3c 6f d9 b0 3b 30 64 1f be 0d 66 92 bc
       0.015642155 0.005397014 -0.15565562 -0.017870927
0000c0 a3 c3 af bd fd 08 39 bd de 96 f5 bd 99 24 59 3d
       -0.085822366 -0.045174588 -0.11991666 0.053013418
0000d0 4d 20 41 bd d1 f3 65 be b4 2f eb 3a 05 0e 82 3e
       -0.047149945 -0.2245629 0.0017943294 0.2540132
0000e0 dc 0f f3 bc 31 8d 79 be c2 29 7f 3d f7 f1 43 3c
       -0.029670648 -0.24370266 0.062295683 0.011959544
0000f0 b6 51 0e be a0 ed f2 3a 4c 4c 9c ba 32 c0 1e 3a
       -0.13898358 0.0018533953 -0.0011924594 0.0006055861
000100 e4 2d 06 3e 0f ee ed 3d ee 3a 27 bc 14 e1 41 be
       0.13103443 0.11617672 -0.010206921 -0.18933517
000110 70 a7 74 be d6 68 97 bb 1c d8 e6 3b 3f db 36 3e
       -0.23891997 -0.0046206517 0.007044805 0.17857073
000120 ef 1a c2 3b 17 82 31 be 1c 0a 03 3e 2a 4d 87 bc
       0.005923621 -0.17334782 0.12796825 -0.016516287
000130 7d e3 36 be e8 fa 05 3e 08 c5 57 bd 21 93 96 bc
       -0.17860217 0.13083994 -0.052678138 -0.018380703
000140 fb 28 5b be cb ea 27 3d 41 3f 1f be 06 4f dd 3d
       -0.21402352 0.0409954 -0.15551473 0.10806088
000150 1c 49 67 3c ca 0e 79 3d ea 42 da bd b8 00 7d 3c
       0.014116552 0.06080512 -0.10657294 0.015442066
000160 e5 d2 d4 3c c2 14 91 be b0 bf b5 3d c1 5f 59 be
       0.025979469 -0.2833615 0.08874452 -0.21227933
000170 22 95 62 3e 3b 50 25 be a7 2e fd bd fa 97 a8 3c
       0.22127202 -0.16143887 -0.12362414 0.02058028
000180 9e d8 27 be e0 81 d3 39 6f 6e e2 3d 8b 44 09 3e
       -0.16391227 0.0004034182 0.1105622 0.13405053
000190 72 dc 18 3e 6d 95 24 3c 14 39 93 be 4a 86 7d 3c
       0.14927843 0.0100453915 -0.28754485 0.015473912
0001a0 71 1a 35 3d d0 8d 43 3c 1a af 47 be 42 20 09 3e
       0.04421467 0.011935666 -0.1950039 0.13391212
0001b0 26 5b ed bc 41 c2 1b 3d be 26 f4 3b b3 b6 f7 bd
       -0.028974127 0.03802705 0.0074509075 -0.12095394
0001c0 d6 fe 04 3e d9 66 ea 3d 5f 84 bd 3c a0 17 b9 3d
       0.12987837 0.11445398 0.023134409 0.09037709
0001d0 44 2e 46 3e 8a 09 38 3a 3c 6a 92 bd 8a f4 d7 3d
       0.19353586 0.00070204644 -0.07149169 0.10544689
0001e0 ca 7c 3f 3e bd 78 70 3c 10 f2 1a 3e 06 87 6b bd
       0.18699947 0.014677224 0.15131402 -0.057501815
0001f0 67 ae c5 bd ec 24 86 bd a8 14 bf 3b 91 6b e8 bd
       -0.09652405 -0.06550011 0.00583132 -0.11348642
