modelparameter/willie_lognormal8_6.pth (torch, 206743 bytes, 9 tensors)

net.0.weight f4 [128, 8]
0	0xbba7e0eb	-0.005123248
1	0x3da6c868	0.08143693
2	0xbe7b92e9	-0.2456776
3	0x3df675a1	0.12034155
4	0xbdfdb9bc	-0.12388942
5	0x3ed06833	0.40704498
6	0xbeba9a0f	-0.36445662
7	0xbd258591	-0.040410582
8	0xbe02bc96	-0.12767252
9	0x3d7547c9	0.059882913
10	0xbd8cfbbc	-0.06883952
11	0xbdc9c82e	-0.09852634
12	0xbe9bffac	-0.304685
13	0xbdb2d3c7	-0.087317996
14	0x3ebe02c5	0.37111488
15	0xbc2f4927	-0.010698593
16	0x3c9bf906	0.019039642
17	0xbe129cf0	-0.1431768
18	0xbe8f97ef	-0.28045604
19	0xbcb93587	-0.022608532
20	0x3ea63317	0.32460853
21	0xbdd45073	-0.10366907
22	0x3e7517a1	0.23934795
23	0xbd9b9c04	-0.07598117
24	0xbe7417d8	-0.2383722
25	0x3e46377a	0.193571
26	0xbe58644e	-0.21132013
27	0x3cc589f8	0.02411364
28	0xbd2b5550	-0.041829407
29	0xbc08daf1	-0.008352981
30	0xbe17b5ab	-0.14815395
31	0x3e96e6c5	0.29472938
32	0xbc8eb583	-0.017420536
33	0xbd498216	-0.049196325
34	0xbe20d014	-0.15704376
35	0xbd6e2e10	-0.058149397
36	0x3c22f77f	0.009946703
37	0x3d09a32e	0.033602886
38	0xbd950897	-0.07277029
39	0xbce75b21	-0.028241696
40	0x3aa71ff5	0.0012750613
41	0x3cbcd2d5	0.023049751
42	0xbdd9e8bf	-0.10640096
43	0x3d2c8139	0.042115424
44	0x3c276079	0.010215872
45	0xbc8dd14f	-0.01731172
46	0x3d88540e	0.06656657
47	0x3d0cc5c9	0.03436831
48	0xbd4e3206	-0.050340675
49	0xbe02057e	-0.12697408
50	0xbbdb3229	-0.006689329
51	0xbdc17b61	-0.09447361
52	0x3c92809b	0.01788359
53	0xbdab14b7	-0.083535604
54	0xbd02dd2a	-0.0319492
55	0xbdc59ff8	-0.09649652
56	0x3e3f1582	0.18660548
57	0x3e2dc72e	0.16970512
58	0xbea2e654	-0.3181635
59	0xbc9c26ae	-0.019061413
60	0xbca2589d	-0.019817645
61	0xbe8d429e	-0.27589887
62	0xbd931433	-0.07181587
63	0x3e678e5e	0.22612903
64	0xbc41f656	-0.011838516
65	0xbd120992	-0.03565366
66	0xbdbae079	-0.09124846
67	0xbcb36aff	-0.021901606
68	0xbdb472eb	-0.08810981
69	0xbd6ab7e2	-0.05730427
70	0xbde25256	-0.110508606
71	0xbd4cb2eb	-0.049975317
72	0x3e4518b7	0.19247709
73	0xbe9016bd	-0.28142348
74	0x3de9f2e7	0.11423283
75	0xbe6194b7	-0.22029386
76	0xbd91b4fa	-0.07114597
77	0x3db8821b	0.09009191
78	0x3d4a6827	0.049415734
79	0xba98b417	-0.0011650351
80	0xbc4cbeaa	-0.01249663
81	0x3e8c8bb7	0.27450344
82	0x3db4c86c	0.0882729
83	0xbe23945e	-0.15974566
84	0x3e959d70	0.29221678
85	0x3da97539	0.082743116
86	0xbcd17657	-0.025569124
87	0xbd1aa94a	-0.037759103
88	0xbe07f140	-0.13275623
89	0xbe0f7856	-0.14010748
90	0xbe4dfef5	-0.2011679
91	0xbdf96b01	-0.121786125
92	0xbd9b9936	-0.07597582
93	0x3be7f381	0.0070785885
94	0xbb8adafd	-0.004237531
95	0xbdc43c76	-0.095818445
96	0xbd039200	-0.03212166
97	0x3d005c77	0.03133818
98	0xbd019f20	-0.031645894
99	0x3dcc7f38	0.099852026
100	0x3da7d442	0.08194782
101	0x3dca210f	0.09869587
102	0x38a5f888	7.914106e-05
103	0xb8f77b99	-0.000118009
104	0xbcba525f	-0.022744356
105	0xbe32e748	-0.1747104
106	0xbdd95562	-0.106119886
107	0xbdaef1cc	-0.08542213
108	0xbdd15f1e	-0.1022322
109	0x3cbf1623	0.023325985
110	0xbe5e701f	-0.21722458
111	0x3e04f2fa	0.12983313
112	0xbe5db6a7	-0.21651708
113	0xbda34f39	-0.07974095
114	0x3d75f3bb	0.060046893
115	0x3d2186b1	0.039435092
116	0xbda59bc3	-0.0808635
117	0xbcee467e	-0.029086348
118	0x3dc003d8	0.09375733
119	0xbe68c268	-0.2273041
120	0xbda06761	-0.07832218
121	0xba4217ce	-0.000740406
122	0xbdd89741	-0.105757244
123	0xbc953bde	-0.018217023
124	0xbe0f4183	-0.13989834
125	0xbd823479	-0.063576646
126	0xbdb75d51	-0.089533456
127	0xbd535e78	-0.051603764
128	0xbd5d8b04	-0.054087654
129	0xbda41638	-0.080120504
130	0xbce308f3	-0.027714228
131	0xbce5ad2e	-0.02803668
132	0xbdba4460	-0.09095073
133	0xbd85bb1e	-0.065298304
134	0x3d058446	0.03259685
135	0xbd454e28	-0.04817024
136	0x3cebaf1c	0.028770022
137	0xbd9904a5	-0.07471589
138	0xbe135b95	-0.14390405
139	0xbd02f6d4	-0.031973675
140	0xbe692a61	-0.22770073
141	0x3d10609b	0.03524838
142	0x3d68f97b	0.056878548
143	0xbda331b2	-0.07968463
144	0xbdc2f250	-0.09518874
145	0x3a1250fe	0.0005581527
146	0xbd38b994	-0.045098856
147	0x3e00a466	0.12562713
148	0xbe52eb51	-0.20597579
149	0xbd94ef06	-0.072721526
150	0xbc5a743a	-0.013333375
151	0xbd30caa6	-0.04316201
152	0xbc7241bf	-0.014786183
153	0x3e553cd5	0.20823987
154	0x3e006b70	0.12540984
155	0x3d1eae79	0.03874061
156	0x3d6e1215	0.058122713
157	0xbea9ecff	-0.33188626
158	0x3d311d4f	0.04324084
159	0xbe27c282	-0.16382793
160	0xbe0095be	-0.12557122
161	0x3da3f390	0.0800544
162	0xbcc97048	-0.024589673
163	0x3cc377e7	0.023860885
164	0xbe075b69	-0.13218464
165	0x3bbb37b7	0.005713429
166	0xb9ef8ac9	-0.00045689035
167	0xbe2c7be1	-0.16844131
168	0xbc82dc20	-0.015974104
169	0xbe804ecf	-0.25060126
170	0xbcc9f102	-0.024651054
171	0x3e27f2c9	0.16401209
172	0xbba6b300	-0.0050872564
173	0xba84705c	-0.0010104286
174	0xbe9625a1	-0.29325584
175	0x3e9535e3	0.29142675
176	0xbd867610	-0.065654874
177	0x3d30b7fa	0.043144204
178	0x3d862db2	0.065516844
179	0x3d0e6c1b	0.034771066
180	0xbb728bdd	-0.0037009635
181	0xbdc162c3	-0.094426654
182	0xbdd48b74	-0.10378161
183	0xbd517829	-0.051139984
184	0x3e660b2f	0.22465204
185	0xbdf40f0f	-0.11916935
186	0xbe8ab542	-0.27091414
187	0x3d71bee0	0.059019923
188	0x3c68807f	0.014190792
189	0x3d76379b	0.060111623
190	0x3d8c3731	0.068464644
191	0x3df7f96b	0.121081196
192	0x3e035984	0.12827116
193	0xbe9231da	-0.2855366
194	0xbc005072	-0.00783168
195	0x3e0e5351	0.1389897
196	0x3e03d34f	0.12873577
197	0xbe5a743c	-0.21333402
198	0x3dd08260	0.10181117
199	0xbdaa1058	-0.083038986
200	0x3d5b42a4	0.05353035
201	0x3d5c23da	0.05374513
202	0x3e46c25c	0.1941008
203	0xbd9b5a00	-0.075855255
204	0xbe488a8b	-0.195841
205	0x3d79984f	0.06093627
206	0x3e6e1396	0.23249659
207	0xbda6d120	-0.08145356
208	0xbd8a554e	-0.06754552
209	0x3c5de89b	0.013544227
210	0xbdfeb0d7	-0.12436073
211	0xbd492783	-0.049109947
212	0xbdafaaee	-0.08577524
213	0xbd600d6d	-0.054700304
214	0xbc8eac12	-0.017416034
215	0xbd4d74cf	-0.050160225
216	0x3e4dcb69	0.20097126
217	0xbe81c54a	-0.25345832
218	0x3e5be52a	0.21474138
219	0xbcc16351	-0.023606928
220	0x3e178b80	0.14799309
221	0xbe8a9ae0	-0.27071285
222	0xbd3d2583	-0.046178352
223	0x3dea8322	0.11450793
224	0xbd9acbca	-0.07558401
225	0xbe992a99	-0.29915312
226	0x3d07ca33	0.033151817
227	0xbd90e873	-0.07075586
228	0x3c539b8f	0.012915506
229	0x3d7bb186	0.061448596
230	0xbcdf5a96	-0.027264874
231	0xbe1f322b	-0.15546481
232	0x3dd7ea6e	0.10542761
233	0xbe62833f	-0.22120379
234	0xbd9b2d49	-0.07576997
235	0xbdfcd85a	-0.12345953
236	0x3e6216c4	0.22078997
237	0x3e0fadb2	0.14031103
238	0xbe117525	-0.14204843
239	0x3d36846d	0.044559885
240	0x3ddccf71	0.10781754
241	0xbd03b121	-0.032151345
242	0xbd9195b5	-0.071086325
243	0xbde95172	-0.113924876
244	0xbe9dd0d3	-0.30823383
245	0x3be0d93b	0.0068618334
246	0xbcaf5660	-0.021403491
247	0x3ebd4abd	0.36971083
248	0xbe5f9531	-0.21834256
249	0xbe0cb7d8	-0.13742006
250	0xbedd0b69	-0.43172768
251	0x3e2a6f8b	0.16644113
252	0xbd9270e2	-0.07150437
253	0x3e910654	0.2832514
254	0x3e106384	0.14100462
255	0x3e16a721	0.14712192

net.0.bias f4 [128]
0	0x3c5f1349	0.013615438
1	0x3c96c102	0.01840258
2	0x3c16c554	0.00920232
3	0xbc009c55	-0.007849772
4	0x3e7563b7	0.2396382
5	0x3e5491cd	0.20758744
6	0x3e5c6f61	0.21526863
7	0x3b8edc72	0.004359775
8	0x3e03534a	0.12824741
9	0x3b3e424f	0.0029031222
10	0xbcd4f79d	-0.025996977
11	0x3a5dca07	0.00084605854
12	0x3e5b6230	0.21424174
13	0x3d98a044	0.07452443
14	0x3ddff714	0.10935798
15	0x3e32f970	0.17477965
16	0x3e3bb0ab	0.18329112
17	0x3d775fb3	0.060394
18	0xbcc0d4ac	-0.02353891
19	0x3d0e5153	0.034745526
20	0x3db3f256	0.08786456
21	0xbbda1c2f	-0.006656192
22	0x3e5ca2e5	0.21546514
23	0x3d8ffcae	0.07030617
24	0x3cb0d4e8	0.021585897
25	0xbbfa96ed	-0.0076473863
26	0x3e3bdde9	0.18346371
27	0x3b08eb32	0.002089214
28	0x3deea511	0.11652578
29	0x3c2ce2ca	0.010552118
30	0x3bc23f7d	0.0059279785
31	0x3bc02a24	0.0058643986
32	0x3e23eb21	0.16007663
33	0xbb123785	-0.0022310924
34	0x3cb00e0d	0.021491075
35	0x3e159250	0.14606595
36	0x3dec9d84	0.11553481
37	0x3b981df9	0.004642245
38	0x3d041eb1	0.032255832
39	0x3dbf763f	0.093487255
40	0x3d17996b	0.037011545
41	0x3e01522c	0.12629002
42	0x3d18b9e8	0.03728667
43	0xba87226c	-0.0010309941
44	0xbbcca2f3	-0.006245011
45	0x3c4defcb	0.012569378
46	0x3e31456e	0.17311642
47	0x3e1fb9ef	0.15598272
48	0x3ddfe610	0.10932553
49	0xbbb984c8	-0.0056615807
50	0x3dc02bf9	0.09383387
51	0x3e1db109	0.15399565
52	0x3e766506	0.24061975
53	0x3d074e97	0.033033933
54	0x3d9d9a92	0.076954976
55	0x3e188164	0.14893109
56	0x3b5ce7c6	0.0033707484
57	0x3de8cde9	0.11367399
58	0x3d793c7a	0.06084869
59	0x3e9de6d5	0.30840173
60	0x3ddd5e75	0.10809032
61	0x3c9b527a	0.018960226
62	0x3d2d9d81	0.042386536
63	0x3cd6ee8a	0.026236791
64	0x3d519d5e	0.051175468
65	0x3e0d63c3	0.13807587
66	0xbbf9fe77	-0.0076292115
67	0x3bfbf07c	0.00768858
68	0x3e877699	0.2645767
69	0x3d05e6cc	0.03269081
70	0x3d7431be	0.05961775
71	0x3e31acca	0.1735107
72	0x3e6cab55	0.23112233
73	0x3ceb4b5e	0.028722461
74	0x3cc2bbe8	0.023771241
75	0x3d1545ba	0.03644345
76	0x3e6b0356	0.22950491
77	0x3e53b8e2	0.20675996
78	0x3d44aad6	0.048014484
79	0x3d8932ee	0.06699167
80	0xbc24d0cb	-0.010059546
81	0x3d842718	0.06452769
82	0x3e42b7fc	0.19015497
83	0x3d42f8b3	0.04760046
84	0x3dc0732c	0.09396967
85	0x3e2cae13	0.16863279
86	0xba835245	-0.0010019025
87	0x3e211d20	0.15733767
88	0xbbfaed8e	-0.0076577133
89	0xbd97dd87	-0.074153
90	0x3e8feefb	0.28112015
91	0x3e5d110d	0.21588536
92	0x3d3e357d	0.04643773
93	0x3d0a7745	0.03380515
94	0x3e03e5c1	0.12880613
95	0x3ca02107	0.019546999
96	0x3e069c24	0.131455
97	0x3e1721e7	0.14759026
98	0x3e0efece	0.13964388
99	0x3ddaeff1	0.106902964
100	0x3e4f0bb7	0.20219313
101	0x3dabfeef	0.08398234
102	0xbc025d40	-0.007956803
103	0x3de967f9	0.11396784
104	0xbd9db415	-0.077003635
105	0x3e010bf5	0.12602217
106	0x3cccc68c	0.024997018
107	0x3e3e2d25	0.18571909
108	0x3d148670	0.036261022
109	0x3e8edd3d	0.27903166
110	0x3baa68f4	0.0052004997
111	0x3c2bae86	0.010478621
112	0x3e29c64d	0.16579552
113	0x3d306454	0.04306443
114	0x3df0e01b	0.11761495
115	0x3e274623	0.16335349
116	0x3e5c8b4f	0.21537517
117	0xbc305e5d	-0.010764685
118	0x3e292e37	0.16521536
119	0x3e50a7e6	0.20376548
120	0x3e27461a	0.16335335
121	0x3e21a140	0.15784168
122	0x3e0d27b7	0.13784681
123	0x3c86cbe1	0.016454639
124	0x3d5ae436	0.053440295
125	0x3cdc3787	0.026881946
126	0x3d706a67	0.058695223
127	0x3e6bb31c	0.23017544

net.2.weight f4 [128, 128]
0	0x3cd1ac6c	0.025594912
1	0x3d0d113b	0.03444026
2	0xbe1c026b	-0.15235297
3	0xbcc6d714	-0.02427248
4	0xbd687bc5	-0.05675866
5	0x3d2087a9	0.039191876
6	0xbbce47f9	-0.006295201
7	0x3dbd0eac	0.09231314
8	0xbddc5703	-0.10758784
9	0x3df403c5	0.119147815
10	0x3d98fefa	0.07470508
11	0xbd1b2070	-0.03787273
12	0xbda406a0	-0.08009076
13	0x3a3f8d74	0.000730715
14	0x3dc5d914	0.09660545
15	0x3e180a03	0.14847569
16	0x3d228a32	0.039682575
17	0xbd49053d	-0.04907726
18	0x3d593fa1	0.053039197
19	0x3cc9c1b0	0.02462849
20	0xbd1f38c9	-0.038872514
21	0xbd43bbb2	-0.047786422
22	0x3ddc0e97	0.1074497
23	0x3d854f0c	0.065092176
24	0xbdaaf9c7	-0.083484225
25	0xbb96ef05	-0.00460613
26	0x3e1ef264	0.15522152
27	0x3e2cf7d7	0.16891418
28	0xbe16591c	-0.1468243
29	0x3c989120	0.018623888
30	0x3e47134a	0.19440952
31	0xbdb9408f	-0.09045517
32	0xbd4ee599	-0.05051193
33	0x3d13200c	0.035919234
34	0xbcb48e72	-0.02204058
35	0xbdaf45fd	-0.08558271
36	0x3d3b17e6	0.04567709
37	0x3c8a6b55	0.016896883
38	0xbc99c43a	-0.018770326
39	0x3e0b88d7	0.13626419
40	0x3e0cec96	0.13762125
41	0xbd04aacc	-0.032389447
42	0x3e3eacfa	0.18620673
43	0x3d81fade	0.06346677
44	0x3cd99b57	0.02656333
45	0xbe0f4c5e	-0.13993976
46	0x3d16d8e8	0.03682795
47	0x3d96cb19	0.073629566
48	0xbd0cc598	-0.034368128
49	0x3d5f4e81	0.054518227
50	0xbcee2029	-0.02906807
51	0xba8ad62f	-0.0010592396
52	0x3d351f23	0.044219147
53	0xbc88d191	-0.016701492
54	0x3d9033e9	0.07041151
55	0x3dc6570a	0.0968457
56	0xbe02aa45	-0.12760265
57	0xbd43f026	-0.047836445
58	0x3da99cbe	0.08281849
59	0xbd10263a	-0.035192706
60	0xbd8c8704	-0.0686169
61	0x3d082798	0.033240885
62	0x3dc7563a	0.09733243
63	0xbe2ec98a	-0.17069069
64	0x3dddc0b4	0.10827771
65	0x3c78e442	0.01519114
66	0x3ce514c3	0.027964002
67	0xbaf286bb	-0.0018503288
68	0xbe1454c8	-0.14485466
69	0x3e36b82d	0.17843695
70	0xbd2de17e	-0.042451374
71	0xbd6fb656	-0.0585235
72	0xbccc35a9	-0.02492793
73	0xbddee584	-0.108836204
74	0xbc1ea784	-0.0096834935
75	0xbd667938	-0.056267947
76	0xbdc25e3b	-0.09490629
77	0x3d055467	0.032551195
78	0xbdb33aa8	-0.08751422
79	0x3db59b21	0.08867479
80	0xbe39af78	-0.18133342
81	0x3d6c5ef6	0.05770775
82	0x3c88a4c5	0.01668013
83	0xbc696f5a	-0.01424774
84	0x3cb78c50	0.022405773
85	0x3e1b5dbb	0.15172474
86	0xbc4ce781	-0.012506367
87	0x3d18d20c	0.03730969
88	0x3cc11b05	0.023572454
89	0x3dade289	0.08490474
90	0xbe81bcd9	-0.25339392
91	0xbe0eac9f	-0.13933037
92	0x3e0fb176	0.1403254
93	0x3d24c78d	0.04022937
94	0xbe2c6a05	-0.16837318
95	0xbb4c2777	-0.0031151453
96	0xbd4835d4	-0.04887946
97	0x3dcadaf8	0.09905046
98	0xbe134335	-0.14381106
99	0xbdd613a0	-0.10452962
100	0x3d41e565	0.04733791
101	0xbe0f768f	-0.1401007
102	0x3dbb5f1d	0.09149001
103	0x3e1360a6	0.14392337
104	0x3ac19fee	0.0014772394
105	0x3dc51f0a	0.09625061
106	0x3dc7399b	0.09727784
107	0x3dab3274	0.083592325
108	0x3e05cdac	0.13066739
109	0x3ddd51bd	0.10806606
110	0x3d4904db	0.049076896
111	0xbc690398	-0.014222048
112	0xbe28dfe5	-0.16491659
113	0x3d02e4cb	0.031956475
114	0x3cd226db	0.025653293
115	0xbdb48750	-0.08814871
116	0xbdfd3ae4	-0.12364748
117	0x3cfdfb7e	0.03100371
118	0xbbe7125b	-0.0070517487
119	0x3d0f6b24	0.035014287
120	0x3c4cf367	0.0125092035
121	0x3d2673db	0.040637832
122	0xbcaa528f	-0.02079132
123	0xbd012df2	-0.031537957
124	0x3e09e050	0.13464475
125	0x3e57cc3f	0.21074007
126	0xbd802194	-0.062564045
127	0x3d464337	0.048403945
128	0x3e168567	0.14699326
129	0x3e2c493c	0.16824812
130	0xbdbcc3c0	-0.09217024
131	0xbde6df1c	-0.112730235
132	0x3d1215d6	0.035665356
133	0x3defcc88	0.11708933
134	0xbd3fbb83	-0.046809684
135	0x3e6e262a	0.23256746
136	0x3d9a4a96	0.075337574
137	0x3cc72a27	0.024312092
138	0xbde20802	-0.110366836
139	0x3dcba0a8	0.09942752
140	0xbd673a07	-0.056451824
141	0x3cd41994	0.025891103
142	0x3d3babf6	0.04581829
143	0xbe03fa66	-0.12888488
144	0x3e053d15	0.13011582
145	0xbdd0becc	-0.101926416
146	0xbe34d17d	-0.17658038
147	0x3d11612b	0.035493057
148	0xbd3e8cde	-0.04652106
149	0x3d6ad8d3	0.057335686
150	0x3e0268b8	0.1273526
151	0xbdacddaf	-0.0844072
152	0xbd556bf9	-0.052104924
153	0x3e148066	0.14502105
154	0xbbf9c936	-0.007622863
155	0xbe53cde0	-0.20684004
156	0xbcb1dc6f	-0.021711556
157	0xbd8a2662	-0.06745602
158	0xbd48eb2c	-0.049052402
159	0x3e363c6b	0.17796485
160	0xbd9d45dd	-0.07679341
161	0x3bae3c0b	0.0053172163
162	0x3dc5b8a5	0.09654359
163	0xbe202253	-0.15638094
164	0xbe0159b8	-0.12631881
165	0xbe16e6d2	-0.14736488
166	0xbda0aff4	-0.078460604
167	0xbd36da57	-0.04464182
168	0xbd427cf9	-0.047482464
169	0xbda29906	-0.07939343
170	0xbde2f826	-0.11082487
171	0xbe2b3361	-0.16718818
172	0xbde3bad7	-0.11119621
173	0xbdbd742b	-0.09250673
174	0x3e6286d7	0.2212175
175	0x3be19625	0.0068843537
176	0x3d90990a	0.0706044
177	0x3d751e2a	0.05984322
178	0xbc5e81be	-0.013580738
179	0x3d8b9094	0.068146855
180	0xbd91a642	-0.07111789
181	0xbae59009	-0.0017514239
182	0xbd4adbcf	-0.049526032
183	0x3da3d82f	0.08000218
184	0x3e66f32f	0.22553705
185	0xbda78054	-0.081787735
186	0x3dc2adae	0.09505783
187	0x3e4b9dc7	0.19884406
188	0x3ce52631	0.027972313
189	0x3de96627	0.11396437
190	0x3d39c2eb	0.045351904
191	0x3c8ab6bc	0.016932838
192	0x3e161bdd	0.14659066
193	0xbdfa14ad	-0.12210975
194	0xbd7239dd	-0.059137214
195	0x3e25a787	0.16177188
196	0x3bef3152	0.0072995806
197	0x3dab112a	0.08352883
198	0x3d11d118	0.035599798
199	0xbe4dc6ce	-0.20095369
200	0x3be41bcc	0.0069613215
201	0xbcc3546c	-0.023843966
202	0xbe74a5fa	-0.2389144
203	0xbe287a0d	-0.16452809
204	0x3e017e48	0.12645829
205	0xbd3aa637	-0.04556867
206	0xbc995843	-0.018718844
207	0x3d3778ad	0.04479282
208	0x3d62eff5	0.055404622
209	0xbdd21e13	-0.102596425
210	0x3c476661	0.012170405
211	0xbdfdec18	-0.12398547
212	0xbdde60e7	-0.108583264
213	0x3e0462a8	0.1292826
214	0xbde5916e	-0.11209379
215	0x3c0f099a	0.008730317
216	0x3c4f5cdb	0.012656416
217	0x3ceaa7af	0.02864441
218	0xbe22a35c	-0.15882629
219	0xbd5a053c	-0.05322765
220	0x3ce832bf	0.02834451
221	0x3e29db77	0.16587625
222	0xbd6fa283	-0.058504593
223	0xbe58f7c4	-0.21188265
224	0x3d7d2050	0.061798394
225	0x3e0f9efa	0.14025488
226	0x3d9e55f2	0.077312365
227	0xbca67a89	-0.020322101
228	0x3e82e116	0.25562352
229	0x3e0dff7a	0.13866988
230	0x3d93c48a	0.07215221
231	0xbb652a22	-0.003496774
232	0xbdfd748b	-0.123757444
233	0xbd580792	-0.052741595
234	0xbd0106ad	-0.031500507
235	0x3de9ad2c	0.11409983
236	0x3cbbc83f	0.022922633
237	0xbda22a18	-0.07918185
238	0x3c30c58f	0.010789289
239	0x3cee57d4	0.029094614
240	0x3e0255b3	0.12728004
241	0xbb0499eb	-0.0020233344
242	0x3c2a0aa0	0.01037851
243	0xbe0aad7c	-0.13542742
244	0x3a67cd54	0.0008842547
245	0xbd325371	-0.043536607
246	0xbcc0f003	-0.023551947
247	0x3e5b8264	0.21436459
248	0xbddd2120	-0.10797334
249	0xbcb961ed	-0.022629702
250	0xbe323f1a	-0.17406884
251	0xbe555d57	-0.20836388
252	0x3dd26808	0.10273749
253	0xbc8748fb	-0.016514292
254	0xbdd6736a	-0.10471232
255	0xbd928824	-0.07154873

net.2.bias f4 [128]
0	0x3d970fc9	0.07376058
1	0xbd04a698	-0.03238544
2	0x3ad762b2	0.0016432612
3	0x3d65bdbe	0.056089155
4	0xbd672169	-0.056428347
5	0xbe542644	-0.20717722
6	0x3c9518e9	0.018200355
7	0xbd885d1f	-0.066583864
8	0x3da234a3	0.07920196
9	0xbce0a5dc	-0.027422838
10	0xbc297828	-0.010343589
11	0xbc50226d	-0.01270352
12	0xbc94d831	-0.018169494
13	0x3b503325	0.0031768766
14	0x3d8b3de8	0.06798917
15	0x3b867d06	0.0041042594
16	0x3c83c9c9	0.01608743
17	0xbd63223c	-0.05545257
18	0xbd270311	-0.04077441
19	0x3d747fba	0.059692122
20	0xbcebeb31	-0.028798671
21	0x3ddfdd22	0.109308496
22	0xbd5791ac	-0.052629158
23	0x3cc1cfb5	0.023658613
24	0x3cb4965e	0.022044357
25	0xbcfdc2dd	-0.030976707
26	0x3d973e27	0.073849015
27	0x3d4b1dc9	0.049588952
28	0xbb8a4c40	-0.0042205155
29	0xbced0bef	-0.028936354
30	0x3d46c230	0.048525035
31	0x3c6b37da	0.014356578
32	0xbd031177	-0.031999078
33	0x3b99705a	0.004682583
34	0xbc9245ef	-0.017855613
35	0x3dad614e	0.08465825
36	0x3d451c46	0.048122667
37	0x3d46c5f1	0.048528615
38	0xbbf4757d	-0.0074602948
39	0x3d98e684	0.07465842
40	0x3cd2ac97	0.025717063
41	0x3d81779b	0.06321641
42	0x3d06d1c3	0.032914888
43	0xbb8c6245	-0.0042841756
44	0x3d17006b	0.036865633
45	0x3d2986db	0.041388374
46	0xbc49ce62	-0.012317272
47	0x3dfb4787	0.12269502
48	0xbbdc5798	-0.006724309
49	0xbb131e72	-0.0022448567
50	0x3bc02dfc	0.0058648568
51	0x3d8a21d3	0.06744733
52	0x3d0e02f6	0.034670793
53	0x3d7d7e40	0.06188798
54	0x3d21fcdf	0.039547797
55	0x3d132f3b	0.035933714
56	0xbd206b49	-0.039164815
57	0x3cbccc1e	0.02304655
58	0xbcb6130f	-0.022225885
59	0xbd4d2770	-0.05008644
60	0xbe1ded85	-0.15422638
61	0x3d0d4ee2	0.034499057
62	0xbc7fd6ca	-0.015615175
63	0x3cd75cf3	0.026289439
64	0x3db3b8b4	0.08775464
65	0xbac853f8	-0.0015283814
66	0xba9b91a7	-0.0011868969
67	0x3d9dcb88	0.07704836
68	0xbd801b92	-0.062552586
69	0xbd721fa0	-0.05911219
70	0xbc0c7d2d	-0.008574766
71	0xbdbbe0a4	-0.09173706
72	0x3d8cd07a	0.06875701
73	0xbd174643	-0.03693224
74	0xbd1a7277	-0.03770682
75	0x3d2d5e94	0.042326525
76	0xbd0b525d	-0.034014095
77	0x3e079c42	0.13243201
78	0x3e1582f6	0.14600739
79	0x3d3e870a	0.046515502
80	0x3abd9c2d	0.00144661
81	0x3d096e75	0.033552606
82	0x3ad85fac	0.0016508005
83	0x3cb60323	0.022218293
84	0x3da428f4	0.08015624
85	0x3dad7d8d	0.084712125
86	0xbd70fdb1	-0.05883569
87	0xbcfbb675	-0.03072665
88	0x3d204dd8	0.039136738
89	0x3bfd1467	0.0077233794
90	0x3c8aab32	0.016927335
91	0x3c8f85ab	0.017519793
92	0x3c0a07ae	0.008424683
93	0x3d664e8e	0.05622726
94	0x3c604723	0.013688835
95	0xbd07f0bc	-0.033188567
96	0xbd35df66	-0.044402502
97	0xbd24c4a5	-0.040226597
98	0xbc1944f0	-0.009354815
99	0x3cf48927	0.029850556
100	0x3da0013b	0.07812735
101	0x3d1c50ae	0.03816288
102	0xbbd8574d	-0.006602204
103	0x393b1414	0.0001784119
104	0x3d7ee02b	0.062225502
105	0xbd163b4c	-0.036677644
106	0x3cde2436	0.027116876
107	0x3dbe71f3	0.09299078
108	0x3e2691cd	0.16266556
109	0xbd19e939	-0.037575934
110	0xbd3c4ca9	-0.045971546
111	0xbbebb493	-0.007193157
112	0xbcea9882	-0.028637175
113	0xbc7ab2ab	-0.015301387
114	0xbc6b6c9b	-0.014369155
115	0x3d1b0b47	0.03785255
116	0x3d3386d9	0.043829773
117	0x3cc04b45	0.023473391
118	0xbd83250f	-0.06403553
119	0x3c18f510	0.009335771
120	0x3c4ebc51	0.01261814
121	0x3cf9e5e5	0.03050513
122	0x3d9004e8	0.07032186
123	0x3c740448	0.014893599
124	0xbdd2bd2b	-0.10289987
125	0x3db8cf71	0.09023941
126	0x3c16ed35	0.009211828
127	0xbcdf04ca	-0.027223963

net.4.weight f4 [128, 128]
0	0x3e122a76	0.1427401
1	0xbe0674bf	-0.13130473
2	0x3dc2534e	0.09488545
3	0xbd8315db	-0.06400653
4	0xbe1e5ee7	-0.1546589
5	0xbeab1c4c	-0.33420026
6	0xbdc049ac	-0.09389052
7	0x3c31fbde	0.0108632725
8	0xbd9c7584	-0.07639602
9	0xbdd7bd4c	-0.105341524
10	0x3da2ef1d	0.079557635
11	0xbcf15842	-0.02946103
12	0x3d88f5b1	0.06687487
13	0x3d847973	0.06468477
14	0x3e24d3f9	0.16096486
15	0xbcb4fe45	-0.022093901
16	0x3dfc8455	0.12329928
17	0x3d94b391	0.07260812
18	0x3de33872	0.110947505
19	0xbddbd7c0	-0.107345104
20	0x3ce5f5f6	0.028071385
21	0x3d91e379	0.07123465
22	0xbdd289fb	-0.10280224
23	0x3d9dcc89	0.077050276
24	0xbdd81526	-0.10550909
25	0x3da592da	0.0808465
26	0x3dadaf3d	0.0848069
27	0xbda80c18	-0.08205432
28	0xbdd9129b	-0.10599252
29	0xbd343579	-0.043996308
30	0x3dca5d50	0.09881079
31	0x3beb73d6	0.0071854396
32	0x3c7196ed	0.014745456
33	0xbd6d3e5b	-0.057920795
34	0x3d5c157b	0.053731423
35	0x3d4771cd	0.048692513
36	0x3c5fb30d	0.013653529
37	0x3daadf56	0.08343379
38	0x3d98e320	0.07465196
39	0x3c9754d1	0.01847306
40	0xbdafe99c	-0.08589479
41	0xbd34a54f	-0.044102963
42	0x3cd2ca86	0.025731336
43	0x3d28508e	0.041092448
44	0x3db7a91c	0.08967802
45	0x3ddebdc9	0.108760424
46	0x3e0e1d55	0.13878377
47	0x3e3faf4d	0.18719216
48	0x3d4c0c5a	0.049816467
49	0xbd9b129e	-0.0757191
50	0x3c617b45	0.0137623
51	0x3d296c98	0.04136333
52	0x3e01775a	0.12643185
53	0xbe1d122e	-0.15338966
54	0x3e05dd78	0.13072765
55	0xbd3c0e98	-0.045912355
56	0xbd51f776	-0.051261388
57	0xbe0857da	-0.13314763
58	0xbc9c1b6c	-0.019056045
59	0x3d44ce97	0.048048582
60	0x3e07a4d1	0.13246466
61	0xbddfacdc	-0.10921642
62	0x3df7bacd	0.12096176
63	0xbe0017d9	-0.12509097
64	0xbcbc1541	-0.022959353
65	0x3dcc582c	0.09977755
66	0x3cb494fb	0.022043696
67	0xbd6439fc	-0.05571936
68	0x3dad35ba	0.08457513
69	0xbdc9b844	-0.09849599
70	0xbda76edd	-0.08175442
71	0xbdafc81b	-0.08583089
72	0xbca1346d	-0.019678319
73	0x3dce8051	0.10083068
74	0x3d628038	0.05529806
75	0xbbdc8787	-0.0067300233
76	0x3d2596d0	0.04042703
77	0xbdf77380	-0.12082577
78	0xbd3be018	-0.04586801
79	0xbc46b723	-0.012128624
80	0x3dd1e500	0.102487564
81	0x3d16248c	0.036655948
82	0xbb454b13	-0.0030104562
83	0x3dcf68ff	0.10127448
84	0x3dec042c	0.11524233
85	0xbdafa5b1	-0.08576525
86	0xbd9be928	-0.076128304
87	0x3dfef0c3	0.124482654
88	0xbc781ff1	-0.015144334
89	0xbdcc716b	-0.0998257
90	0x3e60c72d	0.2195098
91	0xbcd6c798	-0.02621822
92	0x3e31270d	0.17300053
93	0x3dfa22f9	0.12213702
94	0x3d8a42bf	0.06751012
95	0xbb73e978	-0.0037218016
96	0xbd06af0b	-0.032881778
97	0x3d80b2ff	0.06284141
98	0xbd74e30d	-0.059786845
99	0xbccd7752	-0.02508131
100	0x3ac73849	0.0015199269
101	0x3db76bb3	0.08956089
102	0x3a5367e3	0.00080644916
103	0xbd0f6d1a	-0.035016157
104	0x3d5a47f7	0.053291287
105	0xbb312a1d	-0.0027033158
106	0xbc9ed27c	-0.019387476
107	0x3d6f6760	0.058448195
108	0xbd41c652	-0.047308274
109	0x3ddf60bb	0.10907122
110	0x3d61e282	0.055147655
111	0x3e0a4154	0.13501483
112	0xbc7bde09	-0.0153727615
113	0xbb6bb429	-0.0035965538
114	0xbc95c843	-0.018283969
115	0x3e0d3679	0.13790311
116	0xbe1813bc	-0.14851278
117	0xbd177c75	-0.036983926
118	0xbdd395fc	-0.103313416
119	0x3df03ff7	0.1173095
120	0xbd9f22b8	-0.07770294
121	0x3e01ab0a	0.12662902
122	0xbdaf5704	-0.08561519
123	0x3b10a0ea	0.0022068569
124	0x3c82b624	0.015955992
125	0xbde8e695	-0.11372105
126	0xbcb923af	-0.022600023
127	0xbcadfaf0	-0.02123782
128	0x3d6d42c2	0.057924993
129	0xbddbf762	-0.10740544
130	0xbccf3a21	-0.025296273
131	0x3dc23ad1	0.094838746
132	0x3d044077	0.03228804
133	0xbefc45bd	-0.49271956
134	0x3e0d6943	0.13809685
135	0xbdfb7c60	-0.12279582
136	0x3d7e3167	0.062058832
137	0x3b4221e4	0.0029622251
138	0x3d0980c4	0.033570066
139	0x3dcba6c6	0.09943919
140	0xbd9890d2	-0.07449497
141	0xbe05bf80	-0.13061333
142	0xbe0ab2f9	-0.13544835
143	0xbdc89e88	-0.097958624
144	0x3e0d7409	0.13813795
145	0x3e1b02cd	0.15137787
146	0xbc626be5	-0.013819669
147	0x3d6aa5d8	0.057287067
148	0x3e2cd313	0.16877393
149	0xbdd72b0a	-0.10506256
150	0xbde7aa5f	-0.113117926
151	0x3db126ea	0.086500004
152	0x3c93a7d7	0.018024368
153	0x3e3b1e0f	0.18273185
154	0x3de47ce4	0.111566335
155	0x3d1efa73	0.038813066
156	0x3bd28b8f	0.006425328
157	0x3dedc305	0.11609463
158	0x3d0b7430	0.034046352
159	0x3d148582	0.036260135
160	0x3cf06e47	0.02934946
161	0x3e0e7942	0.13913444
162	0xbd7331e7	-0.059373762
163	0xbd9fbd01	-0.077997215
164	0x3d03751f	0.032094117
165	0x3dea622d	0.11444507
166	0xbce661c8	-0.028122798
167	0x3dc39218	0.095493495
168	0x3e23da53	0.16001253
169	0x3ce96a68	0.028493121
170	0x3e17ed65	0.14836653
171	0x3bcc498e	0.0062343543
172	0x3dc30e8e	0.095242605
173	0xbc6ac921	-0.014330179
174	0xbd9634b2	-0.073342696
175	0x3dd476a3	0.10374191
176	0x3d091270	0.03346485
177	0x3b4356c4	0.0029806355
178	0xbe43479b	-0.19070284
179	0xbd246ab7	-0.040140834
180	0x3d39ed7b	0.045392495
181	0xbcd40988	-0.025883451
182	0x3e37ec52	0.17961243
183	0xbb8c3533	-0.004278803
184	0xbc87c1e6	-0.01657195
185	0xbd906137	-0.07049792
186	0x3d7643df	0.06012332
187	0xbdd1c661	-0.10242916
188	0xbdac3451	-0.08408416
189	0x3d8e388e	0.06944381
190	0x3e194118	0.14966238
191	0xbd24332e	-0.04008787
192	0xbcbb86a3	-0.022891348
193	0x3cfe2104	0.031021602
194	0x3d9c325f	0.07626795
195	0x3e029a90	0.12754273
196	0x3e861726	0.26189536
197	0x3d88516a	0.066561535
198	0x3e586d13	0.21135359
199	0xbd9e9421	-0.07743097
200	0x3c778ef9	0.015109771
201	0x3db38df2	0.08767308
202	0xbd48cb58	-0.04902205
203	0x3dbbded4	0.091733605
204	0xbd57b90a	-0.0526667
205	0xbd0e7275	-0.034777123
206	0x3d0fd8dc	0.035118923
207	0x3c80a612	0.015704188
208	0x3d6cbe3d	0.057798613
209	0x3cb38b66	0.021917056
210	0xbe54c963	-0.20779948
211	0x3df4c7b0	0.1195215
212	0xbde62163	-0.11236837
213	0x3cff43c8	0.03116025
214	0x3dbf2db9	0.09334893
215	0xbc891fa0	-0.016738713
216	0x3c359951	0.011083917
217	0x3c940249	0.018067496
218	0x3e23e445	0.16005047
219	0xbe08f7ce	-0.1337578
220	0xbd87d5d1	-0.06632579
221	0xbd3ffeef	-0.046873983
222	0xbc7795b8	-0.015111379
223	0x3d30220c	0.04300122
224	0xbd0f5e4d	-0.03500204
225	0x3e3b7d82	0.18309596
226	0xbd549e1c	-0.051908597
227	0x3ca6a1f6	0.0203409
228	0x3da2eb6f	0.07955062
229	0x3d897db4	0.06713429
230	0xbdeea751	-0.11653007
231	0xbdeec1ac	-0.11658034
232	0xbd3b5700	-0.045737267
233	0x3e0f0f52	0.13970688
234	0x3d97837c	0.073981255
235	0xbd0f95d6	-0.035055004
236	0x3db9f5db	0.09080096
237	0xbe2c050b	-0.16798799
238	0x3c5d84ed	0.0135204615
239	0x3d986009	0.07440192
240	0xbdd15ac7	-0.102223925
241	0x3d397ea5	0.045286793
242	0xbdd0661a	-0.10175724
243	0xbd3e0a54	-0.04639657
244	0xbd5a9bc2	-0.0533712
245	0xb9ec2742	-0.00045042677
246	0xbe10275b	-0.14077513
247	0x3e5d6e46	0.21624097
248	0x3da6f692	0.08152498
249	0x3cb075c1	0.021540524
250	0xbe001be7	-0.12510644
251	0x3cf7fa3d	0.03027069
252	0xbd2680f1	-0.04065031
253	0xbc8daa89	-0.017293232
254	0x3e50130d	0.20319767
255	0xbe157b66	-0.14597854

net.4.bias f4 [128]
0	0x3da70311	0.08154882
1	0x3deaedb3	0.11471119
2	0x3d287b0f	0.041132983
3	0x3dc620d4	0.0967423
4	0xbcef05cc	-0.029177569
5	0x3d29a2f4	0.04141517
6	0x3a7b6556	0.00095899904
7	0x3d18b6f2	0.037283845
8	0x3cf375f9	0.02971934
9	0x3cdac24a	0.026703972
10	0x3c7d2162	0.015449854
11	0xbcfd776f	-0.03094074
12	0xbc4c155e	-0.012456266
13	0xbd0c22c8	-0.034212857
14	0x3cda01d8	0.026612207
15	0x3df489a3	0.119403146
16	0x3d19e875	0.037575204
17	0xbd4cd84b	-0.05001096
18	0x3cb5ec48	0.022207394
19	0x3cc1fc0e	0.02367976
20	0xbb7815af	-0.0037854721
21	0x3c99e0c4	0.018783934
22	0xbd3a3cd9	-0.045468185
23	0x3b8eb6db	0.004355294
24	0x3d2b8a9c	0.041880235
25	0x3d8de465	0.069283284
26	0x3d9ac6c8	0.07557446
27	0x3a90b80e	0.0011041181
28	0x3cec6a2a	0.028859217
29	0x3da480d2	0.08032383
30	0xbcd6713a	-0.026177038
31	0xbcae1bf7	-0.021253569
32	0x3d56c5cf	0.05243474
33	0x3d229419	0.03969202
34	0x3dc76003	0.0973511
35	0xbbd11ef6	-0.0063818647
36	0xbd808841	-0.06275988
37	0x3c539a3c	0.01291519
38	0x3c4e4beb	0.012591342
39	0x3cde1ff4	0.027114846
40	0x3d329d7c	0.04360722
41	0x3db8fbe9	0.09032423
42	0x3c9a0eba	0.01880585
43	0x3d7aefda	0.061263897
44	0x3da1562f	0.07877766
45	0xbd14ac2f	-0.03629702
46	0xbcea0ec4	-0.028571494
47	0xbcf59fff	-0.029983519
48	0xbd71f21d	-0.059068788
49	0xbdb2be12	-0.08727659
50	0x3ddcc046	0.10778861
51	0x3be35828	0.0069379993
52	0x3c68ac2f	0.014201208
53	0x3dbe6579	0.09296698
54	0xbd1e66bb	-0.03867219
55	0xbb306f58	-0.0026921835
56	0xbb2513d6	-0.0025188825
57	0x3d20e855	0.03928407
58	0xbb71240d	-0.003679517
59	0xbd1c7b6a	-0.038203634
60	0x3d1af420	0.037830472
61	0xbd2d45ca	-0.042302884
62	0x3b3b65f9	0.0028594716
63	0x398a69b5	0.0002640017
64	0xbd9a3685	-0.0752993
65	0xbbccdb75	-0.0062517473
66	0x3b0c24de	0.002138428
67	0x3da9f2d1	0.08298267
68	0x3c806170	0.015671462
69	0x3bbf3fa7	0.0058364454
70	0xbd02dc19	-0.031948183
71	0xbc9c71d9	-0.019097256
72	0x3e03762f	0.12838052
73	0xbd1fb5b2	-0.038991638
74	0xbce0f122	-0.027458731
75	0xbc5c6594	-0.0134519525
76	0xbe00345d	-0.12519975
77	0x3c5809b3	0.013185906
78	0x3d36e5d7	0.044652786
79	0xbd252735	-0.040320594
80	0xbb006972	-0.00195941
81	0xbc8468f1	-0.016163321
82	0xbd1b8d30	-0.037976444
83	0xbc89512c	-0.016762339
84	0x3d1166e6	0.035498522
85	0xbac07344	-0.0014682789
86	0x3d351465	0.044208903
87	0xbc3bf9be	-0.011473117
88	0x3d1adadd	0.03780638
89	0x3d134c74	0.035961583
90	0x3cba965d	0.022776777
91	0xbd4211ce	-0.04738026
92	0x3c07790b	0.008268605
93	0x3bded020	0.006799713
94	0xbcc3f9f3	-0.023922896
95	0x39ac2e7c	0.0003284103
96	0x3c68e1dc	0.014214005
97	0x3e18bc1f	0.14915513
98	0x3c65be38	0.014022402
99	0xbcf1f19b	-0.029534152
100	0x3cdf5360	0.027261436
101	0xbcee1a88	-0.029065385
102	0x3c121d4d	0.008918119
103	0xbc078b02	-0.008272888
104	0x3db5d7fd	0.08879087
105	0x3e5a6c12	0.21330288
106	0x3caacbd1	0.02084914
107	0xbc305533	-0.010762501
108	0x3d0de8e1	0.03464592
109	0x3c688c29	0.014193573
110	0xbd2aeac2	-0.04172779
111	0xba89bde6	-0.0010508865
112	0x3d062902	0.03275395
113	0x3a3e11b0	0.00072505604
114	0x3bf24513	0.007393488
115	0xbd70c0b8	-0.05877754
116	0xbcbed64f	-0.02329555
117	0x3c4f3d82	0.012648942
118	0xbc69ed44	-0.01427776
119	0x3d089454	0.03334458
120	0x3d5ba1b8	0.053621024
121	0xbd58c7c2	-0.05292488
122	0x3ccf1920	0.025280535
123	0x3c06611f	0.008201866
124	0x3d208c24	0.03919615
125	0x3d5676b8	0.052359313
126	0xbc91763e	-0.017756578
127	0x3d03c965	0.032174487

net.6.weight f4 [128, 128]
0	0xbd6aba0c	-0.057306334
1	0xbe0c126e	-0.13678905
2	0x3e07a107	0.13245021
3	0x3da3ec54	0.080040604
4	0x3c10fc0e	0.008849157
5	0x3e068cd2	0.13139656
6	0x3e040059	0.12890758
7	0x3bd022b7	0.0063517946
8	0x3e0238f5	0.1271704
9	0x3e0189b5	0.12650187
10	0xbce3378a	-0.027736444
11	0x3d1ce9b7	0.038308825
12	0xbd8ac767	-0.06776314
13	0x3d457dea	0.048215784
14	0x3dc7ccff	0.09755897
15	0x3c7bc3b3	0.015366483
16	0x3d9cad90	0.07650292
17	0x3cb773ce	0.022394087
18	0x3bdf2c85	0.006810727
19	0xbdcbede6	-0.09957485
20	0x3d36b7d2	0.0446089
21	0xbd6dc50c	-0.058049247
22	0xbd2f8a84	-0.04285671
23	0xbdbd1367	-0.09232216
24	0x3db7e3a5	0.089789666
25	0x3cbf0988	0.023319975
26	0x3d535274	0.051592305
27	0xbdb102d1	-0.08643115
28	0xbdf72fc6	-0.12069659
29	0xbd7934e8	-0.06084147
30	0x3cbbee1f	0.022940693
31	0xbdebf744	-0.115217716
32	0x3daad323	0.083410524
33	0xbe029673	-0.12752704
34	0xbda7a5ce	-0.081859216
35	0x3d72359b	0.059133153
36	0xbcf9c52f	-0.030489532
37	0x3e24c5dd	0.16091104
38	0x3d94754b	0.07248934
39	0xbd49d883	-0.049278747
40	0xbc3fb4ba	-0.011700803
41	0xbd9ffdb2	-0.078120604
42	0x3dc6e756	0.097120926
43	0x3da15610	0.07877743
44	0xbde4cb56	-0.11171596
45	0xbdcdc97e	-0.10048197
46	0xbceeaf1c	-0.029136233
47	0xbd28ef50	-0.04124385
48	0x3da045d5	0.078258194
49	0xbdbedf79	-0.09319968
50	0xbdca1604	-0.098674804
51	0xbd89ba11	-0.067249425
52	0x3dcd2595	0.10016934
53	0xbdbf44a4	-0.09339264
54	0x3c1c81cb	0.009552429
55	0x3d14886a	0.036262907
56	0xbdc448d0	-0.095842004
57	0xbd8f00ad	-0.06982551
58	0xbd71785a	-0.058952667
59	0x3d384958	0.04499182
60	0x3d98c8f0	0.07460201
61	0xbd22ace4	-0.039715663
62	0xbc42cd09	-0.0118897045
63	0xbcce3728	-0.025172785
64	0x3d05883a	0.03260062
65	0xbd6a89ad	-0.057260204
66	0xbd730ebe	-0.05934023
67	0xbd0bf529	-0.03416935
68	0x3dc66696	0.096875355
69	0xbe00c8c5	-0.12576587
70	0x3da4b26d	0.080418445
71	0xbd84e190	-0.06488335
72	0xbdc11cd0	-0.09429324
73	0xbde841d2	-0.11340679
74	0x3d00d918	0.031457037
75	0xbcf01a2f	-0.02930936
76	0x3d34c0c5	0.04412915
77	0x3e0625e4	0.13100392
78	0x3d52db58	0.051478714
79	0x3da9fb34	0.08299866
80	0xbcee4632	-0.029086206
81	0xbda71c92	-0.08159746
82	0xbdd97fab	-0.10620054
83	0xbd7d82a9	-0.061892185
84	0x3df707b1	0.12062014
85	0xbdf4ea2a	-0.11958726
86	0x3d926a61	0.071491964
87	0xbca70016	-0.020385783
88	0x3daf8703	0.08570673
89	0x3e0435e6	0.12911186
90	0xbcb9c983	-0.022679096
91	0xbd88bf19	-0.06677074
92	0xbe18fe98	-0.1494087
93	0xbdac773e	-0.08421181
94	0x3dc0002c	0.09375033
95	0xbcd2d27c	-0.025735132
96	0xbd943148	-0.07235962
97	0xbc0ede21	-0.008719952
98	0xbd5d7f95	-0.05407675
99	0x3b44d5d6	0.0030034683
100	0x3bed4ea8	0.0072420426
101	0xbe17eec3	-0.14837174
102	0xbd036729	-0.032080803
103	0xbda0ed9d	-0.07857821
104	0xbdd50a5c	-0.104023665
105	0x3d62862c	0.055303738
106	0x3b20c131	0.0024529214
107	0xbe0e4218	-0.138924
108	0xbda0e74d	-0.07856617
109	0xbe026fb6	-0.12737927
110	0xbddb5a97	-0.10710638
111	0xbc9e7be3	-0.019346183
112	0x3e219413	0.15779142
113	0xbdaa0758	-0.08302182
114	0xbda0c187	-0.078494124
115	0xbdd22053	-0.102600716
116	0xbdeeadae	-0.116542205
117	0x3e2a7105	0.16644676
118	0x3dbbaf93	0.091643475
119	0xbdbe1465	-0.09281234
120	0x3cb08e9b	0.021552375
121	0x3db07745	0.08616499
122	0xbd10f14a	-0.03538636
123	0x3e06e0af	0.13171647
124	0xbdd7cf9b	-0.105376445
125	0xbe0bde82	-0.13659099
126	0xbdb9be9d	-0.0906956
127	0x3df904d7	0.12159126
128	0x3d152ac1	0.036417726
129	0xbdf51cb0	-0.11968362
130	0x3ccff3d0	0.025384814
131	0xbd133fb9	-0.035949443
132	0x3d186b27	0.037211563
133	0x3d565f0d	0.05233674
134	0xbc6e8e5e	-0.01456031
135	0xbd92ad4f	-0.07161962
136	0xbdd611e9	-0.10452635
137	0x3d660ee2	0.056166537
138	0x3de71a3e	0.11284302
139	0xbda3e128	-0.080019295
140	0x3de6bd03	0.1126652
141	0x3e04bee6	0.12963447
142	0x3b2d4f59	0.0026445
143	0x3bcdbc89	0.0062785787
144	0x3df81f92	0.121153966
145	0xbd7efd6a	-0.062253393
146	0xbd941eff	-0.072324745
147	0x3ddbe025	0.107361116
148	0x3c3d4671	0.011552439
149	0xbdc145da	-0.09437151
150	0xbde5e1bb	-0.11224695
151	0x3da120e0	0.078675985
152	0x3e5ece01	0.21758272
153	0x3de9dc6e	0.11418997
154	0x3ce38e33	0.027777767
155	0xbdce0c41	-0.10060931
156	0xbd3b158f	-0.045674857
157	0xbe0b5bd8	-0.13609254
158	0xbe21da84	-0.15806013
159	0x3ded7928	0.11595374
160	0x3a282716	0.00064145157
161	0x3d4e1634	0.050314143
162	0xbdb7066d	-0.089367725
163	0xbe0cfe9c	-0.13769001
164	0xbdf98d73	-0.121851824
165	0xbc2de405	-0.010613446
166	0x3d0daef1	0.034590665
167	0xbda4d934	-0.08049241
168	0x3d9ed380	0.07755184
169	0xbb046be8	-0.0020205919
170	0xbe704f4c	-0.2346775
171	0x3db26b02	0.08711816
172	0x3d6789b5	0.056527812
173	0xbca99e74	-0.02070544
174	0x3e9804e1	0.29691222
175	0x3c9c5f00	0.019088268
176	0xbd84c166	-0.064822
177	0xb981fbd2	-0.00024792418
178	0x3d85f92f	0.065416686
179	0x3cd8b3b1	0.026452871
180	0x3e0dd060	0.1384902
181	0x3e802c2e	0.25033706
182	0x3da6c4c1	0.081429966
183	0xbd963cd1	-0.073358186
184	0xbdce9dc4	-0.10088685
185	0xbd2a3d61	-0.04156244
186	0x3da3a792	0.07990946
187	0xbd354865	-0.044258494
188	0x3d623bef	0.05523294
189	0xbe27b361	-0.16377021
190	0xbd2482c1	-0.04016376
191	0x3cef2884	0.029194124
192	0xbbf95665	-0.007609176
193	0x3e149ccc	0.14512938
194	0xbdd316f3	-0.103071116
195	0xbc6ff3d5	-0.014645536
196	0x3c7193d4	0.014744718
197	0xbd90d4a2	-0.070718065
198	0x3dbb3093	0.09140124
199	0xbd558266	-0.05212631
200	0x3e0204aa	0.12697092
201	0xbcf77cbc	-0.030210845
202	0xbddd2953	-0.107988976
203	0xbe94920f	-0.29017684
204	0xbe2e8397	-0.17042385
205	0x3cf3e666	0.029772948
206	0xbbffb5c7	-0.007803652
207	0xbdcdd309	-0.100500174
208	0xbd95498d	-0.07289419
209	0x3dcba6fe	0.099439606
210	0xbd8b5c6d	-0.06804738
211	0x3da27786	0.079329535
212	0xbd844f84	-0.06460479
213	0x3ddef749	0.1088701
214	0x3dac0676	0.0839967
215	0x3de6e035	0.11273233
216	0x3e18f374	0.1493662
217	0x3d789b91	0.060695235
218	0x3d845abb	0.06462618
219	0xbca6a43d	-0.020341987
220	0x3dac7125	0.08420018
221	0x3e132907	0.1437112
222	0xbd81b4b7	-0.06333297
223	0xbe0e0844	-0.1387034
224	0x3bb5bc73	0.0055461465
225	0xbd9c62cb	-0.07636031
226	0xbd47d78d	-0.04878955
227	0x3ce15ec7	0.027511014
228	0x3d9486b5	0.07252256
229	0xbdbc52f9	-0.09195513
230	0x3e0055f7	0.12532793
231	0x3e1167b5	0.14199717
232	0x3c0d4711	0.008622901
233	0x3e10a5f8	0.14125812
234	0xbdd707d3	-0.10499539
235	0xbde62446	-0.11237387
236	0xbd0c5094	-0.034256533
237	0xbd283e47	-0.041075017
238	0x3ca4ee11	0.02013305
239	0x3d8072e4	0.06271914
240	0xbc729b99	-0.014807605
241	0x3d2bcefd	0.041945446
242	0xbdff9b01	-0.124807365
243	0xbdf2a0ef	-0.11847102
244	0xbd17be78	-0.03704688
245	0xbdb7d868	-0.08976823
246	0x3dd8e6b9	0.10590882
247	0xbd87c856	-0.06630008
248	0xbe4335a4	-0.19063431
249	0x3deeef7d	0.116667725
250	0xbe0af8a2	-0.13571408
251	0x3e05d583	0.1306973
252	0xbbf0f7b0	-0.0073537454
253	0xbe2ccef8	-0.16875827
254	0x3e5f0066	0.21777496
255	0x3d0680dd	0.032837737

net.6.bias f4 [128]
0	0x3d116a2e	0.03550165
1	0xbd0537a6	-0.032523774
2	0xbd96d79e	-0.073653445
3	0xbc81ab33	-0.015828704
4	0x3c928084	0.017883547
5	0x3e0e8e95	0.13921578
6	0xbb3d9795	-0.0028929461
7	0x3a920315	0.0011139835
8	0xbd8cc194	-0.068728596
9	0xbd0074e3	-0.03136147
10	0xbbf89e3f	-0.007587224
11	0x3cc10055	0.023559729
12	0x3d831be7	0.06401806
13	0xbc6a012d	-0.014282507
14	0x3c365d10	0.011130586
15	0x3d94be5a	0.07262869
16	0x3d027883	0.03185321
17	0xbd3f6d37	-0.046735015
18	0x3ced50fb	0.028969279
19	0xbc91aaec	-0.017781697
20	0x3b48b4a5	0.003062525
21	0x3df44ad8	0.11928338
22	0xbc8a5dea	-0.016890485
23	0x3cfdbdb1	0.030974241
24	0x3d368abc	0.0445659
25	0xbd1a1c99	-0.03762493
26	0xbc238104	-0.00997949
27	0x3e0f35f0	0.1398542
28	0xbc8c6cee	-0.017141785
29	0x3b1a1ac6	0.0023514493
30	0x3d1c7166	0.038194083
31	0x3d150429	0.03638092
32	0x3b8410bf	0.0040303166
33	0x3cd58f9e	0.026069459
34	0xbc96a127	-0.01838739
35	0xbcda70ff	-0.026665209
36	0x3d2f85d4	0.042852238
37	0xbd83604f	-0.06414854
38	0xbbe584c6	-0.007004353
39	0xbb4b4ac4	-0.0031019906
40	0x3bf62c8c	0.0075126346
41	0x3c4255de	0.011861293
42	0x3cb251fe	0.021767613
43	0xbbe88988	-0.007096473
44	0x3cdab9e5	0.02669997
45	0xbd139c59	-0.036037777
46	0x3ca548c2	0.020176295
47	0x3dc63935	0.0967888
48	0x3dc892fb	0.09793659
49	0xbd73eef4	-0.059554055
50	0x3e28f020	0.1649785
51	0x3d0dc400	0.03461075
52	0xbd6a7736	-0.057242595
53	0x3d5939b1	0.053033534
54	0xbb988222	-0.004654185
55	0x3cf7a247	0.030228747
56	0x3ca871c9	0.02056207
57	0x3d0410cf	0.032242592
58	0xbc32f9df	-0.010923832
59	0x3d25925d	0.040422786
60	0x3d228b11	0.039683405
61	0x3cf773b8	0.030206546
62	0x3be3563b	0.0069377697
63	0x3b96ffaf	0.0046081166
64	0xbbeb167d	-0.0071743117
65	0x3d500c57	0.05079302
66	0x3e0e72f0	0.13911033
67	0x3ea52d9e	0.32261366
68	0xbd9ef2f4	-0.077611834
69	0xbbb35dbc	-0.0054738205
70	0x3e03037c	0.12794298
71	0x3c94b8f8	0.018154606
72	0x3c671190	0.014103308
73	0x3ccb88a8	0.024845436
74	0xbd3e5845	-0.0464709
75	0x3d91afff	0.07113647
76	0xbc837d29	-0.016050892
77	0x3c27e6f4	0.010247935
78	0xbc899d9c	-0.016798787
79	0x3be6cdda	0.0070435824
80	0xbd677786	-0.05651047
81	0x3d0fcc97	0.03510722
82	0xbbb45dc8	-0.0055043437
83	0x3cc2e260	0.023789585
84	0x3d650312	0.05591113
85	0x3e0d8c76	0.13823113
86	0xbbad6cb4	-0.0052924994
87	0x3d79d95b	0.060998302
88	0x3dc83f0d	0.09777651
89	0x3d9bca30	0.076069236
90	0x3d36d1bb	0.04463361
91	0xbd05441f	-0.03253567
92	0xbd336fcb	-0.043807786
93	0x3d91b571	0.07114685
94	0x3dbbf8e6	0.09178333
95	0x3d67a10e	0.056550078
96	0x3c907d16	0.01763777
97	0x3d66a072	0.056305356
98	0xbd0248fb	-0.03180788
99	0xbcb83dcb	-0.022490403
100	0x3d10fd01	0.035397533
101	0x3d16189b	0.03664456
102	0xbcbdcc85	-0.023168812
103	0xbc9691f5	-0.018380145
104	0x3ccd5405	0.025064478
105	0xbcc0bd0a	-0.02352764
106	0x3cc41086	0.02393366
107	0xbd04dab6	-0.03243514
108	0xbc42dbeb	-0.011893253
109	0x3de21a28	0.11040145
110	0xbc5e622f	-0.0135732135
111	0xbb9d4499	-0.0047994372
112	0xbc94b35d	-0.018151933
113	0x3cc37341	0.023858668
114	0x3b985cd8	0.0046497397
115	0xbac11e77	-0.0014733811
116	0xbcb9545d	-0.022623235
117	0xbbe9edfd	-0.007138966
118	0xbb14d4c9	-0.0022709838
119	0xbd87643c	-0.06610915
120	0xbe0d34a9	-0.1378962
121	0x3d86e7bd	0.06587169
122	0xbc0760e0	-0.008262843
123	0xbd282f65	-0.041060824
124	0x3c6f921d	0.014622238
125	0xbcce7779	-0.025203453
126	0x3cb06c9e	0.021536168
127	0x3d080cb2	0.033215232

net.8.weight f4 [1, 128]
0	0x3ba300d0	0.004974462
1	0xbdee31ed	-0.11630616
2	0xbd325713	-0.04354007
3	0x3d82acf8	0.063806474
4	0xbd85a0de	-0.065248236
5	0x3cc12c7a	0.023580778
6	0x3dc7bc3c	0.097527
7	0x3dbd6ca2	0.09249236
8	0x3928b923	0.00016090697
9	0x3c0be637	0.008538774
10	0xbe33f6d7	-0.1757463
11	0x3d989019	0.074493594
12	0xbd8c760b	-0.068584524
13	0x3d6773bc	0.056506857
14	0x3d84719c	0.06466982
15	0x3c9c1245	0.01905168
16	0x3ca33c8f	0.019926338
17	0x3daf8c3d	0.0857167
18	0x3aaabe6b	0.001302672
19	0xbea647ae	-0.32476562
20	0xbe0cbaef	-0.13743185
21	0x3da414b0	0.08011758
22	0x3d6570c4	0.056015745
23	0xbe24f97f	-0.161108
24	0xbdbb514a	-0.09146364
25	0x3d638630	0.055547893
26	0xbe310323	-0.17286353
27	0xbd3d1ebd	-0.046171892
28	0x3cddfc91	0.027097972
29	0x3d432f73	0.047652673
30	0x3dd2a495	0.10285298
31	0x3995f715	0.00028603585
32	0x3d9cda9a	0.076588824
33	0x3b158fda	0.0022821338
34	0xbde9c4df	-0.11414503
35	0x3d8da914	0.06917015
36	0x3dd8c0b7	0.105836324
37	0x3dab23b0	0.08356416
38	0xbe09ba14	-0.1344989
39	0xbe2894a6	-0.16462955
40	0x3dcd5d97	0.100276165
41	0x3cef4b10	0.029210597
42	0x3e405bf2	0.18785074
43	0xbbe8e865	-0.0071077817
44	0x3d673e36	0.056455813
45	0x3d2ec797	0.042670812
46	0x3d7f410b	0.06231789
47	0xbb426d18	-0.0029667076
48	0xbdbf6f34	-0.09347382
49	0x3d105db2	0.035245605
50	0xbde1ee61	-0.11031795
51	0x3c78c9b7	0.015184811
52	0xbbb16235	-0.0054133185
53	0x3d3aa744	0.045569673
54	0x3e10b235	0.1413048
55	0xbb2bae50	-0.0026196428
56	0x3bf19dd1	0.0073735495
57	0xbd813d47	-0.06310516
58	0xbe3a4179	-0.18189038
59	0x3d987207	0.07443624
60	0x3e12ce41	0.14336492
61	0xbea1d366	-0.31606597
62	0x3b77f72e	0.003783654
63	0xbddc0017	-0.10742205
64	0x3d86bbf2	0.065788165
65	0xbb00a4da	-0.001962951
66	0xbdf82316	-0.12116067
67	0xbb8b40d8	-0.0042496733
68	0xbe521888	-0.2051717
69	0xbd16afff	-0.036788937
70	0x3d087c7c	0.033321843
71	0xbeaeae70	-0.3411746
72	0x3d462d78	0.048383206
73	0xbe24d0ce	-0.16095278
74	0x3d90aabf	0.07063817
75	0xbbc8a622	-0.00612332
76	0x3d9f53b8	0.0777964
77	0x3aa0d110	0.0012269337
78	0x3d01ea44	0.031717554
79	0xbc5bbce0	-0.0134117305
80	0xbbfac179	-0.0076524583
81	0xbe2acfe9	-0.16680874
82	0x3d1973e7	0.03746405
83	0xbdb218d7	-0.08696144
84	0xbdcf4e41	-0.101223476
85	0xbd8ba434	-0.06818429
86	0x3de3b464	0.11118391
87	0xbcb20193	-0.021729266
88	0xbb868248	-0.004104886
89	0xbbfa5f17	-0.00764073
90	0x3d84b822	0.06480433
91	0x3de73dcb	0.11291083
92	0xbe05f6d2	-0.13082436
93	0x3d1ee2b7	0.03879043
94	0xbd7688fc	-0.060189232
95	0xbde63cd8	-0.11242074
96	0xbd15cb06	-0.03657057
97	0xbe140cf7	-0.1445807
98	0x3c9f865a	0.019473244
99	0xbc89f871	-0.016842099
100	0x3db8e611	0.09028257
101	0x3c9ac9db	0.01889508
102	0x3d7120a7	0.05886903
103	0xbd7f6930	-0.062356174
104	0x3df81765	0.12113837
105	0xbabbac59	-0.0014318331
106	0xbe008d25	-0.12553842
107	0xbdb15bec	-0.08660111
108	0x3dca5cb2	0.098809615
109	0xbe5ee064	-0.21765286
110	0x3a722174	0.0009236552
111	0xbd8005aa	-0.0625108
112	0x3e023650	0.12716031
113	0x3df5e397	0.120063
114	0xbc7fd2ac	-0.015614193
115	0xbe349219	-0.17633857
116	0x3c916f72	0.017753337
117	0x3e04d7d3	0.12972955
118	0x3ccb5ba9	0.02482398
119	0x3e20ff78	0.15722454
120	0xbc8c4611	-0.017123254
121	0xbd3c431b	-0.045962434
122	0x3e0cc262	0.13746026
123	0xbe32ea49	-0.17472185
124	0x3c0513d4	0.008122403
125	0xbe822f86	-0.25426883
126	0x3da170d1	0.07882846
127	0x3e2a6b49	0.16642489
