modelparameter/willie_lognormal8_1.pth (torch, 206743 bytes, 9 tensors)

net.0.weight f4 [128, 8]
000000 04 a0 bd 3c e2 f8 3c 3e 20 fc 9d 3b 4d fe ff bb
       0.02314759 0.18454316 0.0048213154 -0.0078122974
000010 06 d3 98 3d ac 25 da bb fe 1d e1 bd 23 b4 87 bd
       0.074621245 -0.006657323 -0.10992049 -0.06626155
000020 9c 6f 86 3c 32 64 ea bd 29 da 41 bd 89 a6 83 bc
       0.016410641 -0.11444892 -0.047327194 -0.016070621
000030 da 00 94 3d a9 cb fc 3d 63 a5 1f bc 8e 3a 0e 3e
       0.07226725 0.123435326 -0.009744021 0.13889524
000040 f1 ec 55 bd da 81 43 3c f1 70 77 bd fa e4 37 bd
       -0.052227918 0.0119328145 -0.060410444 -0.044896103
000050 c2 f0 e1 3c a3 2c be bd b1 cb 03 3d ca ed a5 3e
       0.027580623 -0.092858575 0.032176677 0.3240798
000060 b9 71 13 3e 5a 0e 26 be 4d c7 95 3e ee bb 28 3e
       0.1439885 -0.16216412 0.29253617 0.1647794
000070 17 3c 37 3e df f8 90 3e 63 9f c9 3c 49 c4 45 be
       0.17894016 0.28314874 0.024612134 -0.19313158
000080 33 ea fe bd 53 09 85 3e 0c e6 ed bd 49 6f 1b be
       -0.12447014 0.25983676 -0.116161436 -0.1517917
000090 79 73 03 3e eb b1 70 3e ab ce 07 bc b6 b5 0b be
       0.12837018 0.2350537 -0.00828902 -0.13643536
0000a0 8b 83 9d 3d 7a 8e 8d 3d da 30 53 3e dd cc 8e bd
       0.076911055 0.06911941 0.20624104 -0.06972668
0000b0 83 9f 14 3d 70 2a 84 3e 58 98 19 bd 8a 53 a4 bc
       0.036284935 0.25813627 -0.037498802 -0.020059366
0000c0 60 a1 bd 3d 7f 7b b5 bc 08 32 c3 bc 0b 90 bd bd
       0.092592955 -0.022153614 -0.023827568 -0.0925599
0000d0 3a 08 36 3e 4d df a9 bd 12 dd 71 bd 30 1a 81 3e
       0.17776576 -0.08294544 -0.05904872 0.25215292
0000e0 10 41 5c 3d db ae be 3d d0 12 72 3d ca cc e9 3c
       0.053772986 0.09310695 0.059099972 0.028540034
0000f0 f2 5e 0b 3e 6d 67 d4 bd b2 f3 b5 bd f6 a9 78 bd
       0.13610438 -0.103712894 -0.08884372 -0.060708962
000100 27 b0 cc 3d 48 30 90 3e e2 7d fb 3d b6 4e a7 3d
       0.09994536 0.28161836 0.122798696 0.0816931
000110 a4 ff a1 3b 76 3f 19 be 44 4b 42 be 01 68 87 3b
       0.004943805 -0.14965615 -0.18974024 0.0041322713
000120 fb d1 5e 3e 23 83 14 bc e5 bb a7 bd b2 d2 f8 bd
       0.21759789 -0.009064469 -0.08190135 -0.12149562
000130 26 44 d2 bc 2e 24 49 3d de b9 be 3c 60 67 1f bd
       -0.025667261 0.04910677 0.023281988 -0.038916945
000140 34 c4 45 3e cb 6f db 3d 14 6e b4 3e cf 36 a3 be
       0.19313127 0.10714682 0.35240233 -0.31877753
000150 2f 2e 55 3c 21 68 d0 3c 88 0c b1 3e 84 33 72 bd
       0.013011499 0.025440278 0.34579873 -0.05913116
000160 7b fa 95 3e c2 4c 14 3d 9d a3 0c be 35 3a 4a 3d
       0.29292664 0.036206014 -0.13734289 0.049371917
000170 29 c7 01 bd 65 df 73 bc 5d 33 4d bc b3 23 9a bd
       -0.031684075 -0.014884804 -0.012524453 -0.0752634
000180 ef 11 5b bc fe fb 53 bc 2f 1b 82 3b 52 14 e3 bd
       -0.013370975 -0.012938498 0.0039705257 -0.1108786
000190 34 20 95 3e 14 33 cb bc ee b7 dd 3c 21 ee cf 3d
       0.29126132 -0.02480463 0.027065244 0.10152841
0001a0 8d 46 d5 3d 77 dd 09 3d e2 95 13 3e 0c 74 cf 3d
       0.10413847 0.03365847 0.14412645 0.10129556
0001b0 5f 0d 01 3e 1d 59 f7 bd 16 df 11 be 3e 05 81 be
       0.12602757 -0.12077544 -0.14245257 -0.25199312
0001c0 da 41 31 be 59 67 b2 3d b6 46 1d be 27 8c 16 3e
       -0.17310277 0.08711118 -0.15359005 0.14701901
0001d0 6a f6 db 3d 3d 26 e6 3d dc 9f a5 bc 1d 4d 57 bd
       0.10740359 0.11237762 -0.020217828 -0.052563775
0001e0 1b 52 a7 bd 04 cb 06 be 6e 22 3e be f2 f6 30 be
       -0.08169957 -0.13163382 -0.18567821 -0.17281702
0001f0 ae f3 72 bd ed d9 14 be b5 7d ed bd fe de f8 bd
       -0.059314422 -0.14536257 -0.11596242 -0.121519074
000200 8b eb 97 bd 77 bf ad 3d be 0d 01 be 03 45 2d 3e
       -0.07417973 0.08483785 -0.12602898 0.16920857
000210 90 6b 39 3e ca 7a aa 3d 24 b5 0c bd 26 53 1d 3e
       0.18107438 0.083242014 -0.034352437 0.1536375
000220 69 bb ff 3d 37 2d fc bc c3 1d b3 bd dd 60 a0 3e
       0.124869175 -0.030783279 -0.08745911 0.313239
000230 76 f5 42 3e 38 3f d1 3d 31 7e cb bd 43 6b 69 3b
       0.19038948 0.10217136 -0.099361785 0.0035616911
000240 df 79 7a 3d ef 6d 9a 3c f1 28 c9 3d 8d f3 44 3e
       0.06115138 0.018851249 0.09822262 0.19233532
000250 f8 df 3e bd 92 86 ad 3d 58 8c 70 bd e2 00 a0 3c
       -0.046600312 0.08472933 -0.058727592 0.019531671
000260 15 e0 3c 3e 95 b7 a2 bb 33 c9 86 be 0a 65 74 bd
       0.18444856 -0.0049657323 -0.26325378 -0.05966667
000270 30 f6 c3 bd ae 0a 77 bd cc 19 8b bd be cf ae 3c
       -0.09568441 -0.06031292 -0.0679203 0.021339294
000280 5a 04 a5 bc d8 b1 35 3e 85 92 ec 3d 09 e0 0b be
       -0.020143677 0.17743623 0.11551384 -0.13659681
000290 cc 6c cf 3d 58 12 24 3e aa 49 dc 3c 6b 81 af bc
       0.10128173 0.16022623 0.026890595 -0.021424016
0002a0 97 df 06 be cc 03 c3 3d e0 bd 38 3e d6 68 96 3d
       -0.1317123 0.095222086 0.18041182 0.073442146
0002b0 a9 55 4a bd 39 23 03 3d 9b d5 d3 bd ef 2d 21 3c
       -0.0493981 0.032016013 -0.103434764 0.009837612
0002c0 f0 19 9e 3b cc 6b 10 bb 1b 30 5a bd f6 06 7f 3d
       0.0048248693 -0.0022036908 -0.053268533 0.062262498
0002d0 ad d9 5c be 19 84 b4 3d 54 27 9a 3d 09 bc 2f 3e
       -0.21567412 0.08814258 0.075270325 0.17161573
0002e0 af 2b 2c 3e 55 d2 76 3d 13 16 1e be 61 a1 fc 3c
       0.16813539 0.060259182 -0.15438108 0.03083867
0002f0 9b ee a2 3d 80 ea 00 3c be 49 c6 bc 36 2b 12 bd
       0.07955667 0.007868409 -0.024205085 -0.03568574
000300 e1 6f f9 bd e0 05 25 bd f0 13 88 3d 54 af 99 3d
       -0.12179542 -0.040288806 0.06644428 0.07504144
000310 94 9b 6f bd 31 ac 82 bd 5b 27 38 3d 93 74 0a be
       -0.05849798 -0.06380499 0.044959407 -0.13521032
000320 59 80 2b 3d 7c d8 e2 bc 2d 24 58 3e 83 4b 32 3d
       0.04187045 -0.027691118 0.2110755 0.043529045
000330 75 ec 16 3e 53 97 e2 3c 91 05 0c 3e 19 25 99 3c
       0.14738639 0.027660048 0.13673998 0.018694447
000340 1a 0f 1a be ea 08 b3 3e 55 19 9d bd 07 ee 96 bb
       -0.15044823 0.34967738 -0.07670847 -0.004606012
000350 9b 7a c1 bd df 68 51 be 7f bf 35 bd 74 b8 03 3f
       -0.09447213 -0.20450161 -0.044372078 0.5145333
000360 9a 08 fd bc ec d1 ab bd 44 dc 37 3d 05 fe 92 3d
       -0.03088789 -0.08389649 0.044887796 0.07177357
000370 97 cf 00 be 6e 23 97 3e ad 8a 0b 3e c9 cf 6c 3d
       -0.12579189 0.29519218 0.1362712 0.057815347
000380 29 93 1b bd 66 90 f1 3d 3e d2 39 bd c1 4a 5e 3e
       -0.03798214 0.1179512 -0.04536652 0.21708204
000390 12 8f 92 3d 9f fb cf 3d ac 6a 9d 3d d7 ec 2f 3d
       0.07156195 0.10155415 0.07686362 0.042950477
0003a0 e8 16 8a bd 50 0c 2f 3e 71 9e f2 bd 42 86 59 bd
       -0.0674265 0.1709454 -0.118466265 -0.053106554
0003b0 1b b6 24 3e 55 ff 3b 3e 24 cc d8 ba 2b ff 8c bd
       0.16085093 0.1835912 -0.0016540331 -0.06884607
0003c0 c1 42 78 3e 3d 58 97 3d d8 df 2e bd 95 b9 f4 bd
       0.24244215 0.07389877 -0.042693943 -0.119494595
0003d0 1f 69 c1 3c 5a 2f da 3d 70 9d 7c 3d 01 20 49 bd
       0.023609696 0.10653563 0.06167358 -0.049102787
0003e0 53 00 79 3e 4e 98 d2 bb 14 22 77 bd da 56 d9 3d
       0.2431653 -0.0064268475 -0.060335234 0.10612269
0003f0 0c d9 1e 3d a5 33 58 3d 3b b5 50 3d 33 c3 39 3d
       0.03878121 0.052783627 0.050954085 0.045352172

net.0.bias f4 [128]
000000 3b 72 6c 3e b6 d9 2b 3d b2 db 87 bc 7c a2 ab 3d
       0.2309045 0.041955672 -0.016584251 0.08380601
000010 46 b7 96 3c 6a fd 1f 3e 3b 1c f5 3d ea 91 53 bc
       0.018397938 0.15624014 0.11968275 -0.012913207
000020 95 62 84 bc f7 18 63 3e bf 8a ad bc cb f8 08 bc
       -0.016160289 0.22177492 -0.021184323 -0.008360098
000030 77 5a 1c 3d cd f2 ce 3c ae bb 19 3e 2c 34 4d be
       0.03817221 0.02526226 0.15013 -0.20039433
000040 dd 10 7f 3e 2f d8 b0 3e c5 5f c1 3e f4 02 b2 3d
       0.24908777 0.34539935 0.3776838 0.086919695
000050 eb f6 ae 3d 35 91 88 3e 4f 50 28 bd 55 c0 93 3e
       0.085431896 0.26673284 -0.041092213 0.28857675
000060 b6 80 9a 3e 71 33 89 3e 77 90 cc bb e5 0d 8f 3d
       0.30176324 0.2679706 -0.0062428075 0.06985072
000070 b4 5d 90 3e 8d 83 00 3d 1f 91 33 3e 4a 23 2f 3e
       0.2819649 0.031375457 0.17535828 0.17103305
000080 1f 97 76 3e 89 b8 7c 3d 4a 3c c9 3c 85 00 32 bb
       0.24081086 0.061699424 0.02456488 -0.0027160954
000090 03 51 87 3d 81 58 4a bc 4d 03 6f 3d 33 05 ce 3b
       0.06607249 -0.012350203 0.058352757 0.006287241
0000a0 1a 67 b6 3e 6f 4b ac 3d dd c1 91 3d 39 de cc 3c
       0.35625535 0.08412825 0.071170546 0.025008308
0000b0 da bb ff 3d a0 9d c5 3d f3 05 a3 3e 9d d7 d9 bd
       0.12487002 0.09649205 0.31840476 -0.10636828
0000c0 e4 7d 84 3d a9 e8 c0 3d 80 aa 2c 3e 46 b1 2d 3e
       0.06469324 0.094193764 0.16861916 0.16962156
0000d0 76 59 9a 3e 4a a7 2c 3d f1 5c b1 3d 64 8e ba 3e
       0.30146378 0.042151727 0.08660305 0.3643676
0000e0 21 97 44 3e 58 fe 80 3d dc 1d 79 3d 77 f9 b4 3d
       0.19198276 0.06298512 0.06081949 0.08836644
0000f0 09 5a ac 3d 90 3f c5 3d e5 62 1e 3e c2 1d 11 3e
       0.0841561 0.09631264 0.15467413 0.14171508
000100 dd a5 be 3e 32 eb cc 3e c4 3d f9 3d d0 79 93 3d
       0.3723592 0.4002319 0.12169984 0.07200968
000110 a0 d6 35 38 7a 7a 6b 3d f5 10 61 3e f1 b8 b7 bc
       4.3353648e-05 0.05748985 0.21979125 -0.022427054
000120 5d 0d 3d bc f8 56 8b 3b 31 e1 e3 bc 27 3d 77 3d
       -0.011538831 0.004252311 -0.02781734 0.060361054
000130 6a e2 b0 3c 55 9b 26 3d 8d bb c1 3d 3c dc 83 3e
       0.021592338 0.04067548 0.094596006 0.25753963
000140 80 35 7b 3e 84 8b 7a 3d ea 1e 76 3e 71 7a 7b 3e
       0.24532127 0.06116821 0.2403523 0.24558426
000150 43 49 38 3c 5c 10 62 3e 78 ae 7f 3d 31 55 57 bc
       0.011247936 0.22076553 0.062422246 -0.01314287
000160 26 4b c8 3b 69 21 0c 3e 21 2b 6c 3d 04 7a a2 bd
       0.006112474 0.1368462 0.05765832 -0.07933429
000170 e2 d2 ff 3c 6e 5f e8 bc cf 31 38 3d e3 48 a9 3d
       0.031228486 -0.028365817 0.044969376 0.08265855
000180 06 01 93 3d 9f d4 53 3d 2b 6f d8 3d 16 dd 3b bd
       0.071779296 0.051716443 0.105680786 -0.04586514
000190 c7 4f 15 3e 30 61 16 3d 15 2d 95 bc 69 f4 96 3e
       0.14581214 0.03671378 -0.018209973 0.29483345
0001a0 19 10 9e 3d b5 57 16 3e 90 66 4f bd 29 00 c5 3d
       0.07717914 0.14681895 -0.05063492 0.09619171
0001b0 f3 08 15 3e ba 19 80 bd e0 37 ab 3d 64 1f 0e bd
       0.14554195 -0.06254907 0.08360267 -0.034697905
0001c0 a2 17 74 3d 50 93 84 3c a7 04 73 bd 15 89 0e 3d
       0.05959285 0.016183525 -0.05933061 0.0347987
0001d0 d6 e2 88 3e b8 51 af 3c 3e 9f 58 3e 09 3a b2 3d
       0.26735562 0.021401271 0.21154496 0.087024756
0001e0 b2 43 19 3d 10 17 51 3d cb 32 7c 3d 09 d9 bf 3a
       0.037418075 0.051047385 0.061571877 0.0014636825
0001f0 8c e5 0b 3e 83 5a ef 3d a6 9d 85 bc 28 45 8f bd
       0.13661784 0.116871856 -0.016310524 -0.069956124

net.2.weight f4 [128, 128]
000000 3a a1 03 3e 61 55 09 3e 31 69 0c 3d 70 c3 eb 3c
       0.12854472 0.13411476 0.034280006 0.028779715
000010 7d 2c 49 bc f7 4b dc bc 1d e4 28 be 28 e6 f4 bd
       -0.012278673 -0.026891692 -0.16493268 -0.11957961
000020 1f 54 c7 bd 6f 63 21 3e 7b 62 4e 3d 30 70 19 3e
       -0.09732842 0.15760587 0.050386887 0.14984202
000030 92 85 d6 3d 61 ce 95 bd c0 4a fd 3d c7 f3 95 3d
       0.10474695 -0.07314754 0.12367773 0.073218875
000040 42 34 ec 3c a3 b4 07 3e 09 b2 0c be 3b 5f d1 bd
       0.028833512 0.13252501 -0.1373979 -0.10223242
000050 9d d6 18 be 94 bd 18 be 03 e5 03 3d 9d 63 af 3d
       -0.14925618 -0.14916068 0.032200824 0.085639216
000060 d0 de ba bd cb 55 3a bd 60 11 e9 bd 1a b7 1d bd
       -0.09124529 -0.045491975 -0.11380267 -0.038504697
000070 28 0d 00 be 42 1e 17 be b9 0e c9 3d 16 82 35 3e
       -0.12505019 -0.14757636 0.09817261 0.17725405
000080 58 8b fa bd 4c d2 47 3d 2e 12 56 3c d7 64 2c bd
       -0.12233609 0.04878454 0.013065858 -0.042088356
000090 87 2f 83 bc e7 fd 3c bb 9b e1 ca bd 0f a0 01 bd
       -0.016013874 -0.002883786 -0.09906312 -0.031646784
0000a0 0a b5 1c 3e 0e 5a 08 be 96 f7 d3 bd 0b dc e0 bb
       0.15303436 -0.13315603 -0.10349958 -0.0068621687
0000b0 2d 80 4e 3e 20 de 17 be 06 e1 29 bc 4a d7 d4 bd
       0.20166083 -0.14830828 -0.010368591 -0.10392626
0000c0 12 4d af 3d bc c5 07 3e d8 94 74 bd 57 14 92 bd
       0.08559622 0.13259023 -0.05971226 -0.07132786
0000d0 96 53 10 bd 53 c5 df 3c 04 95 1e bd 9d e7 a0 bd
       -0.035235964 0.027315771 -0.03871633 -0.07856677
0000e0 a5 51 12 bd 5a 9b 87 3d dd 10 a8 bd 87 10 d6 bc
       -0.035722394 0.06621428 -0.082063414 -0.026130928
0000f0 56 cf b5 bd 38 99 9e bd 38 c2 9f bd 5e df 04 3e
       -0.08877437 -0.07744068 -0.07800716 0.12975833
000100 51 b3 89 3d 58 06 f6 bd d4 12 ce bc 8b 7c c0 3d
       0.06723655 -0.12012929 -0.025155462 0.09398755
000110 73 64 3c bd e6 2b 12 3e 4f 1e fc 3c fd 66 28 bd
       -0.045994233 0.14274558 0.030776171 -0.041113842
000120 de 02 53 3c 07 54 07 be 1e f3 cc 3a 84 6e f9 bd
       0.012879102 -0.13215648 0.0015636419 -0.12179282
000130 09 9b a7 bd 21 d6 04 bd 41 9c 96 bd 4f 0c 82 bc
       -0.081838675 -0.03243077 -0.07354022 -0.01587501
000140 d1 d1 f4 bd 1b 32 f1 3d cb 7b 81 bd e4 e5 3c 3d
       -0.11954082 0.11777135 -0.0632244 0.04611768
000150 1f 63 a5 3d 11 78 bb 3c 6d f6 90 3d 06 67 0d be
       0.080755465 0.0228844 0.07078252 -0.13808832
000160 a8 cc 09 be d1 2e 84 3d 54 3a fd 3d da 4c 97 3d
       -0.13456976 0.06454242 0.12364641 0.07387705
000170 cb e6 04 be cd cd 3e 3d 51 d8 9a 3d 9b 6a ed bd
       -0.12978666 0.046582986 0.0756079 -0.11592599
000180 37 28 67 bc 7a ba c4 3d c7 29 2f bc a6 43 d0 3d
       -0.014108709 0.0960588 -0.010691113 0.10169153
000190 a9 7b 5e bd 5f 77 ac bc 4d 02 a6 3d 27 cc 9a 3d
       -0.05431715 -0.021053014 0.081059076 0.0755847
0001a0 7b fa 6b 3d a8 4a 18 bc 97 ca 62 3d 5f ed a2 bd
       0.057611924 -0.009295143 0.055368986 -0.07955431
0001b0 39 f2 18 3e 63 0c d0 bd 72 64 0e be d8 6a a4 3d
       0.1493615 -0.101586126 -0.13905504 0.08028191
0001c0 cf 36 dc bd e5 53 0a be 74 44 8b 3d 0c 5f f5 bd
       -0.107526414 -0.13508566 0.06800166 -0.119810194
0001d0 fb c4 e9 3d 47 d9 04 be ab b2 91 bd bf 2f d3 bc
       0.11414524 -0.1297351 -0.07114156 -0.025779603
0001e0 42 c7 d8 3d ce 51 84 bd ca 21 59 3d 93 c3 1f be
       0.105848804 -0.064609155 0.05301074 -0.1560195
0001f0 19 db 19 3d 02 d0 3b bd d1 ec fc 3d 69 ae 6f bb
       0.037562463 -0.04585267 0.12349857 -0.0036572462
000200 a6 9c ee bc e0 bb 50 bd 7a 14 c0 bb e6 5e 97 3c
       -0.02912743 -0.05096042 -0.005861816 0.018477868
000210 7e 70 9a bc f8 e2 35 3d d7 83 fe 3d ba f0 96 3c
       -0.018852469 0.044405907 0.1242749 0.018425334
000220 5e d9 32 bd 74 e5 20 3e 2c cc 52 3e 7b 50 d2 3d
       -0.04366433 0.1571253 0.20585698 0.10269257
000230 c0 78 db 3d a8 88 fe 3d ca d8 9b 3d 3b 67 4c bc
       0.107163906 0.12428409 0.076097086 -0.012475784
000240 88 0c 9f bd 1f 55 3e bd fb ee a5 be 48 14 a8 bd
       -0.07766062 -0.046467897 -0.3240889 -0.08206993
000250 d3 14 08 3e af 06 d3 3c a3 dd ce 3d 50 a9 c3 be
       0.13289194 0.025760023 0.101008676 -0.38215113
000260 06 90 ec 3c ab ac af 3d 3c 8c 9c 3d 70 69 17 bd
       0.02887727 0.08577856 0.07643935 -0.036965787
000270 2d 3b ef bc 43 89 1f 3d db 35 38 3e af 61 22 be
       -0.029203022 0.038949262 0.17989294 -0.15857576
000280 76 79 a0 3d 0b bf 1d 3e 77 46 99 3b 17 7e 6d 3d
       0.07835667 0.15404908 0.0046775895 0.057981577
000290 ae ff 3c 3e 63 09 e3 3c f3 ac 30 3e d3 7a 33 3e
       0.18456909 0.027714437 0.17253475 0.17527322
0002a0 80 e8 cd 3d 32 09 b7 3d 83 84 89 3d bc e3 e6 3c
       0.100541115 0.08937301 0.06714728 0.028184764
0002b0 fe be e0 bd 47 d6 13 be f8 8b fb 3d 17 f0 2d 3d
       -0.10973929 -0.14437209 0.12282556 0.042465296
0002c0 9c 1f 11 be d8 11 b9 bc 02 63 6d bc cd 78 4f be
       -0.14172214 -0.022591516 -0.014488937 -0.20260926
0002d0 3f f8 97 3e ba d7 87 3d 2f 34 4d 3d 83 aa ab 3c
       0.29681584 0.066329435 0.050098594 0.02095533
0002e0 af c7 d7 3d 87 86 87 bc f1 1b cf 3d 87 a4 00 3c
       0.105361335 -0.01654364 0.10112751 0.007851726
0002f0 1a 78 10 3e a2 3e 88 3e 89 df 29 3e fd 18 14 3e
       0.14108315 0.26610285 0.16589178 0.14462657
000300 51 8a a7 3d c4 02 38 be cc 35 59 3d 30 25 00 3e
       0.08180679 -0.17969805 0.05302982 0.12514186
000310 e3 82 b0 3d 18 ed 44 3d e7 93 99 bd 5c 08 14 bd
       0.08618715 0.048077673 -0.07498913 -0.036140785
000320 ed 8a c8 bd d4 b6 c7 3c b9 16 d8 bd 0a e1 87 3e
       -0.09792123 0.024379171 -0.10551209 0.2653888
000330 99 1d 87 3e 2c 09 4b 3e 30 59 4d 3d 4f fe a7 3d
       0.2638977 0.19827718 0.050133884 0.082028024
000340 a8 f0 98 bc 8e 66 b4 3d c0 15 a2 bc e2 56 21 3e
       -0.018669441 0.08808623 -0.019785762 0.157558
000350 b6 36 ca 3d 66 bf cb bc 15 73 8f 3d 09 f6 6f 3c
       0.098737165 -0.02487154 0.07004372 0.014646062
000360 ce e7 df 3d 09 1c cd bc 0d 3e c9 bd 4c 72 69 bc
       0.10932885 -0.025037782 -0.09826288 -0.014248442
000370 61 42 69 3e 25 11 1a 3d 69 3a 21 3e 5e 91 32 3d
       0.22779228 0.037614007 0.15744938 0.043595664
000380 8d 53 64 3e 11 4c c9 3d 30 11 2b 3e 8c f4 9c bd
       0.22297497 0.09828962 0.16705775 -0.07663831
000390 fb a8 a9 3d a6 9e b0 3d bd c0 9f 3d e3 cf d1 3d
       0.082841836 0.0862401 0.07800434 0.10244729
0003a0 97 52 0f 3c 13 b1 3c 3e 27 b8 f4 3c 31 dc 6e 3d
       0.008747718 0.18426923 0.029872967 0.05831546
0003b0 9f 9b 1a 3e 70 05 e6 3d 66 fa d2 bd bf d8 44 3d
       0.15098427 0.11231506 -0.10301666 0.048058268
0003c0 5b c3 6e 3d 9c b6 46 3e 21 30 19 3c 7a 09 d3 3d
       0.058291774 0.19405597 0.009349854 0.10304542
0003d0 8d 7c 00 3e ed 86 ae bd d0 4d 3b 3e e8 e8 0a 3d
       0.12547512 -0.08521829 0.18291402 0.033913523
0003e0 59 ce a5 3d 89 89 94 bd f5 44 17 bd e6 a1 14 3e
       0.08095998 -0.07252795 -0.036930997 0.14514884
0003f0 f1 a1 ad 3a 21 fe 59 bc 34 5f 1b bd 3f 9a fd 3d
       0.0013247115 -0.013305218 -0.03793259 0.12382936

net.2.bias f4 [128]
000000 f1 89 9b bd 0c 65 a6 bd 27 68 e8 3c 67 68 04 be
       -0.075946696 -0.08124742 0.028369976 -0.12930451
000010 11 0a aa 3d e6 be f5 3d 27 e7 8a bc 4a 95 2e bd
       0.08302701 0.119993016 -0.016955925 -0.042622842
000020 54 be dd 3d fc a7 05 be 08 55 dc 3d f6 cc 8a bd
       0.10827318 -0.13052362 0.10758406 -0.067773744
000030 5c 79 a4 bd 81 23 1e 3c 6e 6c dc bc b4 1c bf bd
       -0.0803096 0.0096520195 -0.026907172 -0.093316466
000040 07 4f ad bc 73 fc 85 3c d0 0b 7a bd af 97 80 bc
       -0.021155847 0.016355729 -0.06104642 -0.015697328
000050 80 f4 a2 bd 1c e9 0a be f4 14 ae bd 15 ec cc bd
       -0.07956791 -0.13565487 -0.0850009 -0.100059666
000060 eb db a9 be 35 23 92 bd c8 23 1f be e3 59 c0 3d
       -0.33175597 -0.071356215 -0.15540993 0.093921445
000070 67 b0 a9 3c e5 c4 ef 3d 9b ce 26 3e 87 92 83 bd
       0.020713998 0.117074765 0.16289751 -0.06424432
000080 39 db a1 bc ff 8d 64 bc 4c a8 1d be 8e eb 96 bd
       -0.019757854 -0.01394987 -0.15396231 -0.07369147
000090 e1 65 5b 3c f7 f3 20 3b c3 fd 87 bd 1f fd ec bd
       0.013390989 0.0024559477 -0.06640198 -0.115717165
0000a0 69 da 93 bd 9e 65 a5 bc 25 de c2 ba ff bf 12 bc
       -0.07219393 -0.020190056 -0.001486723 -0.008956908
0000b0 ff 13 6d bd 49 d7 cb 3c 14 67 80 bd fd 69 8d 3c
       -0.057880398 0.02488293 -0.062696606 0.017262453
0000c0 db 66 01 3e 3b 9e 93 3d 12 46 a7 3d ee cb fa bc
       0.12636892 0.072079144 0.08167662 -0.03061482
0000d0 df f2 6e bd b2 d0 90 bd c6 62 02 3d c2 08 9d bd
       -0.05833709 -0.070710555 0.03183248 -0.07667686
0000e0 83 1b 1d bc b2 ec af bb 67 61 43 3c 95 b3 c4 3d
       -0.009589079 -0.0053687925 0.011925078 0.09604565
0000f0 dc 38 b5 bd a1 89 67 bc fb 44 9b 3d 9b 4d a7 bc
       -0.08848736 -0.014131934 0.07581516 -0.020422747
000100 63 00 b9 bd 0b 4a c1 3d 49 17 f9 bd 38 c5 5f bd
       -0.09033277 0.09437951 -0.121626444 -0.05463144
000110 6d 6d 19 3e 44 da b3 bc fb 8a c7 3d c0 73 81 3d
       0.14983149 -0.021954663 0.09743305 0.06320906
000120 3f e1 22 3e f5 18 e5 bc 18 21 a5 bd 9d 3b fe 3c
       0.15906237 -0.027966002 -0.08062953 0.031034285
000130 1e ed 07 3e 52 87 b0 bd 88 e1 8a 3d ab c0 7e 3d
       0.13274047 -0.0861956 0.06781298 0.06219546
000140 bf b6 5d bd 6f 21 a3 bd 67 18 86 3b 05 dd 59 3e
       -0.05412936 -0.07965361 0.0040922645 0.21275719
000150 46 55 92 bd 0b 12 7d bc 1a c3 b4 bd 20 58 21 bb
       -0.07145171 -0.015446196 -0.08826275 -0.0024619177
000160 6a e3 bf 3a 26 57 95 3d 3d 9c 9b 3d 4a 88 f1 bd
       0.0014639918 0.07292013 0.075981595 -0.11793573
000170 70 07 f3 3c ac f9 b0 bd 58 93 a7 bd e9 9b f8 bc
       0.029666632 -0.08641371 -0.081824005 -0.030347781
000180 48 2c bb bd c4 04 9f bd c1 c6 93 bd d0 3f e4 3d
       -0.09139305 -0.07764581 -0.07215644 0.11144984
000190 bb 47 a3 bd 0f 08 84 be c1 23 9d bc fd 15 dd bd
       -0.07972666 -0.25787398 -0.019182088 -0.107952096
0001a0 60 82 21 bd 7a 20 4c 3d a6 25 f4 bd c8 4d f2 3e
       -0.039430976 0.04983566 -0.11921243 0.47324967
0001b0 33 b4 1e 3d 23 f7 bb 3c 83 d6 b0 bd 05 75 13 be
       0.03874607 0.022944992 -0.08634665 -0.14400108
0001c0 30 15 12 3b 87 f9 22 3e 6d 03 1c bc 10 6f 4f bd
       0.002229046 0.159155 -0.009522301 -0.050643027
0001d0 90 bd cd 3d 7f 39 ac 3d 2a 42 b0 3d 15 1b 02 3e
       0.10045922 0.08409404 0.0860637 0.12705643
0001e0 23 d1 a7 bd 4d 01 6c 3d 3a b9 85 bd 0c bf ba bd
       -0.081941865 0.057618428 -0.0652947 -0.091184705
0001f0 be 69 cb 3d d9 b1 7a bb 18 ea 2d bd 1f 94 8d bb
       0.09932278 -0.0038252978 -0.042459577 -0.004320636

net.4.weight f4 [128, 128]
000000 ae 66 66 bd e0 3e 24 be b1 17 32 be e5 41 10 bd
       -0.056250267 -0.1603961 -0.1739185 -0.035219092
000010 86 b3 84 bd fb 94 d4 3d a6 fb 2f bc ed 3f 1f 3c
       -0.06479554 0.10379978 -0.01074115 0.009719831
000020 24 6c 92 be 63 02 cd 3d 07 c7 27 3d fd 60 dc bb
       -0.2859813 0.10010221 0.04096129 -0.006725429
000030 02 6f 93 bd 06 20 37 3e 43 5a 04 be 67 dd a3 bd
       -0.071989074 0.1788331 -0.12925057 -0.080012135
000040 69 32 02 3e 04 7f 46 3d 55 38 e3 3d 18 71 e8 3d
       0.12714542 0.048460975 0.11094729 0.11349696
000050 84 d8 7b bb 27 31 96 bd 4c 37 94 bd e2 af 93 be
       -0.0038428614 -0.07333594 -0.072371095 -0.28845125
000060 51 2c cf bd 1e 2c 49 bd 26 a0 b9 bc 20 b6 54 3d
       -0.101158746 -0.04911434 -0.022659373 0.0519315
000070 9c be ef ba b7 a9 bb bc a4 ed ba bd 74 a5 a9 3c
       -0.0018291059 -0.022908075 -0.091273576 0.020708777
000080 e7 01 d9 3d 30 ec c0 bd 94 14 1f 3e 3e d3 03 be
       0.10596066 -0.09420049 0.15535194 -0.12873551
000090 cd 31 0f be fd 0a 31 be 98 f7 78 bd db ef e4 bd
       -0.13983841 -0.17289348 -0.060783 -0.11178561
0000a0 18 bd 3b 3e 3c 53 b3 3d c0 d6 f2 3b 0c 9a 07 be
       0.18333852 0.0875611 0.007410854 -0.13242358
0000b0 d8 41 ef bd e3 f7 65 bd 8b 17 45 3c 2c ef c7 3c
       -0.116824806 -0.056144606 0.012029539 0.024406038
0000c0 7a d6 d9 bc e6 66 14 be d7 e7 37 bd 0d 9e c7 bd
       -0.026591528 -0.14492378 -0.044898834 -0.09746943
0000d0 8c df 11 3e 33 28 dc 3d 3b a4 bc 3d e0 19 af bd
       0.14245433 0.10749855 0.09211012 -0.08549857
0000e0 b5 b3 05 be fa 0d e1 bd 3a 2f ce bd 0d 6b 70 bd
       -0.13056834 -0.10988994 -0.100676015 -0.05869584
0000f0 02 b1 9f bd 72 82 13 3e f1 b1 9f 3d 9b b1 cc 3d
       -0.077974334 0.1440523 0.077976115 0.09994813
000100 21 1d dd 3d 59 00 9a 3d a9 ce 1f be 06 2d bc 3c
       0.107965715 0.075195976 -0.15606178 0.022970688
000110 8d 6c cb 3d f7 1d 95 3b 99 c5 b7 bd 3f 05 5b bc
       0.09932814 0.004550691 -0.08973236 -0.01336795
000120 48 ce 40 3d 19 1a 5b 3c 64 a7 c1 bd b9 fe 02 be
       0.047071725 0.013372921 -0.09455755 -0.12792481
000130 b7 3d f8 3d 29 e6 25 3a d1 6c 29 bd 31 5e a3 bd
       0.12121146 0.0006328547 -0.04136354 -0.0797695
000140 a6 c2 eb bd 46 bb cb 3d 2a 11 d4 bb e0 ef a7 bc
       -0.115117356 0.09947829 -0.0064717727 -0.020500124
000150 85 03 94 bd b7 af 9a ba fa b8 8e 3d f6 7f 5e 3d
       -0.07227234 -0.0011801635 0.06968875 0.05432125
000160 9f b0 9d bd 45 dc 1a bd 91 78 c1 bc 6a e1 67 3c
       -0.076997034 -0.03780772 -0.02361706 0.014152864
000170 99 1c 19 be f7 0d 1b 3e c4 1a 0d 3e 4d 9d e7 3d
       -0.14952315 0.15142046 0.13779742 0.113092996
000180 89 8a 79 3c de dc 71 3d 1e 90 7d bd 50 fb fe bd
       0.015230783 0.059048526 -0.06190502 -0.12450278
000190 42 65 a3 3c 0e 67 e8 3b cd 29 2a bc 0f a9 45 bd
       0.019945744 0.007092363 -0.010385943 -0.04825693
0001a0 b5 bc ae bd 7a 15 e4 bd 72 e1 29 bd f5 5c 31 be
       -0.08532087 -0.11136909 -0.041474767 -0.17320617
0001b0 51 10 30 3d c9 c2 0a be 13 6c 4d 3d 16 71 31 be
       0.04298431 -0.13550867 0.050151896 -0.17328295
0001c0 17 79 a5 bd 66 b8 bb bd 23 c6 fe 3c 59 9c 43 3d
       -0.08079737 -0.091660306 0.031100338 0.047756527
0001d0 b8 90 2e bd a5 4c e8 3d aa fa d2 3d 29 3e 36 be
       -0.042618483 0.11342744 0.103017166 -0.1779715
0001e0 32 b5 44 bd 6a 60 72 bd 1e 7f 1e 3e 78 c7 94 bd
       -0.048024364 -0.05917398 0.15478179 -0.07264608
0001f0 67 b5 ef 3b 0c 43 20 be f2 dd 77 bd 10 79 ca bd
       0.007315326 -0.15650576 -0.060514398 -0.09886372
000200 a7 88 07 3e 3a cd 04 be ea 3d 1e be 84 a7 22 be
       0.13235722 -0.12968913 -0.15453306 -0.15884215
000210 59 2e 9d bc 4f e3 f2 bd 43 9a 35 be 59 64 90 3c
       -0.01918714 -0.11859762 -0.17734627 0.017625974
000220 87 9d b9 be dc db 48 3c 66 f5 2b be 9c 7e 10 3d
       -0.36252996 0.01225945 -0.16792831 0.035276994
000230 54 de 19 3d bc 89 f4 bb 84 d9 3d 3c 64 11 1f bd
       0.037565544 -0.0074627083 0.011587504 -0.038834944
000240 f4 4f 91 bb 43 2d 62 be 7b 00 98 3d 79 35 b5 3d
       -0.00443458 -0.22087578 0.07421967 0.0884809
000250 8e 01 82 bd dd 70 51 3d f5 1a cf 3d f8 42 74 be
       -0.06347953 0.051133025 0.101125635 -0.23853672
000260 27 e2 6e bd cb cd 88 bd 6b a1 c8 bc 80 c2 d3 bd
       -0.058321144 -0.06679877 -0.024491033 -0.10339832
000270 2b f5 8f bd 52 da 12 3e b0 40 36 bd f6 3b 99 bd
       -0.07029184 0.14341095 -0.044495285 -0.0748214
000280 e7 81 02 bd bb 77 4a bd c1 9a b1 3d 22 e0 4f be
       -0.031862166 -0.04943059 0.08672095 -0.20300344
000290 1d 41 f3 bd 8e 9f 4b be 10 dd db bd ed 76 b5 3d
       -0.11877654 -0.19885084 -0.10735524 0.08860574
0002a0 2f e4 4a bd 67 10 49 bb f8 5e d0 bc e7 5d e0 bd
       -0.04953402 -0.0030679943 -0.02543591 -0.109554105
0002b0 f9 6b a5 bd ff a8 f0 bd 54 b8 10 be 6d 22 89 bd
       -0.08077235 -0.117509834 -0.14132816 -0.06696019
0002c0 9a 43 f8 bb 15 23 f8 bd 18 ff be 3c 55 27 32 be
       -0.007576418 -0.12116066 0.023314998 -0.17397816
0002d0 2d 38 3b 3e 32 99 77 bd 52 e0 cd 3c 56 3c 40 3d
       0.18283148 -0.060448833 0.025131378 0.04693254
0002e0 ad 75 8a 3c bb 5f cd 3c 45 19 2d bd 58 09 b7 bd
       0.016901815 0.025070062 -0.042260427 -0.08937329
0002f0 14 ab 1f bb d5 c5 86 bc 2b 15 2a 3e f4 99 b5 bd
       -0.0024363445 -0.016451756 0.16609637 -0.08867255
000300 85 92 67 bd 80 00 e3 bd af 06 9d 3d fe b6 e0 bb
       -0.056536216 -0.1108408 0.076672904 -0.006857752
000310 4d 68 93 bc 6b 1a a4 bc ce fe 89 be fc e4 7f be
       -0.01799407 -0.020032128 -0.26952213 -0.24989694
000320 aa b7 a5 bd 15 54 15 3d 15 2d 7b 3d 52 25 fd 3c
       -0.08091672 0.03645714 0.06132229 0.030901585
000330 f5 43 42 bd c1 21 8d bd 9b c7 88 3d 5c 2c af bd
       -0.04742809 -0.06891204 0.06678697 -0.08553383
000340 7f 5c 3c be 2d 29 bb 3d cd 7e 07 bc 62 f0 59 3d
       -0.1839466 0.09138713 -0.008269978 0.053207763
000350 0f d2 b1 bc da 2a 0a bc 93 4d 8f 3d ae 0c 9b 3c
       -0.021706609 -0.008433068 0.06997218 0.018926945
000360 2a 1f 9f 3d 03 e4 1e 3d a4 01 18 be 1f b7 23 be
       0.07769616 0.038791668 -0.14844376 -0.15987824
000370 4a b4 e3 bc 30 b3 74 3d d8 67 d7 3d 8d 85 3b 3d
       -0.02779593 0.0597412 0.105178535 0.04578166
000380 44 31 b3 bd 07 fd 26 3d 1b f1 5c bc bd ea bb bd
       -0.08749631 0.04076865 -0.013485218 -0.09175632
000390 68 4e 16 3c a5 7d 81 be 48 27 15 be ea 38 a7 bd
       0.009173967 -0.25291172 -0.14565766 -0.08165152
0003a0 01 e1 75 3d 2e 0b c2 bd c5 9b 00 3e 72 84 f6 3c
       0.060029034 -0.094747886 0.12559421 0.030092452
0003b0 ec 1e 8c bd b5 0f e3 bc c2 46 c8 bd 46 2b 26 bc
       -0.068418354 -0.02771745 -0.09779121 -0.010142153
0003c0 b3 66 2d 3d 0c ba ea bc 61 51 9d 3d 3b e8 ae bc
       0.04233427 -0.028653167 0.076815374 -0.02135097
0003d0 73 57 93 bc 70 ee d6 bd 62 b2 29 be cc 06 b3 3d
       -0.017986035 -0.10494697 -0.16571954 0.08741531
0003e0 73 32 27 be 36 aa 23 3e 31 bd 2f 3e 90 d8 21 be
       -0.16327839 0.15982899 0.17162015 -0.15805268
0003f0 52 1e ea bd 08 2c 36 bc b4 bc 0f 3e d8 d6 15 be
       -0.114315644 -0.011118896 0.14036828 -0.14632738

net.4.bias f4 [128]
000000 da 5b 91 bd 57 2b 85 bd 67 3e 47 bd 5b 48 65 bd
       -0.070975974 -0.06502407 -0.048643496 -0.055977207
000010 96 90 cd bd e8 0a 9c bd a3 68 08 bd ae d3 61 bd
       -0.10037343 -0.07619268 -0.033302914 -0.055133514
000020 c0 14 ae bd c4 e7 a8 bc 8b c3 af bd 9c 8c 85 bd
       -0.085000515 -0.020618327 -0.08582219 -0.0652096
000030 bb 78 4a 3e 4f d5 92 bd 5b 48 81 3d 5f 7a 93 bd
       0.19772618 -0.07169592 0.06312629 -0.07201075
000040 bf 60 18 3d a2 78 80 bd b9 bd 7f 3d b4 e8 a8 3b
       0.03720164 -0.06273009 0.062436793 0.0051546935
000050 7a 1d cc bc 8c 40 93 3c 33 61 e4 bc ae 41 b5 bc
       -0.0249164 0.017975114 -0.02787838 -0.022126045
000060 46 31 22 bd 0d 01 f4 bb 5b 7a f0 bb 9a 98 41 bd
       -0.039597772 -0.0074464143 -0.0073388047 -0.047264673
000070 ff e8 5e bd b6 2f 1d bd 7f e8 06 bd 07 a9 e6 3d
       -0.05442142 -0.03837558 -0.03293657 0.11262708
000080 4d 78 d8 3c fa 3d 95 bc bb 3a a5 bd e2 47 09 bd
       0.026424551 -0.01821803 -0.080678426 -0.03351582
000090 01 d0 2f bd a8 b1 2f bd 5a 6e 58 bc 89 97 93 bd
       -0.042922977 -0.042894036 -0.013209904 -0.072066374
0000a0 24 09 cd 3c 22 e8 df bd ce c3 81 3d 11 75 28 3d
       0.025028773 -0.10932948 0.06336175 0.04112727
0000b0 48 34 e5 bd 82 59 fc 3b 07 89 73 3c 8e 00 09 3d
       -0.111916125 0.0077011 0.014864213 0.033447795
0000c0 5c ef 0e bc e1 f6 c0 bd a7 93 a7 3c fd b6 9a 3e
       -0.00872406 -0.094220884 0.020456148 0.30217734
0000d0 5a 52 af bd 26 8a 86 be 35 79 05 bd d6 b8 20 bd
       -0.08560629 -0.26277274 -0.032586295 -0.039238773
0000e0 75 53 7b bd ad 1b 97 3d 48 be 9f 3d c1 18 70 3b
       -0.061358888 0.073783256 0.07799965 0.0036635848
0000f0 0d 14 85 bd 51 ee 64 3d e5 82 7d bd 89 b6 3d bd
       -0.06497965 0.05589134 -0.06189241 -0.046316657
000100 f2 43 9b bc ec 78 d8 3b 72 87 d2 bd db 16 06 3d
       -0.018953297 0.006606212 -0.102797404 0.03273664
000110 f1 af 46 bd 38 af ab bc 4e ad 53 bd 0f 16 8a bc
       -0.048507635 -0.020957574 -0.051678948 -0.016856221
000120 a4 d2 45 3d d7 bb fb bc dd 46 4c bc 27 f1 56 bd
       0.048296586 -0.030729217 -0.012468067 -0.052476075
000130 94 f9 cc bc 9a 3b ed 3c 8c 3d 00 bd 9e 7c 2a 3d
       -0.025021352 0.028959084 -0.031308696 0.04162275
000140 a7 4c a3 bd a5 1d 9a 3c 14 3b 8c 3d 41 a7 1e bd
       -0.07973605 0.018812964 0.06847206 -0.038733725
000150 03 e3 1b 3d 87 30 98 3d 9d 93 9d bd b8 ef 2e bd
       0.038058292 0.07431131 -0.076941706 -0.042709082
000160 49 75 8c 3d 44 b4 20 3e b7 f3 9f bd c1 b2 ce 3c
       0.06858308 0.15693766 -0.07810157 0.02523172
000170 91 39 79 3d 92 79 9c bd 7e ab 4b bb af f0 3b 3a
       0.060845915 -0.07640375 -0.003107756 0.00071693485
000180 02 c9 07 3e 76 eb 18 3d 5b 92 96 3d ee 74 67 3b
       0.13260272 0.037333928 0.07352134 0.0035317498
000190 00 19 09 be b9 fc 90 bd 44 2c cf 3d 06 39 4a bd
       -0.13388443 -0.07079453 0.10115865 -0.049370788
0001a0 ed b4 71 3d e8 06 b4 bd 6a 8f 0d 3d cc d6 fd bb
       0.059010435 -0.0879038 0.0345606 -0.007746553
0001b0 f0 44 c5 3d 90 fc 09 bd 7d 67 3b bd f1 19 bf 3c
       0.096322894 -0.033688128 -0.04575299 0.0233278
0001c0 de 42 93 3d 71 8f 57 bc 23 5e c9 bb a0 4a 7a 3d
       0.07190488 -0.013156758 -0.006145255 0.061106324
0001d0 c0 5a 29 bd 82 3f c8 bd 8e 0f 49 bd f3 cf 94 3b
       -0.04134631 -0.09777738 -0.0490871 0.004541391
0001e0 8a c7 e4 bc 77 6d 89 3d 8c 42 8f bc 5a d3 19 bd
       -0.027927179 0.06710332 -0.017487787 -0.037555076
0001f0 f1 46 00 3d d1 e9 00 3d ba b1 ec bd 62 1a 87 3d
       0.031317655 0.031472985 -0.11557336 0.06596829

net.6.weight f4 [128, 128]
000000 98 4b c6 3d b7 70 fa bd 6c 82 5c bd 26 1d 9b bc
       0.09682387 -0.1222853 -0.053835317 -0.018934797
000010 1d 93 28 3e 4a 99 c4 bb 38 29 32 3c aa 35 d4 3c
       0.1646237 -0.005999719 0.010874085 0.025904495
000020 31 b1 0e be 07 63 d8 bd 74 0c e2 bd 34 a5 ef 3a
       -0.1393478 -0.10565763 -0.110375315 0.0018283487
000030 f5 7c 91 3d f6 9b 0b 3d 3f db 36 3e 21 39 47 be
       0.07103912 0.034084283 0.17857073 -0.19455387
000040 ae 40 c5 bd 01 38 20 ba ff d3 a1 bd b4 9f eb bc
       -0.09631477 -0.0006111861 -0.07901763 -0.028762676
000050 74 43 f4 b9 2e 31 b9 bb fd e4 58 bc 2f c6 e0 3d
       -0.00046589563 -0.0056516146 -0.013238189 0.109753005
000060 1e 98 66 bd ed 7e 74 bd b1 a4 96 bd 15 0e 8a 3c
       -0.056297414 -0.05969136 -0.07355631 0.016852418
000070 dc ed a6 3d d9 32 a2 3d 91 7a e3 3d 6e db 14 3d
       0.08150837 0.07919855 0.11107362 0.036342077
000080 ee 29 45 bd 5c fb 18 be 39 69 db 3c 01 9c dc bd
       -0.04813569 -0.14939636 0.026783573 -0.10771943
000090 2e cd 61 3b 06 8b 0b be 95 f1 5b 3e 92 2b d6 3d
       0.0034454572 -0.13627252 0.21478875 0.10457529
0000a0 57 f4 1a 3e 65 56 8a 3d 25 82 48 3c 45 c6 e6 bc
       0.15132271 0.0675476 0.01223806 -0.028170714
0000b0 11 4a 7d 3c 6d a1 02 3e bb fc 02 bd f6 11 01 3d
       0.015459553 0.12756892 -0.031979304 0.03151127
0000c0 f0 a5 a3 bd cd 22 10 3d 9c 49 d1 3c b1 fe ec 3d
       -0.079906344 0.03518944 0.025547795 0.11572016
0000d0 a4 cc c3 bd c2 8c ea bd 73 9b 55 3d 4a c5 5b 3d
       -0.095605165 -0.11452629 0.0521502 0.053654946
0000e0 73 03 fc bd 53 b9 55 bd 44 b0 00 3e 46 77 b5 bd
       -0.123053454 -0.052178692 0.1256724 -0.0886064
0000f0 7c 5d 09 3e de 8e e0 bc 1f 84 85 bd 9a 9f f5 3d
       0.13414568 -0.027411874 -0.06519341 0.11993332
000100 04 e9 b2 3d 06 f5 b7 bd 0d 8b fb bc 08 8a b0 bc
       0.087358505 -0.089822814 -0.030705953 -0.021550193
000110 b1 7b 27 bd b1 8b 63 3d bd 08 9f bd 49 8b ea bd
       -0.040889446 0.055553142 -0.077653386 -0.11452348
000120 0b 66 35 3a c4 b3 d5 3d 70 55 1e 3d 6c 5f ce bd
       0.00069198076 0.10434678 0.0386557 -0.10076794
000130 de 52 d0 bd 8e a3 24 3d fa 6a c3 3d a9 b0 7f bc
       -0.10172056 0.04019504 0.095418885 -0.015606084
000140 3d 8a 5d bd 94 1f 12 be ac bc 72 3e 8e b1 8f 3c
       -0.054086912 -0.14269859 0.23704785 0.01754072
000150 bb 11 e0 3d c9 3a 91 3d 0e ef 18 be 1c ae 48 bc
       0.10940882 0.070912905 -0.14934942 -0.012248542
000160 cb a2 b4 bd 89 f9 9e 3d 7e e8 37 bd 1e 1d 07 b9
       -0.08820113 0.07762439 -0.044899456 -0.0001288545
000170 f1 5e d3 3d 1c 15 bf bd 52 10 49 be 25 95 98 bd
       0.10320843 -0.09330198 -0.19635132 -0.07450322
000180 98 3f 3a 3e a6 b0 0d 3e 3d df 82 be ef 34 db bc
       0.18188322 0.13836917 -0.25560942 -0.02675864
000190 a8 16 eb bd 6e 03 91 bd 6b 56 52 3e 35 51 9d bc
       -0.11478931 -0.07080732 0.20540778 -0.019203762
0001a0 70 2f a2 3d ab 2c bb bd 54 33 0e bd a8 e5 7c bd
       0.07919204 -0.09139379 -0.03471692 -0.061742455
0001b0 90 c5 aa 3d 0a c1 07 bc e9 95 08 be da de a7 3d
       0.08338463 -0.00828577 -0.13338436 0.081968024
0001c0 56 05 91 bd 58 c1 01 3d 2c 41 b7 3c d0 21 89 bd
       -0.07081096 0.031678528 0.022369944 -0.06695902
0001d0 5c ad bb 3d a8 45 87 bc a5 d2 95 bd 1d 76 d6 bd
       0.09163925 -0.016512707 -0.07315568 -0.10471747
0001e0 05 ea be 3d 08 6b 80 bd 95 cb 83 bd 2a d8 32 3d
       0.093219794 -0.062704146 -0.064353146 0.04366318
0001f0 f9 57 24 3e e5 6d 97 3d c3 d8 0a 3e a0 fb 15 3e
       0.16049184 0.073940076 0.1355925 0.14646769
000200 a3 3c 33 3d 7d f9 27 3e 65 e0 20 bd f5 b3 db bd
       0.043759 0.16403766 -0.0392765 -0.107276835
000210 fd de 46 bd 17 00 36 3e b4 a0 bf bc 49 61 e0 bd
       -0.048552502 0.17773472 -0.023392059 -0.10956056
000220 ad 81 9c 3d 79 e3 1e 3d 11 4b 84 bd 08 20 91 3c
       0.07641921 0.038791154 -0.0645963 0.017715469
000230 2b 22 32 3e 11 e0 d9 bd c7 00 03 bd 12 b5 bf bd
       0.17395847 -0.106384404 -0.031983163 -0.09360708
000240 a7 4a 2f 3e 32 fe dc bd 7e a0 8a 3d 89 88 e8 bd
       0.17118321 -0.107906714 0.06768893 -0.11354167
000250 75 dc 53 3d 1d de 8c bc d6 e2 b7 bd 36 0b 70 3d
       0.051723916 -0.017195756 -0.089788124 0.05860444
000260 98 b3 1a 3e 93 22 b2 bd 0a ea 4c bc 1f d5 27 bd
       0.15107572 -0.08698001 -0.012506971 -0.040974732
000270 82 3e ca 3c 7a 0f 47 bd ba bf c6 bd 28 fb 57 3e
       0.02468801 -0.048598744 -0.09704538 0.21091902
000280 96 0b 24 bd 17 28 16 3e 3d e7 a7 ba eb 16 00 3e
       -0.04005011 0.1466373 -0.0012810003 0.12508743
000290 5d ef 0f be 74 26 23 3e 0d 6b 77 3c 7c d9 ed bd
       -0.14056154 0.15932637 0.0151012065 -0.116137475
0002a0 77 11 63 3d 91 5a 0a be fe 6d 95 3d 3b 46 a8 bd
       0.055436578 -0.13511111 0.0729637 -0.082165204
0002b0 81 83 3f be 5b 18 1a 3e 65 c1 91 3c b2 6d 1d 3d
       -0.18702509 0.15048353 0.017792413 0.03843469
0002c0 b5 d6 1e 3d 7e 36 96 bd 30 b9 68 3d 3c 92 db bd
       0.03877898 -0.07334612 0.056817234 -0.10721251
0002d0 7a 29 a4 3d fa a7 d4 3d a0 14 01 bd fa 3c f1 bd
       0.080157235 0.103836015 -0.03151381 -0.117792085
0002e0 83 43 5c bc 7e e3 83 3d d3 a8 85 bc 2c 34 c3 3d
       -0.01344383 0.06439875 -0.016315853 0.09531435
0002f0 e1 77 8d 3c 51 bf 1f 3e 6b 18 3f 3d ad 5c 12 be
       0.017269077 0.15600325 0.046654146 -0.14293166
000300 a7 6c 3b bd 4e 9d 9a 3d b8 08 10 bd 7c 9a 88 3e
       -0.045757916 0.07549535 -0.035164565 0.26680362
000310 92 36 6e bd 19 69 23 bd 80 05 3c 3b 21 e9 dc 3d
       -0.05815751 -0.03989515 0.0028689802 0.10786653
000320 7c 15 46 3d 97 be 00 3e 28 cd 37 bd 26 4a d7 3d
       0.048360333 0.12572704 -0.044873387 0.105121896
000330 b9 2f 5d bc a4 78 2d 3e 35 22 c5 bd aa 3a 9b 3d
       -0.0135001475 0.16940552 -0.09625665 0.07579549
000340 fd 9d bb bd 57 8a 3b bd 7c 88 99 bd b4 90 92 bd
       -0.09160993 -0.045786228 -0.074967355 -0.07156506
000350 a3 af 00 3e 8e 48 fc 3d 69 fb ff 3c a4 3d 67 bd
       0.12567 0.12318526 0.031247811 -0.05645527
000360 27 af a2 3b 7e 55 a1 3c a1 93 19 be bf 62 3f bd
       0.0049647274 0.019694086 -0.14997722 -0.04672503
000370 c3 cb a9 bc 21 ac 24 be a8 60 b3 3e 3b d7 ba bd
       -0.020727044 -0.16081287 0.3503468 -0.09123083
000380 7c c7 9e 3d 58 7e 71 bd 01 13 1b 3e e0 7c 41 bd
       0.077528924 -0.05895838 0.15143968 -0.04723823
000390 b6 bf d6 bd f3 14 77 3d 72 15 cb 3d 7a ad fa bd
       -0.10485785 0.060322713 0.099162 -0.12240119
0003a0 be 51 b7 3d 09 36 0d be 7e c7 0a 3e ad 81 67 3c
       0.08951138 -0.13790144 0.13552663 0.014130038
0003b0 55 e3 f0 3d 26 fe 62 3c f9 e8 36 3e 45 5e b8 3c
       0.1176211 0.013854539 0.1786231 0.022505889
0003c0 7d 49 86 3d 82 37 15 be 2e 7e fa bd dc 59 bb 3d
       0.065569855 -0.14571956 -0.12231098 0.09147999
0003d0 7f 4a 9b bd dc c8 0f be f1 b2 5b bc a2 16 f5 3c
       -0.075825684 -0.14041466 -0.013409362 0.029918019
0003e0 18 d4 2a 3e 3a cc c8 bb 32 76 1b 3e 10 4e 31 3d
       0.1668247 -0.0061278613 0.15181807 0.043287337
0003f0 7a 87 50 3d 65 9e 01 3e 91 44 2a 3d 9e 2b 8b 3d
       0.05091045 0.12658079 0.041569296 0.06795429

net.6.bias f4 [128]
000000 f1 33 3b 3b b0 96 fa bc 18 41 62 bd 44 d6 a1 bc
       0.0028564895 -0.030589432 -0.05523786 -0.01975549
000010 a5 26 d7 bb cc d6 52 bd cb 6c 5c bd 4b 8f 41 bd
       -0.006565886 -0.051474378 -0.05381469 -0.047255795
000020 51 f0 ea 3a b2 c0 a8 bb 01 78 45 bd 4b 6c 58 bd
       0.0017924403 -0.005149924 -0.048210148 -0.05283765
000030 27 a4 a3 3c 55 21 54 bd 97 62 61 bc 73 dd 8a bc
       0.019975735 -0.0517896 -0.013756416 -0.016951298
000040 b8 ea 05 3b e4 86 d0 bc 46 92 31 3b 97 39 5f bd
       0.0020434093 -0.025454946 0.0027095242 -0.05449828
000050 19 fd 2b bd a9 b7 2a bc c8 9d 90 bd 5a f7 8e bd
       -0.04198942 -0.010419765 -0.070613444 -0.06980772
000060 ce d3 01 bc 38 03 a7 bc e8 ce c3 3b cd 5a 40 bd
       -0.007924033 -0.020387277 0.005975593 -0.046961594
000070 9b 57 8f bc 4a 94 bc 3c 66 f9 65 bc db b8 9e 3c
       -0.017497828 0.023019928 -0.014036512 0.019375255
000080 2f 39 34 bc 98 c9 67 bc b9 40 33 bd 80 0c e3 3b
       -0.010999962 -0.014147185 -0.043762896 0.0069289804
000090 f7 85 c7 bc 88 b3 23 bd a8 6a 33 3e 61 af 14 bc
       -0.024355872 -0.039966136 0.17521155 -0.009075017
0000a0 4b fd 63 bc 99 d2 57 bd 73 c1 1f bd 15 76 d6 bc
       -0.01391537 -0.052691076 -0.039002847 -0.026179353
0000b0 cc a4 02 bd 3d 09 1a bd b6 b3 87 bd 95 bd 18 bd
       -0.031895444 -0.037606467 -0.06626074 -0.037290175
0000c0 1b fa 5d bb d7 ff 26 bc 26 82 70 bd 58 18 08 bd
       -0.0033870998 -0.010192833 -0.05871787 -0.03322634
0000d0 d7 61 a7 3c 2c 7c 58 3d d2 f8 6c bb a1 32 c9 3b
       0.020432396 0.052852795 -0.003615905 0.0061400686
0000e0 09 c3 ca bb 3d 4f 4c 3b 18 ce 17 bc 85 43 07 bd
       -0.006187801 0.003117516 -0.009265445 -0.033023376
0000f0 6c 7c 05 3d 55 be 06 bd cf 04 b3 3c c0 bc fc bc
       0.03258936 -0.03289636 0.021852879 -0.030851722
000100 41 28 c8 bc 3a 00 13 3c 80 44 81 bd 0b 89 15 3d
       -0.024433257 0.008972222 -0.063118935 0.036507647
000110 b2 2a 4a bd ed f2 24 3d 83 9b 70 bd 50 88 32 bd
       -0.049357124 0.040270735 -0.058742058 -0.04358703
000120 62 36 eb bc 29 28 bd bd 57 7e ac bc 65 8b 62 bc
       -0.028712455 -0.092361756 -0.021056337 -0.01382718
000130 f1 b3 a6 bc 93 00 d8 bc ef 0d 01 bd ba 46 6a 3d
       -0.020349475 -0.026367461 -0.03150743 0.057196356
000140 30 9e 19 bd 00 18 eb ba 54 99 bb bc ec be c1 3d
       -0.037504375 -0.001793623 -0.022900261 0.094602436
000150 86 f4 e7 3b 88 5a e3 bc 53 5a 4d bd 54 ba 65 3d
       0.00707871 -0.02775313 -0.050134968 0.0560859
000160 ce 39 a2 3d 55 0f 5f bd 19 16 23 3b f7 f0 9b bd
       0.079211816 -0.05445798 0.0024884997 -0.0761432
000170 f6 49 73 bb eb ad c1 b9 48 e8 21 bc 6c a9 a8 bc
       -0.0037122942 -0.00036941408 -0.00988204 -0.0205886
000180 7c d7 b5 bc e3 0a 85 3c c3 53 e4 bb f5 00 89 bd
       -0.022197478 0.016240543 -0.006967993 -0.06689636
000190 e2 aa 5a bd 1a 4c a9 bd dd 62 24 bd b3 27 69 3d
       -0.053385623 -0.08266468 -0.040133346 0.056922626
0001a0 19 ef 2d bd 37 cd af bc a9 00 9d bd 3f 1c 1c 3d
       -0.04246435 -0.021460159 -0.076661415 0.038112875
0001b0 bb 91 af 3c 64 1d 7c bc 12 03 6b bd 09 b0 03 bd
       0.021431794 -0.015387867 -0.057375975 -0.032150302
0001c0 57 7e 82 bd 3a 83 99 bc 22 96 41 3c e6 e4 a2 3c
       -0.06371754 -0.018739332 0.01181558 0.019884538
0001d0 00 04 4a bb 8c 84 38 bd 1b d3 84 3c ba ce 7a bd
       -0.0030825138 -0.04504828 0.016213944 -0.061232306
0001e0 f2 0c 0c bd d8 a8 f9 bc f3 11 a0 3d 7e 47 21 bc
       -0.034192033 -0.030476019 0.078159235 -0.009843705
0001f0 31 2b 48 bd 7b 2b 50 bc bb 4d 87 3c 2d 0d a8 bb
       -0.048869316 -0.012705679 0.016516557 -0.005128524

net.8.weight f4 [1, 128]
000000 3a 03 17 3d 15 61 be bd 72 bf b3 bc 84 b8 b4 bd
       0.03686831 -0.09295861 -0.021941874 -0.08824256
000010 f3 11 04 3e d4 9d 95 bc 8b 4d b5 bd 91 8b c3 3c
       0.12897472 -0.018263735 -0.08852681 0.023870261
000020 44 63 1f 3a b0 a9 14 3c a2 3b 6d 3b 86 68 65 be
       0.00060801604 0.00907366 0.0036198874 -0.22403154
000030 60 61 3e 3e 47 c8 01 3e 4b 24 c9 3d a9 43 d0 3b
       0.18591833 0.12674056 0.098213755 0.006355722
000040 b7 92 48 3b 21 22 df bc b4 ab 0f 3e 5b d9 9c bd
       0.0030605027 -0.027237954 0.14030343 -0.07658645
000050 dd 07 8d bd ca c8 43 bb b5 73 5e be e2 32 b6 bb
       -0.068862654 -0.0029874318 -0.21723826 -0.005560265
000060 02 e2 22 be 1a db 05 bb 99 f8 8c 3d 86 f2 e2 bc
       -0.15906528 -0.0020424784 0.06883354 -0.027703535
000070 c6 c0 8b 3d 1d 08 55 3d a6 01 97 bd 84 cd cf 3c
       0.06823878 0.05200969 -0.07373361 0.025366552
000080 49 07 f4 bd 6c 94 46 be c2 28 6b be 0b ac f7 bc
       -0.11915452 -0.19392556 -0.22964767 -0.030233404
000090 e0 47 a5 3d f1 58 fd 3c 81 0c dc bc 60 3b 2f bd
       0.0807035 0.0309262 -0.026861431 -0.042781234
0000a0 94 ca 83 3c da 81 b1 3d 4f 2d ce bd 97 79 58 be
       0.016087808 0.08667345 -0.10067236 -0.21140133
0000b0 74 49 25 be 4c 39 a6 3c 0b 7c 70 3d ff c7 7b bb
       -0.16141301 0.020290993 0.058712047 -0.0038418768
0000c0 b7 f8 84 3a 22 e5 db 3d cf d0 53 bd 43 8d 44 be
       0.0010144924 0.10737063 -0.051712807 -0.19194512
0000d0 13 ba af 3d 45 6a e1 3d 7c d6 fb 3d c7 e9 8b ba
       0.08580413 0.110065974 0.12296769 -0.001067453
0000e0 c8 c8 fa 3d 9f ee 89 b8 9a 3d b9 3d ab 95 b0 3c
       0.12245327 -6.577116e-05 0.09044953 0.021555742
0000f0 20 f9 af 3b d9 d6 0a 3e d6 b5 8c 3e a4 11 52 be
       0.005370274 0.1355852 0.2748248 -0.20514542
000100 10 cf 0f 3d bf 7b 03 bd 6e 89 49 3e 84 ef 4e be
       0.03510958 -0.032100435 0.19681332 -0.20208555
000110 75 66 13 3b 77 17 1e 3c 4a 66 27 be 95 e6 12 bc
       0.002249149 0.009649149 -0.16347614 -0.008966108
000120 1d 1b 4d bd 00 3c b2 bd 22 64 fd bd ba 28 f1 3d
       -0.050074685 -0.0870285 -0.123726144 0.11775346
000130 1d 65 3b 3e 11 29 db bd 77 57 ec bb 5e d1 b4 3c
       0.1830029 -0.10701192 -0.007212575 0.02207249
000140 15 7b 95 bd b8 2b 24 3d 0f ee 59 bd cb 37 2b 3d
       -0.07298867 0.040080756 -0.053205546 0.041801255
000150 68 04 04 be 88 a6 4a bd 55 67 b1 3d b8 38 35 bd
       -0.12892306 -0.049475223 0.08662287 -0.044243544
000160 4f f0 e3 bc d1 69 89 bd 2c 83 af bd cb 8a 83 bd
       -0.027824549 -0.06709636 -0.08569941 -0.06422957
000170 90 38 e0 3a f1 1e 80 be a9 ee 66 bc 9c 8a 2f 3e
       0.0017106701 -0.25023606 -0.014094987 0.17142719
000180 40 a9 3a bc 7d f5 a7 bc 11 07 e5 3d 6e 5c bd ba
       -0.011392891 -0.0205028 0.111829884 -0.0014447102
000190 04 41 09 3e 26 d6 7d 3d ba b9 50 be 0e 60 5c bc
       0.13403708 0.061971806 -0.20383349 -0.013450636
0001a0 ff b8 a5 b9 bd bc 17 bd 5f d5 61 be 73 20 98 bb
       -0.00031609085 -0.03704523 -0.22054051 -0.00464254
0001b0 b2 62 14 3e eb 48 b6 3d 14 97 4b bd c2 0d 1f be
       0.14490774 0.08900627 -0.049704626 -0.15532592
0001c0 0c 30 4e 3b c0 bb 31 bd 51 3b 0e 3e 44 66 87 bc
       0.0031461744 -0.043391943 0.13889815 -0.016528256
0001d0 1c 95 1b 3e 10 33 33 bc fb e4 ab 3b 7e 1f 18 be
       0.151936 -0.010937467 0.0052458025 -0.14855763
0001e0 23 05 18 be a8 93 b4 bd 44 fa 6a bb 86 8a 29 3a
       -0.1484571 -0.08817226 -0.0035854736 0.000646748
0001f0 78 fa ac bd bf d4 11 3c 88 61 2f ba 75 38 29 be
       -0.084462106 0.00890082 -0.00066902535 -0.16525443
