modelparameter/willie_lognormal10_5.pth (torch, 207779 bytes, 9 tensors)

net.0.weight f4 [128, 10]
00000000: f809 303e b9d7 503d 73ed e13d 7c13 a63d
00000010: 92b2 9dbe d372 fdbd d8a4 a1bc 1c1e 293e
00000020: 6d47 0cbe 423c 59bd 22fc 60be 40ec 183e
00000030: 7703 033e fe36 aebd c2dc 2abd 7ab3 803d
00000040: 3267 9d3d 0e16 66be 6aec 99bc 3076 453e
00000050: f1a6 1a3c 4ee2 45bd dd29 c4bd 49c4 b83d
00000060: c6ee 87be d2e7 23bc dd74 02be dd6b 293e
00000070: 0a02 533e 012c 163c 07ec 01be f77d 023d
00000080: b320 7fbe 7a72 83be ac66 06be fe0c 973e
00000090: 9da2 373e a993 52bd 90bf 693d 22a8 0e3e
000000a0: 4115 0d3e eea9 0bbe 0ea2 fdbd 179b 13bd
000000b0: 3dfc 213e 34ea a43d 02b0 37bd 1f74 1a3e
000000c0: accc a9bd 70d9 00be f6ec 353e c7c5 313b
000000d0: 62bf 40be d7fc 7abe 3da0 8f3d 9a56 78bc
000000e0: 6d7d 273e 1f6d c53d 54d8 203b cdae f9bd
000000f0: c4c3 863d 9931 9fbd 6d97 98bd fca8 5ebd
00000100: 5b00 47bd 333f 1dbe dfb8 8a3e b2a5 793e
00000110: f615 f1bd 3813 6abc 90a0 f63d 2e41 3f3c
00000120: cc9a a3bc 585f d03d e70a 15be a2b0 383e
00000130: fce7 3dbd 5b58 b7bd 384f 26bd e15f 973c
00000140: fe99 33bc 077c 68bd a5b4 55be ee5c c43c
00000150: 18d5 ed3d f5d5 863d 2cc8 0bbc 5b93 833d
00000160: dcda f23d 38d3 2abe 19b9 b63b 2bce 053d
00000170: a798 2abe fc86 ef3d 853b 72bd c29b fc3d
00000180: 43c8 3cbe c432 edbc b6ed 853b 96cf 1e3e
00000190: 1dba 43be 8a96 b9bd 6b87 813d 03fe 9abe
000001a0: f69f 49bd 71c7 b93d c258 233e 0391 5f3d
000001b0: 242c 4c3e a2a9 e03c 3396 2dbd 4bc3 67be
000001c0: e199 053e e391 b13e fe73 0dbd d4a3 af3c
000001d0: c606 37be 2160 433d 1d14 0a3e 08dc 71be
000001e0: 2d86 0fbd e341 763d b852 b63c 3d0e 94be
000001f0: f301 a13e 830b 64be 2e0f 1f3d 25ef 3f3d
00000200: fd81 e93d a92b 2d3d 2e69 373c 2139 8ebe
00000210: b2dd 3c3e d6c8 adbc 794a ff3c 3aae bb3d
00000220: 18f7 8abe 3677 323e c0a3 fabd f3a2 ee3c
00000230: bcec 9fbc 9602 69bd da25 4fbe a4ad afbd
00000240: ad6b bc3d 50fe 783e a18d 11bd a36b ce3c
00000250: cc25 5c3d adef 473d 0f63 14be 9eb0 19ba
00000260: 0793 b4bd 2c42 52be 7b5a 993d d99a fc3d
00000270: 0ece 3d3c d29f 00bd 71a2 23bb 128d 9c3e
00000280: 6c1e 25be 0837 14be 431c 87bd ce34 103e
00000290: 0f7f 373e 0a77 98bc 0453 f6bd 3cf9 f73b
000002a0: e069 303d df55 813d 7c5f 1fbe eca5 003e
000002b0: 13d0 713c 8dd5 0cbe 7da4 a4bd f266 7d3e
000002c0: e054 2c3d 7c82 40bd 5359 a7bd f605 b73d
000002d0: 812e 9fbd fd45 e2bc 1309 a43c 2450 90ba
000002e0: a789 82be 117b cc3e 1b91 2f3d 3152 9fbd
000002f0: 843e 3bbd 288d 3f3c bd35 883d 5c75 5b3e
00000300: 1b3f 12be 3b34 963d a2b4 f2bd 7849 593e
00000310: bd63 25be c1b3 8ebc ef33 03bb 2b5b 09be
00000320: 8113 873d fd94 de3d 1587 d0bc cae9 85be
00000330: 8c4f a6bc 614d 5d3d b5e6 8c3e 5995 9ebd
00000340: 126c 1ebe 7a80 a8bd 390b 353e 5b91 803d
00000350: 2f6a 723e b693 31be 4eb8 b1bd 0d1b a43c
00000360: f3b5 3bbe 7071 ec3c c8a5 47be 7a44 d23d
00000370: 39bb 473d eb01 2bbe 28f1 47be 9529 333e
00000380: 7c3e 8a3d 2564 543e 5171 3b3e cb07 24bd
00000390: 41f7 42be a11f 69bd 5a2f 993d 48b1 a63d
000003a0: b1da 27be 6217 9a3d 14ba 16bd 8306 9e3d
000003b0: d9b3 053e d341 eebd ea5c 743e aee1 8fbe
000003c0: 4812 8e3d 673d 9e3b 9190 5a3d cd1f f33a
000003d0: 05bd 3cbd f6f7 2c3e 1f86 383e 0ddf ebbe
000003e0: c593 353d 34b7 7dbd fdcf 8e3d de0f c03d
000003f0: 0bef 383d c2b1 b53d 2696 113d afc0 45be
0.17191303 0.05098698 0.11031618 0.08109185 -0.308003 -0.123754166 -0.019731924 0.16515392
-0.13699122 -0.053035982 -0.21971181 0.14933872 0.1279429 -0.08506583 -0.041714437 0.062842324
0.076856986 -0.2246935 -0.018789489 0.19283366 0.009439216 -0.048311524 -0.09578297 0.090218134
-0.26549357 -0.010004001 -0.12739892 0.16545053 0.20606247 0.009165765 -0.12687694 0.03185841
-0.24914818 -0.25673276 -0.13125104 0.295021 0.17933126 -0.05141035 0.057067454 0.13931325
0.13777639 -0.13639042 -0.12384425 -0.036036577 0.15818878 0.08052483 -0.04484559 0.15083359
-0.08290991 -0.12582946 0.17766175 0.002712594 -0.18823007 -0.24510513 0.07012985 -0.015157366
0.1635644 0.09639954 0.0024543004 -0.12191544 0.06580308 -0.07773132 -0.07450757 -0.054360375
-0.048584323 -0.1535614 0.2709417 0.24379614 -0.11771767 -0.014286809 0.120423436 0.011673255
-0.019971274 0.101744354 -0.1455494 0.1803613 -0.046363816 -0.08952399 -0.040602893 0.018478336
-0.010962008 -0.056758907 -0.20869692 0.023970094 0.1161291 0.06583778 -0.008531611 0.0642459
0.1185815 -0.16682136 0.0055762646 0.03266732 -0.16659795 0.11695668 -0.059138793 0.12334396
-0.18435769 -0.028954871 0.0040871752 0.15508875 -0.19113965 -0.09061916 0.06324657 -0.3027192
-0.049224816 0.090712436 0.15951827 0.054581653 0.19938713 0.027424637 -0.04237957 -0.22633092
0.13046981 0.34681615 -0.034534447 0.021440424 -0.17873678 0.047699098 0.13484235 -0.23619092
-0.03504007 0.06012143 0.02225624 -0.28917113 0.314468 -0.22270016 0.038832836 0.046858925
0.114017464 0.042277966 0.01119451 -0.2777796 0.18443945 -0.02121393 0.031163441 0.091640905
-0.27141643 0.17428288 -0.12238264 0.029130435 -0.019522063 -0.05688723 -0.20229283 -0.08578041
0.09200225 0.24315763 -0.03553546 0.02519781 0.053746983 0.048812557 -0.14490913 -0.0005862805
-0.08817106 -0.20533055 0.07487961 0.12334222 0.011584772 -0.031402417 -0.0024968649 0.30576378
-0.16124886 -0.14474118 -0.06597187 0.14082643 0.17919563 -0.01861145 -0.12027553 0.007567553
0.04306972 0.06315207 -0.15563768 0.12563294 0.014759081 -0.13753338 -0.08039186 0.24746302
0.04207313 -0.04699944 -0.08171334 0.08936684 -0.07772542 -0.027621264 0.020023858 -0.0011010212
-0.25495645 0.39937642 0.042862993 -0.07779349 -0.045713916 0.011691369 0.06650875 0.21431488
-0.14281885 0.07334181 -0.11850859 0.21219432 -0.16151328 -0.017419698 -0.0020019969 -0.13413684
0.06595517 0.10868261 -0.025455037 -0.2615493 -0.020301603 0.054028872 0.27519765 -0.077433296
-0.15470913 -0.0822763 0.17680062 0.06277724 0.23673318 -0.17341504 -0.086777315 0.02003243
-0.18331127 0.028862685 -0.19496834 0.10266967 0.048762534 -0.1669995 -0.19525588 0.17496331
0.06750199 0.20741327 0.18304946 -0.040046494 -0.19039632 -0.05691493 0.07479735 0.081392825
-0.16392018 0.07523991 -0.03679855 0.07716086 0.13056888 -0.11633649 0.23863569 -0.28101867
0.069370806 0.004829097 0.053360526 0.0018548906 -0.0460787 0.16891465 0.18019913 -0.46068612
0.044330377 -0.061942294 0.06973264 0.093780264 0.045149844 0.08871795 0.035543583 -0.19311784

net.0.bias f4 [128]
00000000: 931c cf3d f8bb 98bc 62d9 a93d 1579 d83c
00000010: 64cc 433d 9ff6 5e3c d259 33bd 7704 613d
00000020: 67ed 93ba 7175 2d3c f7cd 013d 7cca bf3c
00000030: 39e3 353d 16a9 083e f1de ce3d 90bf 9abc
00000040: 9e8d 143d 294b 113e 0bfe 26bc e6e7 6fba
00000050: cd1d 573c c3e3 04bd ce37 7ebd 769e 0e3c
00000060: bd94 c1ba f99f 98bd 3174 46bc 469b 2e3e
00000070: d110 553d 8a84 4e3d 3938 04bd 83ef c33c
00000080: 38f3 5dbd 5b11 9ebd 86ea 7a3d 920b fe3a
00000090: ba20 933d 2f73 f23d 8d27 9f3e 779e 323d
000000a0: 370e 893d 8678 8d3d e4d0 e73c 6295 69bb
000000b0: 5692 523d bc54 81bc 0976 75bc f1fb 8a3d
000000c0: e9ff 1f3c 776b 8e3d fc0e 9e3d 3263 8e3d
000000d0: 2d27 c33d 580b b03d 9599 5fbd c0d8 91bd
000000e0: 4a06 6ebd be4c 00bc 6ca7 c43c f693 a5bc
000000f0: 82b1 58bc 7d73 df3b 56cd b2bd 86dd f63c
00000100: 17cb 0fbd d898 81bc f966 bd3d bf2e 623d
00000110: b0e0 e83c 2ceb 90bc ecc4 cd3d 7354 603d
00000120: 6028 cf3c 0477 8d3d 563f b53d 2d6d 343c
00000130: cf12 5c3d a6e9 15bd 774d a93e 796c fc3c
00000140: 4702 463d 833d 953c e1cc c13b e916 423d
00000150: a547 5e3d fc39 873b 043a e03d 4092 da3c
00000160: 7f19 543b e6ef 1439 9dd8 773d 9ed8 0f3c
00000170: 570e fbbb 6b99 1fbb fe7e 82bd 3526 da3c
00000180: b2df 053e 1433 c13c 3ab7 2abd 2fc9 82bc
00000190: 0637 b3bc 7220 943e e3c0 5f3d 0d99 ec3d
000001a0: a7af 7a3c 4f41 28bd bc76 02bd 89f2 a63d
000001b0: 60a5 68bd 213a 0bbd 7f07 2c3d e6de 81bd
000001c0: 296a 33bc df13 343c 4cc3 843e 2213 693e
000001d0: 0439 b7bc 237b 493d 905a 593d 5e4b 9bbc
000001e0: f1ee d43c dc9a 863d a780 893c d892 a23d
000001f0: b889 90bc 3ad7 203d 361a 143d 1ecc 533c
0.10112872 -0.018644318 0.082934156 0.026424924 0.047802344 0.013608604 -0.04378683 0.0549359
-0.0011285961 0.010587082 0.031690564 0.023411982 0.04440615 0.13345751 0.101011164 -0.018890172
0.03626787 0.14188828 -0.0101924045 -0.0009151682 0.013129664 -0.032443773 -0.06206494 0.008704772
-0.0014769059 -0.07452387 -0.012112663 0.1705142 0.05201799 0.050419368 -0.03228018 0.023917919
-0.05418703 -0.07718154 0.061258815 0.001938211 0.071839765 0.11838376 0.31084862 0.043608155
0.066921644 0.06907754 0.028297849 -0.0035642018 0.051409088 -0.015787475 -0.014981755 0.06786335
0.009765604 0.06954091 0.07717702 0.06952514 0.095289566 0.08595914 -0.054589827 -0.0712142
-0.058111466 -0.007830797 0.024005614 -0.020212155 -0.013225915 0.006819187 -0.08730571 0.030134927
-0.03510579 -0.015819952 0.09248156 0.05522036 0.028427452 -0.017690264 0.100473255 0.054768037
0.025287807 0.06907466 0.08849971 0.011012358 0.053728875 -0.036599778 0.33066913 0.030813443
0.048342016 0.018217808 0.005914316 0.04738513 0.054267544 0.0041267853 0.109485656 0.026681066
0.003236383 0.00014203749 0.060509313 0.008779673 -0.0076616216 -0.002435292 -0.06371878 0.026629547
0.13073614 0.023583926 -0.041678645 -0.015965072 -0.021876823 0.28931004 0.05462731 0.115526296
0.015300668 -0.041077908 -0.031851515 0.08151729 -0.05679834 -0.033990983 0.041999336 -0.06341343
-0.0109506035 0.010991066 0.2593025 0.22761205 -0.022366054 0.049189698 0.053064883 -0.018956836
0.025992842 0.06572506 0.016784979 0.079381645 -0.017643794 0.039267756 0.03615781 0.012927083

net.2.weight f4 [128, 128]
00000000: ee92 79bd d2a9 e73b 55ce a839 6c8f 1fbd
00000010: ba8d 11bd c474 8fbd cab7 2b3d 5ab2 14bd
00000020: ecc9 66bb 40aa b63d 9ba5 073d 488c 9f3d
00000030: af9a c83c 1983 4d3d fd4b 91bd 4bf5 863a
00000040: 92cc 973d a1e2 72bc bd8f 16be ccf0 103e
00000050: f6e1 553e 2bf2 4c3d 263e 37bd 5dcc b33d
00000060: cf54 10be 0b29 0a3e 4081 fd3c 7c74 c0bd
00000070: ec66 ca3d 1ee5 e23d 0dab 34bd 4ffd 3d3e
00000080: 3fee a8bd b28d 333d 79d7 a0be 9ad8 cfbc
00000090: 3cfb 13be bc35 13be 38cb 613d 7020 f3bd
000000a0: 114c 02be e6cc 853d 0a6f 68bc 5086 6c3c
000000b0: 7c01 0c3e c104 073e 41c7 583b aa00 43bd
000000c0: b45c 57be a147 c23d b201 6ebb 2ace fabc
000000d0: 871a 2a3d 61fb f5bd ac36 273d a133 2c3c
000000e0: cc23 1f3e 5986 20be 30b1 ad3c 1ea5 fabd
000000f0: ec12 5bbd f191 1d3d 6aac 143e f594 bd3d
00000100: 4e58 b33d 774f 7dbd 255f 57be 48f1 d9bc
00000110: 1560 3d3e 3e4f 06be ded4 febd 1a3d 5dbd
00000120: d6ac 5c3e 888a 90bd fe92 da39 5068 213d
00000130: 6381 aa3d 5fdf 52be e96d 20be b634 7f3e
00000140: f2a4 243d 8219 98bd 6c22 693e 0fea 6abd
00000150: d75f f8bc 4c86 1cbe f815 763e dda8 30bc
00000160: 2b0e 7f3c 68e2 d7bd 9950 bc3d 8a63 e4bc
00000170: 142f 893c 5a48 5abd ee4f fcbd 9a3d dd3d
00000180: 65e8 ec3d d4aa 713c da74 3fbd c3ed ffbd
00000190: f63f d83d c8e4 963d 8454 ab3d d210 b43d
000001a0: da15 053e 32a6 9e3d 1912 4abe 6cf4 313d
000001b0: f598 bb3d a642 023d 2a6e 17be 3123 eebd
000001c0: 8f4e 343d 8e28 50be 4413 a83b 366a 5a3c
000001d0: ab5f f53d 6a1b 323d bff7 b23d 6f3a 623d
000001e0: a6a9 dabd 5b2b a4be abc1 063d 376a 71ba
000001f0: edad 4cbc d3fc 63bd 5d11 e3bb e6b4 a83d
00000200: ce93 5d3d 91e2 403d 6817 fcbc 0e0e d23e
00000210: f8dc d5bc b098 3b3d 5f2f 033d 5e6c f83d
00000220: ccab 003d 7175 bf3d b07d 763d 7fda 413e
00000230: 5d17 933d 3837 973d 41b8 693b 70d0 8a3d
00000240: 27b0 223e 8a12 5ebd b140 553c b423 c2bc
00000250: 872f 943d 060c 23bd 881e 1d3d 62af 4f3d
00000260: c1c7 4bbd c9c3 643d 1ec1 183c 79f8 4a3d
00000270: bf87 1abb dfd4 8dbb 1221 ac3d 5839 0e3e
00000280: 9b81 933e 9b2e 0e3e 384a cc3d 3780 433e
00000290: db6b aebd 8904 b1bd d2eb fb3d b64d 873d
000002a0: fba8 633c 8426 c2bd 65e7 b33c 871a 583d
000002b0: 81a3 043e 9fbb 323e fba3 c53d e467 51bd
000002c0: 7f62 073e 448c 0f3c 7c4a 043e 4ffb 4b3d
000002d0: b652 d2bc c3fc c53c 0cbb 6cbc f0bb 053d
000002e0: 4c9d 18bd 75b6 8ebd b499 933d 9031 91bd
000002f0: 2f4e 9f3c 0aee f43c 1e3a 12bd 644c 083e
00000300: 4612 87bd f9f1 253e 4cf0 a73d c9bc fd3d
00000310: fe93 463e a9c9 7cbd abca 80ba 6230 813e
00000320: 1da3 6a3d 2ec0 093e 9aab 283e e116 f63d
00000330: 5c44 073e e91e 863e 2f00 0e3e 22e9 e13d
00000340: 160a d03d 59ac 103d 34d4 96bc ea9e 193e
00000350: 8863 eabc 52d7 3f3e 408e 183e 6dd3 073e
00000360: 23b0 343d ac74 00bd 6f0f 4bbe cd3b c7bd
00000370: ea7c e4bc 17ce f3bc 3546 1c3d 6176 e83d
00000380: 71de 2b3e 0b88 1ebc 1d7d 223d 547e a03d
00000390: 694f a4bc fb80 19be c6fd 81bd 51b3 3c3e
000003a0: bd6a 21bc 5c9e 3d3d 3896 5f3d c2db 983d
000003b0: c02b f0bc 9286 99bd a565 b6be e9da e8bd
000003c0: b4ad 9dbd 476f 813e dd14 643e 4716 993d
000003d0: 1a8f 10be ffcf e7bd ccd2 353d 67c1 0d3a
000003e0: 5a68 943d 8775 723d 3e3f d8bd d3d1 96bd
000003f0: b7f0 1d3e b904 023e 65ea 9e3b 5edc 39bc
-0.06093114 0.0070698047 0.00032197186 -0.038955137 -0.03553555 -0.07004693 0.04192332 -0.0363029
-0.003521557 0.08919191 0.033116918 0.077904284 0.024487821 0.050173853 -0.07094572 0.0010296492
0.074120656 -0.01482454 -0.1470327 0.14154357 0.20886979 0.050035637 -0.044737004 0.087792136
-0.14094852 0.13492219 0.03094542 -0.09397218 0.09882912 0.11078857 -0.04410844 0.18553661
-0.08248567 0.043836303 -0.31414393 -0.025371838 -0.14451307 -0.14375967 0.055125445 -0.11871421
-0.1272433 0.06533222 -0.01418663 0.0144363195 0.13672441 0.13185407 0.003307775 -0.047608055
-0.21031457 0.094863184 -0.0036316928 -0.030615885 0.041529205 -0.12010837 0.040823624 0.010510356
0.15540999 -0.1567625 0.021202654 -0.12238525 -0.053484842 0.03846926 0.14518896 0.09256927
0.08757077 -0.06184336 -0.21032389 -0.02660431 0.18493684 -0.13116166 -0.12442945 -0.05401335
0.21550307 -0.07057673 0.00041689718 0.03940612 0.0832546 -0.20593022 -0.15666927 0.24922451
0.040196367 -0.0742674 0.22767037 -0.057352122 -0.030319137 -0.15285605 0.24031818 -0.010782448
0.015567343 -0.105412304 0.0919506 -0.027879495 0.016746081 -0.053291656 -0.12319933 0.10802765
0.11567763 0.014750201 -0.046742298 -0.12496521 0.105590746 0.07367855 0.083657295 0.08792271
0.12996617 0.07746543 -0.19733466 0.04344599 0.091600336 0.031801842 -0.14788118 -0.11627806
0.04402023 -0.2032797 0.0051292498 0.013330987 0.11981138 0.043483175 0.0873866 0.055231508
-0.10676889 -0.32064328 0.03289954 -0.00092092477 -0.012492639 -0.055661034 -0.00692956 0.08237629
0.054096036 0.04709107 -0.03077288 0.41026348 -0.026106343 0.04579991 0.0320276 0.121300444
0.03141384 0.09348572 0.06017846 0.18931006 0.071821906 0.07383579 0.0035662802 0.067780375
0.1588751 -0.0542169 0.013015912 -0.023698665 0.072356276 -0.03980639 0.038359195 0.050704367
-0.049751047 0.055850778 0.0093233865 0.04955337 -0.0023579446 -0.0043283547 0.08404745 0.13889062
0.2880982 0.13884966 0.099750936 0.19091879 -0.085166655 -0.08643443 0.123008385 0.06606619
0.013895269 -0.094800025 0.021960923 0.052759673 0.12952997 0.17454384 0.096504174 -0.05112447
0.13221167 0.008761469 0.12919039 0.049800213 -0.025674205 0.024168378 -0.014448892 0.032649934
-0.037259385 -0.06968395 0.07207051 -0.070895314 0.01944646 0.029898662 -0.035699956 0.1331039
-0.06595282 0.16205586 0.0820013 0.123895235 0.19392392 -0.061715756 -0.0009826025 0.25232226
0.057284463 0.13452217 0.16471711 0.120160826 0.13209671 0.26195458 0.13867258 0.11030795
0.10158174 0.035320614 -0.018411733 0.15002027 -0.028611913 0.18734482 0.14898014 0.13264246
0.04411329 -0.031361267 -0.19830106 -0.09728203 -0.027891595 -0.029761357 0.038152892 0.11350704
0.16784073 -0.00967599 0.0396701 0.07836595 -0.020057397 -0.14990608 -0.063472316 0.18427779
-0.009852109 0.0462936 0.05458662 0.074637905 -0.029317737 -0.074963704 -0.35624424 -0.11369879
-0.07699147 0.2528021 0.22273584 0.07474952 -0.14117089 -0.11318969 0.044390485 0.00054075423
0.07246466 0.059194114 -0.105589375 -0.073642395 0.15423857 0.12697114 0.0048497193 -0.011344044

net.2.bias f4 [128]
00000000: 1872 0b3d 8fef c1bd f1c5 9bbe fc0b 8b3d
00000010: a8c8 8bbd 847e 08be f18b 2cbe dfd9 4bbd
00000020: 7a07 2b3d bc86 b9bd 20ec b4bd 6c6f 123d
00000030: ea1f d33d 361d 983c 8026 973d 2081 383d
00000040: 9ea1 613d b695 ccbc 7035 6f3c f5ba c7bd
00000050: eda1 303c 7c7d f2bd b458 673e 1e91 e7bc
00000060: 9a50 d6bc 1a28 aabd 3c42 623e 8bf4 0dbd
00000070: 51e6 253b bec3 b9bd d302 c4bd 481d 12bd
00000080: 075e 95bd 66af 5ebe 70de d23c 0250 173e
00000090: 0869 bbbd e0c7 3dbd 05b4 423d 1b0e 623c
000000a0: 2aae 05bd 5588 183d 2fd1 26bd 4f48 783e
000000b0: 4aa3 ae3e 53a1 babc 9f37 03be 4ca0 76bb
000000c0: 3a25 2abd 0cdd 713c 73c0 77bd 3e86 16bd
000000d0: 8156 24be f9f1 253b 136f d8bd fdcb 6cbc
000000e0: f7df 0fbd fedd 35bd 5e76 3e3d c3ff 303c
000000f0: aa3d 6b3e 85b6 453c 304a 033e 44eb 9fbc
00000100: 40ab e0bd d5e4 773d 13b1 37bd a991 c53c
00000110: 4e08 fdbc b328 a7bc b901 cbbd 79f4 2fbd
00000120: bca3 ea3c 707a a4bd 6e20 f0bc b80b 423e
00000130: e0cb 3abe 2f33 e33b 6cc5 2dbd 5699 cfbe
00000140: 772b a33c 3a1a 58bb 1acb 9ebd c456 20be
00000150: 4f34 943c fba2 77bc e46f 6fbc 12b7 3bbc
00000160: 0d07 80bd c743 3e3c b6bf 5c3c c33f 18be
00000170: 9b53 6f3e ee16 e6bc 9a97 4bbc 74ed b1bd
00000180: 7908 6b3c 727f 60bd 2687 5a3e 1ba4 613d
00000190: 6a72 743b 45fe 943d be24 e0bc 5607 cebd
000001a0: 6a94 acbc 3560 aebc c52c 0c3d b1a3 01be
000001b0: 200f 343c f1c4 83bd 2bec 4cbe e2c0 db3b
000001c0: 2c61 2b3d 8710 b7bc 4fdf 76bd 2789 25bd
000001d0: c09f 0fbc 6bf6 2abd 099e b9bd da51 63be
000001e0: 9b0c 8a3d 22bc 0fbe 44a9 cd3d 3043 d4bb
000001f0: c820 a2bd 2dc6 1abc d48d eb3d f3b0 eb3c
0.034044355 -0.0946952 -0.30424455 0.06789395 -0.068253815 -0.13329512 -0.16850258 -0.049768325
0.041755177 -0.09058902 -0.088341 0.03575079 0.103088215 0.018568616 0.0738039 0.04504502
0.05508577 -0.024973731 0.014600143 -0.09752456 0.010780794 -0.118403405 0.22592431 -0.02826744
-0.02616148 -0.0830843 0.22095579 -0.034657042 0.0025314281 -0.09070538 -0.09570851 -0.035672456
-0.07293325 -0.21746597 0.025740832 0.14776614 -0.091508925 -0.046333194 0.04753496 0.013797308
-0.0326368 0.03723939 -0.040726837 0.24246334 0.34108955 -0.022782004 -0.12814187 -0.0037632165
-0.04153941 0.014762174 -0.06048627 -0.036749117 -0.16048624 0.002532123 -0.10568061 -0.0144529315
-0.0351257 -0.04440116 0.046499602 0.010803166 0.22972742 0.012067442 0.12821269 -0.019521363
-0.10970163 0.060520966 -0.044846606 0.024117308 -0.030887749 -0.02040515 -0.09912438 -0.042957757
0.028642528 -0.080311656 -0.029312339 0.18949783 -0.18241835 0.006933592 -0.042424604 -0.40546674
0.019918187 -0.0032974617 -0.07753582 -0.15658098 0.018091349 -0.015114541 -0.014614079 -0.011457222
-0.06251345 0.011612839 0.013473442 -0.14868073 0.23371737 -0.028087106 -0.012426281 -0.08687869
0.014345282 -0.05480904 0.21340618 0.055088144 0.0037299641 0.072750606 -0.02736127 -0.10059993
-0.021066863 -0.02128611 0.034222383 -0.126601 0.010989934 -0.06434048 -0.20011966 0.006706343
0.041840717 -0.022346748 -0.060271557 -0.040414 -0.008766115 -0.04173891 -0.09063346 -0.22199193
0.067406856 -0.1403661 0.100420505 -0.006477736 -0.07916409 -0.009446663 0.11501661 0.0287709

net.4.weight f4 [128, 128]
00000000: 4c52 23bd 0a16 033e f093 b83d 64e0 0d3d
00000010: 7dad cf3c ac03 8fbd 8bae 913d 1c2a 113d
00000020: 30c9 343d abdd 2fbd 1509 9fbd f842 353d
00000030: 3a53 bfbc 652c 613c 8f31 5abc 1abe fabd
00000040: b911 c9bd f164 91bd 96d0 d83c 1f83 563b
00000050: 27ed b4bd b586 643c e28f 3ebd 6d18 09bc
00000060: 2064 743c a121 8ebd a42c 613d 66d4 7a3d
00000070: 43ee 1a3d 8c78 7bbd 07f4 523e 105d fd3d
00000080: f870 473e 9778 0b3d d271 603d 7ac0 463e
00000090: bc37 3dbe c2fe 593e 4690 90bd 18bf 08bd
000000a0: aa9a e43b 9dc1 553d 8cf7 b73c aaa8 103d
000000b0: 14ce 13bd 3dd6 74bd cbe8 25bc a215 32bd
000000c0: f459 3dbc 2624 093e d919 243c d729 c1bd
000000d0: a57f 92bd c893 57be 548d 153d 774e 913d
000000e0: 5c49 b03d d51e 603d 6c8f d9bc a64a a93d
000000f0: db9a a93d 8d03 f73d e464 713c 8ae0 243e
00000100: b74c 323e b385 93bc 23e5 183e cb5d fabc
00000110: 1b3c c9bd 5689 48be b046 e4bd 3122 da3c
00000120: 0625 0abe e3df 173d 1016 79bc dc96 bf3d
00000130: e573 7abd 5f23 b2bd 6659 07be d45e 9f3e
00000140: 2296 1ebd 800a 0ebe 95d6 6a3e 5ae0 813e
00000150: cef9 7fbb fe0b dfbc fe6c debd d67b 503d
00000160: 9768 593d b74f 8dbc f601 4c3e a11e 453d
00000170: 7d4f 163e 8c5a a63d ae0d 21be e2c1 3ebd
00000180: 87c9 70bd 39f9 f13d 64da ca3d 0eee 67bd
00000190: 6afb f43d 5a64 273d 3f13 153c 460d 38be
000001a0: 0990 c3bc c734 7fbc eb00 65ba 20d8 9ebc
000001b0: 3475 803c 2164 1bbe c9ff 813e 75c6 07be
000001c0: 1f4f 1b3e 0a51 1bbe a726 703e 9f78 21be
000001d0: 2140 d23c ed2d 5ebd bcfe 463e c0ff 1d3e
000001e0: 3f1e 203e 01aa afbd 72d1 913e 9907 3c3e
000001f0: ac86 81bd 03ac 8a3d 83f6 e7bc bf28 173d
00000200: d50e 903d 491c ad3a b084 55bd 8301 743d
00000210: 5e26 0dbe d2de 8ebd ef7a aabd 30c5 64bd
00000220: 5d65 6c3d 07b9 f8bd 387b 853d 4c9c cabd
00000230: 0750 3bbd 5cb3 d2bd d143 aa3d f287 633e
00000240: 98cf 92bd 8f28 1c3e bee0 7a3d 840d 42bd
00000250: 2b49 863d 2df1 25be 2690 f8bd da15 4ebe
00000260: 9696 233c 9d19 dd3c a0f3 7fbe 049f 8fbc
00000270: 21d9 6bbc 4f4f 883d 0174 e7bc 267e 3cbe
00000280: a3c7 08bd c09a 14be 8905 903d 93d8 d5bc
00000290: e60d 73bd cff3 11be 5f9b fe3c cf65 bdbd
000002a0: 44bb 8cbc 72b7 a9bd cad7 333d b063 f7bd
000002b0: 8808 0abe 3d34 5c3d 8950 dc3c 5243 e1bc
000002c0: 3fcd 613d a960 69bc 87ba 33bd f2a3 0c3e
000002d0: 4118 0abd 4cac c93d 25f8 a8bd 997f 003e
000002e0: 7b8a 7c3d 6e9b 303d 9571 0b3b 345d 32bd
000002f0: 5388 38be 21e0 b6bd 159b b03d 8869 a13c
00000300: c97a 2ebe 1696 703b 76e6 4fbc ec9d 0fbe
00000310: 7a87 fe3c 744b 783c 1f92 293d 1f1e 01be
00000320: 9505 903d 7306 04be d519 4b3c bfa7 0dbd
00000330: da4b a03d 6352 7dbe 4208 d43c b091 7ebc
00000340: f6ec be3c 0780 153c 4801 2fbc f558 8cbd
00000350: e3f9 a23c 2159 bc3c 6926 8dbc 1e98 97bc
00000360: 6055 15bc 9d69 e03d 7544 26be 547a eb3c
00000370: 8cd5 44be 65a1 80bb e083 97bd 91d6 073d
00000380: 8890 833d be77 94bc c201 1cbe 23f7 1ebe
00000390: 069b d1bd 4167 8c3d 2591 e8bd d615 86bc
000003a0: 5344 84bd 74e1 983d 9bcf aa3d c23d 51bd
000003b0: d2c4 20bd fa45 213e d499 9abd a9c9 6abd
000003c0: 6da6 64bd 44d5 623d 5d48 b8bb f025 9e3d
000003d0: 8c14 1f3d 95e2 bebd 9221 35be 9fd6 c7bc
000003e0: c12a 0b3d f68e c7bc 31d3 77be f8a0 2fbe
000003f0: ad26 ef3d 7fda 44bd b266 303d 2d5c f93c
-0.039873406 0.12801376 0.09012592 0.034637824 0.02535128 -0.06983122 0.071133696 0.03544055
0.04413718 -0.04293601 -0.07765404 0.04425332 -0.023355115 0.013743495 -0.01331748 -0.1224329
-0.098178335 -0.07099331 0.026466649 0.0032731963 -0.08834296 0.013948132 -0.046523936 -0.00836764
0.01491645 -0.06940008 0.054974213 0.061237715 0.03782488 -0.06139426 0.20600902 0.12371266
0.19476688 0.03405055 0.054796048 0.19409361 -0.18478292 0.21288589 -0.07058768 -0.033385366
0.006976445 0.052186597 0.022456907 0.0353171 -0.036085203 -0.059774626 -0.010126303 -0.043477662
-0.011557091 0.13392696 0.010015928 -0.094318084 -0.071532525 -0.21052468 0.036511734 0.07095044
0.08607742 0.054716904 -0.026557647 0.08266191 0.082814895 0.12061224 0.014733527 0.1610128
0.17412077 -0.018008089 0.14931159 -0.030562302 -0.09825917 -0.1958364 -0.11146295 0.026627632
-0.13490686 0.03707875 -0.015203014 0.09354946 -0.061145682 -0.08698153 -0.13217697 0.31127036
-0.038717397 -0.13871193 0.22933419 0.2536648 -0.0039058807 -0.027227398 -0.10860632 0.05089935
0.05307826 -0.017249925 0.19922623 0.048124913 0.1467876 0.08122739 -0.15727875 -0.04657162
-0.05878594 0.118151136 0.09904936 -0.05662351 0.11962016 0.040867187 0.009098827 -0.17973813
-0.023872392 -0.015576548 -0.00087357935 -0.019390166 0.015680887 -0.15174915 0.2539046 -0.13259299
0.15166901 -0.15167633 0.23452245 -0.1576867 0.025665345 -0.054243017 0.19433111 0.15429592
0.15636538 -0.085773475 0.28480107 0.18362273 -0.06324515 0.0677109 -0.028315788 0.036904093
0.07034079 0.0013207282 -0.052128494 0.059571754 -0.13784167 -0.06976093 -0.08324229 -0.055852115
0.057713855 -0.12144666 0.06517643 -0.098930925 -0.045730617 -0.10288116 0.08313716 0.22219828
-0.071685016 0.15249847 0.061249487 -0.04737617 0.065569244 -0.16205283 -0.12136869 -0.20125523
0.009984633 0.026989752 -0.2499528 -0.01753188 -0.014395029 0.06655752 -0.028253557 -0.18407497
-0.033393513 -0.14512157 0.07032306 -0.026104247 -0.059339426 -0.14253162 0.031079946 -0.09247934
-0.017179139 -0.082869425 0.043906964 -0.12079561 -0.13479817 0.053760756 0.02689387 -0.027497921
0.05512738 -0.014244237 -0.04387906 0.13734415 -0.033714537 0.09847316 -0.08250455 0.12548675
0.061655503 0.04311698 0.0021277417 -0.043545917 -0.18020754 -0.08929468 0.086233296 0.019703642
-0.17039026 0.0036710552 -0.0126892235 -0.14025086 0.03107046 0.015154708 0.041399118 -0.12609147
0.07032315 -0.12893085 0.012396296 -0.034583803 0.078269675 -0.2473846 0.025882844 -0.015537664
0.023306351 0.009124762 -0.010681458 -0.06852905 0.019894546 0.022991719 -0.01723023 -0.018505152
-0.009114593 0.10957644 -0.16237052 0.028744854 -0.19222087 -0.0039254897 -0.073982 0.03316361
0.064240515 -0.018123504 -0.15235046 -0.15523963 -0.102346465 0.068556316 -0.11355809 -0.016367834
-0.06458344 0.07464877 0.08340379 -0.051084287 -0.039250202 0.1574935 -0.07548872 -0.057321224
-0.05582278 0.055379167 -0.0056238608 0.0772208 0.038837954 -0.09320561 -0.17688587 -0.024394331
0.03397632 -0.024360161 -0.24201657 -0.17151248 0.11677299 -0.048059937 0.043066688 0.03043946

net.4.bias f4 [128]
00000000: e95a cdbd b879 923e 766a 3c3d 8aa4 163d
00000010: a554 17bd 64fc 003b 5729 1f3e f359 58be
00000020: 882e 04be 9c70 c93d cda9 1ebe a07d 0abe
00000030: 81cc df3d c1d9 17bc f852 c9bd 2c40 833d
00000040: 9cc4 fcbb c655 2cbd c104 bfbd 75ca 313c
00000050: 00c3 50be c2af 3f3e bf8e 67be c03e 4ebd
00000060: efad 523b 166c 07bd 25f1 653e 8cb1 88bd
00000070: aa4a 13bc ce6b 1b3c f02f 5cbe 3126 7abc
00000080: 3b9c 44bd 450a 223e 86fa 0d3e bb1c 7cbe
00000090: 2b51 a53d 695e 29bd dd31 2abe 1a39 963e
000000a0: a710 f13c 3958 74bd e181 6fbd fcff 843d
000000b0: 8ad2 7c3e ce8a e43d 0471 1a3d 56d3 f0bd
000000c0: eb71 9b3e 4448 25be 4b34 7f3d 0f08 c23d
000000d0: c46c 1abe 4007 b4bd c90d f53c 083e b0bc
000000e0: 08e6 87bd 636f 3dbe 72b9 a03d c12f 25bd
000000f0: d78f 5dbd d395 2ebd eb1a 8b3e 5be7 ba3d
00000100: 0c61 0cbe 7c20 24be 7b64 773d b28e bfbd
00000110: 4188 ef3c d2f1 ac3c e00f 133d a4e0 4b3c
00000120: 0a7f 163c 9415 bbbd 412b 9e3d d8f2 bc3d
00000130: 6f6f 5ebd ab96 b33c 85ce b3bd 99d0 debd
00000140: 3484 923a bb1c 31bd 5b91 b4bd 594d 7b3e
00000150: 961b d1bd 6c26 163b ffa3 81be 7225 b73d
00000160: aea5 d63d cb61 87bd 104f 6cbd 3c88 5ebd
00000170: 2b64 d23e 5650 243e 486b 8f3d adf0 a33d
00000180: afef 723c c6ab 9f3d 58a6 c93d bd4e c73d
00000190: db8e 353d de2f d63c 1571 5a3e 0f3b 02be
000001a0: 4b0b 853d 1f0c ae3d 4415 9cbc 6bf9 b63d
000001b0: fc77 a33d 110f e23d 3f1c 0e3e 23d4 c23d
000001c0: c44e cebd eec4 e33d 84fa 0f3e a9d3 97bd
000001d0: 74d6 79bc 4d5b 233c d775 33bd 9458 f73c
000001e0: c77e c1bd eed4 713c 47ff 42be c5f9 2fbd
000001f0: 28d5 0c3d 83d7 6ebd c0be f2bd 9474 c63d
-0.10027105 0.2860849 0.045999967 0.03677801 -0.036945958 0.0019681687 0.15543114 -0.21128063
-0.12908375 0.09835932 -0.15494461 -0.13524485 0.10927678 -0.009268225 -0.09830278 0.06408724
-0.0077138674 -0.042073987 -0.093270786 0.010851492 -0.20386887 0.1871939 -0.22613047 -0.05035281
0.003214713 -0.033062063 0.2245527 -0.066744894 -0.008989969 0.009486152 -0.21502662 -0.015267895
-0.048000555 0.1582423 0.13865098 -0.24620335 0.08072122 -0.041349802 -0.16620584 0.2934044
0.029426886 -0.05965445 -0.05847347 0.06494138 0.2468969 0.111592874 0.037705436 -0.11759059
0.3036035 -0.16140848 0.06230573 0.09474193 -0.15080553 -0.08790445 0.0299138 -0.021513954
-0.06635672 -0.18499522 0.07847871 -0.040328745 -0.054092254 -0.042623352 0.27168974 0.09126159
-0.13708895 -0.16028017 0.06039856 -0.09353389 0.029239776 0.021111403 0.03590381 0.012443695
0.009185562 -0.09134975 0.07723094 0.09226006 -0.05430549 0.02192243 -0.08779625 -0.108796306
0.0011178316 -0.04324029 -0.08816787 0.24541225 -0.1021034 0.0022911085 -0.25320432 0.08942689
0.1048082 -0.066104494 -0.057692587 -0.054329142 0.41092047 0.1604627 0.07002884 0.0800489
0.014827653 0.07796435 0.09846181 0.09731815 0.04432569 0.026145872 0.213322 -0.12717842
0.064962946 0.08498406 -0.019053109 0.089342915 0.079818696 0.1103803 0.13877963 0.09513118
-0.10073617 0.11121546 0.14060408 -0.07413418 -0.0152488835 0.009970498 -0.043813553 0.030193605
-0.09448009 0.014760239 -0.19042693 -0.04296281 0.03438297 -0.058310997 -0.11852789 0.09690204

net.6.weight f4 [128, 128]
00000000: 0d43 af3d 0332 8ebd 2399 7d3d 8b10 8c3d
00000010: 43a3 b23d 5d92 babd 9293 70bd 40ed 7c3c
00000020: d020 933b 0063 eebd 910a 1c3d 09a5 48be
00000030: 1d79 04bc c70c 08be 7140 c3bd 8d09 8f3c
00000040: 2590 a43d edf6 d6bd 9f63 d73d 929f b03d
00000050: a604 12be b90d 713d f6fb a33d e55f e0bd
00000060: 96e3 b2bd dabf 03be 8019 413d 822e a53d
00000070: ce46 f0bd 08ff 403d 8748 3f3d 92af a6bd
00000080: 2224 e73c e52a 04be 65e0 f3b9 e3b0 8e3d
00000090: 87e7 d6bd a54f 63bd 96bd 25be 232c 2ebd
000000a0: b7f8 a33a 5355 163e 756e 9b3d 823d 033b
000000b0: 05c0 3e3e cb4a 363c e8d9 403d 88bd 94bb
000000c0: d848 dbbd 2929 333d c2f2 993d 376c 73bd
000000d0: fa4e 203c f6f9 06be 2fe6 9d3c b533 0cbd
000000e0: ad09 32be 7ec3 19bd 6e5a 4fbd 4e9c c8bd
000000f0: bf1e 1d3d 7748 bbbd 98f2 183c ef9e 743d
00000100: 9ead c9bd b310 75bd 51ae a1bd 1da5 3a3e
00000110: 3b90 cfbd afde ff3d f0f5 e9bd 0e58 43bd
00000120: 7274 23be 6eec ecbd 760c 613c 206b 203e
00000130: da2f cb3d 1bbb fb3d 2be9 31bd 54fa 133d
00000140: 0f9b e1bd 4656 fd3d 922f 1a3e 2cb6 26bd
00000150: bb7d c9bd 12fc cabd f811 0fbe c42a fbbd
00000160: 0b5f 463d accb 1abe eb2e 053d bd83 7e3d
00000170: 5c73 053e f6f4 4b3d bb8d e8bd 3d44 ba3d
00000180: b03d 43bd 1c96 d73d 29a8 603d 918b 513d
00000190: 5025 f6bc 56e1 433c 5bae 333d 7ce4 09be
000001a0: 316d 0f3e 1c1c a7bd 62ed 0d3d 3cf1 adbb
000001b0: ed21 1cbd e622 023e 5849 88bd 6fed 8b3d
000001c0: a079 093e 1064 6f3c 26ee ea3d df03 43bc
000001d0: 0b75 b7bb 7b30 a4bd d14e 9dbd 5a39 5f3d
000001e0: 890e adbd cf63 013e 33cb ecbd 4013 84bd
000001f0: 9ecc 9f3d ad61 b6bc 265d 113e 60ed e43d
00000200: 2c40 bb3d d9f8 eebd cd36 cdbd 4cc9 143d
00000210: 2a13 c23c 9601 a93d f324 08bd 134d 533d
00000220: 6330 b9bc 35f2 733b d42d 723e 2065 98bd
00000230: 5142 ccbd 0fd3 2bbd 071f e03c a6a3 d0bc
00000240: cbf8 a73d 1d47 f8bd f05b 173e 1ac1 0ebd
00000250: abc2 ab3d 591b 15be e501 193e 5107 4d3d
00000260: 13e9 403d 40a9 72bd cff2 1cbe 9694 c3bd
00000270: 9c56 5cbd 2909 9a3c 857b 9cbc 5602 b63d
00000280: 9e0a 12be 5e4c 213d 9692 1dbe 0614 ebbd
00000290: 18eb f53b 9e8d 4dbc 155b 62be e664 ea3c
000002a0: ad49 923d 7d1f f03d 537b 813d cf3b e63d
000002b0: 4485 8bbd dcd5 31bd 3736 c3bd 78d3 2bbd
000002c0: 76aa 8c3d 4c05 9c3c c6a6 f1bd a85b 8dbc
000002d0: 9c73 d7bb a41d 67bd ff8b 103e b9bb 00be
000002e0: 48a7 893c c99d c6bd 9505 463d ab84 7ebd
000002f0: 1caa 5b3d 3f24 04bd 1aad 893c d8a5 553d
00000300: 556e 9a3d 1c5c c43d 8aa7 2bbd 079f 9eb9
00000310: 5feb 0abc 7beb ad3d 05bb f13d aeba a2bd
00000320: 66f9 11be f528 433d f077 22bd 3e4e a1bc
00000330: 91bc 043e 36a3 ffbd bc32 053e 5a4a c23d
00000340: 7e34 debd 0780 e5bd fbac 40be fb2b 94bd
00000350: bd97 42bd f19e 953d 92c5 153e 40fa 92bd
00000360: 8e23 af3d c54b 01be db03 e0bd ccbf d73d
00000370: e67d ff3d cf88 023d b414 dcbd 84c3 bd3d
00000380: f04a 063e e921 d53d 494b a6bd b358 3dbd
00000390: f64d 263a dc7f 02bd f91b 12be 3b9b 943d
000003a0: 900a 683d 013f acbd dcef a63c a843 22bd
000003b0: 0c53 1f3e 3404 98bd 56bf d1bd a7db 35bc
000003c0: 298f 97bc acdb c2bc b9fd 0bbe 092a 08bd
000003d0: 7532 be3d 04b4 2d3d dad9 04be 5cc7 4abd
000003e0: c71e d0bc 25ff 523d bb2e 96bc ae55 7ebd
000003f0: 9303 433d 4c38 55bd 6d28 a03d a215 1d3d
0.08557711 -0.06943133 0.06191362 0.06839093 0.08722546 -0.09109948 -0.058734484 0.015437424
0.0044899955 -0.116399765 0.038096014 -0.19594206 -0.008085516 -0.13286124 -0.095337756 0.017460609
0.08035306 -0.10496316 0.10517048 0.086241856 -0.14259586 0.058850978 0.08007042 -0.109557904
-0.08734815 -0.12866154 0.04714346 0.08065511 -0.11732255 0.047118217 0.046700027 -0.08138956
0.028215472 -0.12906988 -0.0004651576 0.06967332 -0.10493379 -0.055495877 -0.16185603 -0.04252256
0.0012510036 0.14680986 0.075894274 0.0020025675 0.18627937 0.0111262305 0.04708281 -0.0045391954
-0.10707253 0.043740425 0.075170055 -0.059429374 0.0097844545 -0.1318129 0.0192748 -0.034229
-0.17386504 -0.03753995 -0.05062335 -0.09795438 0.0383594 -0.09144681 0.009335183 0.059721883
-0.09847568 -0.05983038 -0.07894576 0.18227048 -0.10134932 0.124936454 -0.11423862 -0.047691397
-0.15962389 -0.11568533 0.013735881 0.15665865 0.09921236 0.12291547 -0.043435257 0.036127403
-0.11015903 0.12369971 0.15057209 -0.040701076 -0.09838434 -0.0991136 -0.13971698 -0.12264016
0.048430484 -0.15116757 0.032515448 0.062137354 0.13032287 0.04979416 -0.11355158 0.09095047
-0.04766625 0.10526678 0.05484787 0.05115849 -0.030047089 0.01195558 0.04386745 -0.13466066
0.14006497 -0.08159658 0.034650214 -0.0053082984 -0.03811829 0.12708625 -0.06654614 0.06832396
0.13425303 0.014611259 0.114712045 -0.011902778 -0.0055986694 -0.080170594 -0.07681049 0.054498054
-0.08450038 0.1263573 -0.11562195 -0.06448984 0.078026995 -0.022263372 0.1419569 0.11178088
0.09143099 -0.11668558 -0.10020218 0.036324784 0.023690779 0.082522556 -0.033238363 0.051587176
-0.02260608 0.0037223224 0.23650295 -0.07441163 -0.09973586 -0.041949328 0.027358545 -0.025468659
0.0820175 -0.12122939 0.14781165 -0.034852125 0.08386739 -0.14561214 0.14942129 0.050055806
0.047097277 -0.05924344 -0.15326999 -0.09549825 -0.053793535 0.018803196 -0.019101867 0.08887164
-0.14261863 0.03937947 -0.1538795 -0.114784285 0.007504832 -0.012545971 -0.22105058 0.028612565
0.07142959 0.11724756 0.0632235 0.11241876 -0.06812528 -0.043416843 -0.09531825 -0.04194972
0.0686845 0.019045494 -0.11799388 -0.01725562 -0.006575061 -0.056424752 0.14115904 -0.1257161
0.016803399 -0.09698064 0.048345167 -0.06213824 0.053629026 -0.03226113 0.016806174 0.052160114
0.075405754 0.09587881 -0.041907825 -0.00030254593 -0.008478968 0.0849218 0.11803249 -0.079457626
-0.14255294 0.04764648 -0.039665163 -0.01969063 0.12962557 -0.12482302 0.13007635 0.09486838
-0.10849856 -0.1120606 -0.18815987 -0.07234951 -0.04750799 0.07305706 0.14626148 -0.07176638
0.085517034 -0.1262656 -0.10938235 0.10534629 0.12475185 0.031868752 -0.10746136 0.09265807
0.13114524 0.104068585 -0.08119828 -0.04622717 0.00063440145 -0.031860217 -0.14268483 0.0725617
0.0566507 -0.084104545 0.020378046 -0.039615303 0.15559024 -0.07422677 -0.102415726 -0.0110997325
-0.018500881 -0.023786388 -0.13671006 -0.033243213 0.09286968 0.042408004 -0.12973729 -0.04950653
-0.0254053 0.051512856 -0.01833283 -0.06209343 0.04761083 -0.052055642 0.078202106 0.03835071

net.6.bias f4 [128]
00000000: 894e b63c 53b2 a9bd 7cc3 f63c 5f34 93bd
00000010: 603e f53d 6e1d e43d a993 1d3c b8a8 0c3c
00000020: 960f fa3c 1356 b43d 6071 b33b 4c66 563d
00000030: dcc2 98bc c955 5abc 567f 1f3d 785f cabb
00000040: 6605 d23c 03e9 8aba c0b9 2f3c b5fa 2bbc
00000050: c62f a13e 870c 123d be8f 4b3d 1d9f ba3c
00000060: 9de6 12bc d09f b23e 1268 ae3d 3116 373d
00000070: d4f3 0cbe 0e75 b13d 29fa 773e 6430 7b3d
00000080: 1218 be3d 838e 853d 8abd 13bd 4c28 2c3d
00000090: 8732 c3bb 0cbd 70bd e4da b93c 801c 913d
000000a0: 4597 7d3b cd56 9ebd a642 893c a7a1 c13d
000000b0: 480a 0fbc eae4 343d 8392 9a3e 01e6 a73c
000000c0: 3183 643c 6b45 1f3e 9d76 a73b 586f 833d
000000d0: a51f 883d cc6c a5bc 3452 1a3e f3a7 223e
000000e0: 6362 e1bc ed11 9e3d 2ebc 983c 9cd3 c73d
000000f0: 2549 143c a22f 363d 9cbb 613b 633e 2d3d
00000100: 71ac ce3c 3c86 9a3c a41f 003d fa64 60bd
00000110: aefa 713d 6fda 4abd 00b7 d5bd 8e10 83bd
00000120: 38a2 033e 8cba 893d 8583 ce3d 7f84 b83d
00000130: 0459 293f cc93 f53c 4501 96bd df26 9f3c
00000140: 16da e93d 1967 5d3d 46c4 293d 6913 a73d
00000150: 2ad9 9b3d 6c29 413e dc3f 3f3d 55ac 2a3e
00000160: 3c8d 013d 8b40 afbc f6cf 8e3d cb4c 6c3d
00000170: 533d 3b3e 78de 5cbc 1c96 253d 0b35 613d
00000180: f467 523d 4e9f 513d 142a 12bd 1224 c23d
00000190: 0205 453d 191f c1bb 9f08 963d 51f4 e2ba
000001a0: e6f1 923d 9255 883d 35a4 283d 68fa 00bc
000001b0: 2af1 0f3e 832f e63d c540 5c3d fc9d 3dbc
000001c0: c2d8 b2bd 914d 0b3d 991b 82bd b3ad 5d3d
000001d0: 01f9 8b3c 9280 8f3d 29a9 8bbb 6c0a 973b
000001e0: 3106 453c bfc0 433d d9af 803d 8664 1d3e
000001f0: ede7 54bd 5992 02be 7dc2 493d 94b2 f9bc
0.022254245 -0.08285966 0.030122511 -0.07187723 0.11974788 0.11138426 0.009617724 0.008585148
0.03052501 0.0880548 0.005476162 0.05234365 -0.018647604 -0.013326117 0.038939796 -0.0061759315
0.02563734 -0.0010598007 0.010725439 -0.010496785 0.3148176 0.03565648 0.04969763 0.02278095
-0.008966115 0.34887552 0.085159436 0.044698898 -0.13764888 0.086649045 0.24216522 0.061325446
0.09281935 0.065213226 -0.03606943 0.042030618 -0.005956951 -0.05877404 0.022687383 0.07085514
0.00386949 -0.077314 0.016755413 0.09454661 -0.008730479 0.044163622 0.30189905 0.020495417
0.013947294 0.15553825 0.0051105754 0.064177215 0.06646661 -0.02019348 0.1507042 0.1588438
-0.027512735 0.07718263 0.018644419 0.09757158 0.009050642 0.04447902 0.00344441 0.042295825
0.02522871 0.018862836 0.031280175 -0.0547838 0.059076957 -0.04952472 -0.10435295 -0.06399642
0.1285485 0.06725034 0.10083679 0.090096466 0.6615145 0.029977702 -0.07324461 0.019427715
0.1141855 0.0540534 0.041446947 0.08157999 0.0760978 0.18863457 0.04669176 0.16667302
0.031628832 -0.021393081 0.06973259 0.057690423 0.18285112 -0.013480775 0.04042636 0.054982226
0.05136867 0.051177315 -0.03568466 0.09479536 0.04810048 -0.0058935997 0.07325863 -0.0017315244
0.07175045 0.06656946 0.041172225 -0.0078722015 0.1405684 0.11239531 0.053772707 -0.011573311
-0.087327495 0.03400952 -0.0635292 0.05412073 0.017086508 0.07006945 -0.004262109 0.0046093967
0.012025402 0.04779124 0.0628354 0.15370378 -0.051978994 -0.1275114 0.049257744 -0.03048066

net.8.weight f4 [1, 128]
00000000: d8bb 3d3c fde9 873c a574 a0bc 52f2 413b
00000010: da86 ea3d bfea 223c 193f e73a 6aa3 43be
00000020: a074 8d3a 7708 af3a dc66 f23d d052 3ebb
00000030: a95a 233d 119d 0f3d f3c0 2f3e 3d1b f73c
00000040: 2eeb a43c 7679 19bc 5b85 133a 9e06 31ba
00000050: 6be8 353d affb 213e 9025 d23d cce5 bbbb
00000060: 736b 183b 5b1a c03d 16b0 ad3d 6c9d d93d
00000070: 889f 7dbe 762a 093d f60c fa3d 4a63 1f3d
00000080: c17f 1ebe 75de 5dbe a2cf 79ba e596 c63d
00000090: f712 8f3d 5e78 cebf 6472 423b 49ba 123e
000000a0: 573e 793c 782b c73c 335b 123e 986f f03d
000000b0: 839a d03d dfa4 423c 5670 253e d873 c63b
000000c0: d243 13ba 3695 0e3e 04e5 b83d 0f46 b5bc
000000d0: 5533 173e 68c1 333d 98b9 4f3e 72ad 253e
000000e0: 3152 953d dbc6 383d 831e 433e 6923 9e3b
000000f0: 5072 5fbd 473a 2c3d 35fe 33be fd2c 0a3d
00000100: 8007 9fbc 21a6 f83c 53d7 123e b1e9 663c
00000110: e75c 1bbe 6961 86bd 72e3 47be f440 b33c
00000120: ea6b b53d 0811 153d 8683 243e 8122 d7bb
00000130: fc9a 8c3e 298a 323b 394c 5abb b885 3e3d
00000140: 34d3 2d3d 7581 1d3e 1639 943c 3a32 0cbe
00000150: 750d 153e c2e7 70bd 4eb2 463d cec4 38be
00000160: 57ce f3bd f4e9 20bd b2a5 e13d 478a ae3b
00000170: d9a4 a5bc 27d0 d43a a5f3 76bc 0010 6bbd
00000180: d49d 2c3d 6d1a 0f3e 7263 bbbd 39d5 ac3c
00000190: f4f7 2c3b bc0a d43b 78a4 283e 202e 17bd
000001a0: 01d2 6a3c 6ccb 193e 8cb6 cfbb 84dd 3e3c
000001b0: 277d 043b 4ef1 553d d532 a33d 3559 003e
000001c0: a7e2 efbd 6862 45bd b591 0d3d 659a 633c
000001d0: 3884 4ebe dee6 2a3e 7770 7fbb 7523 cd3d
000001e0: 277b 95bb 5483 f13d 6698 e0bd b318 0d3e
000001f0: 60f6 eeba 62bc 123c 9586 c43b da60 8abc
0.01158043 0.016591066 -0.01958687 0.0029593897 0.11451502 0.009943663 0.0017642706 -0.19105306
0.0010792203 0.0013353963 0.11836025 -0.002904106 0.039881382 0.0350619 0.17163448 0.030164355
0.020131674 -0.009367337 0.00056274765 -0.0006753 0.044411104 0.15818666 0.10261071 -0.005734181
0.0023257404 0.09380027 0.08480851 0.10625729 -0.24767888 0.03348776 0.12209503 0.03891305
-0.15478422 -0.21666892 -0.0009529536 0.096967496 0.06986039 -1.6130483 0.0029670233 0.14328875
0.015212617 0.02431272 0.14292602 0.11740035 0.10185721 0.011880129 0.16156134 0.00605629
-0.0005617711 0.13924107 0.09028056 -0.022128133 0.14765675 0.04388562 0.20285642 0.16179445
0.072910674 0.04511152 0.19054608 0.0048259986 -0.054552376 0.042047765 -0.17577441 0.03373431
-0.019412756 0.030352654 0.14339952 0.014093802 -0.15172158 -0.06561548 -0.19520357 0.021881558
0.088584736 0.036393195 0.16065797 -0.0065653925 0.27461994 0.0027242994 -0.0033309592 0.046514243
0.042437747 0.15381415 0.018093627 -0.13691035 0.14555915 -0.05881477 0.04850989 -0.18043825
-0.119045906 -0.039285615 0.11017932 0.0053265425 -0.020220207 0.0016236351 -0.015072738 -0.057388306
0.042142704 0.13974924 -0.09149827 0.021097766 0.0026392909 0.006471006 0.1646899 -0.036909223
0.014332295 0.15019006 -0.0063389 0.011649493 0.0020216198 0.05223208 0.0796868 0.1253403
-0.117131524 -0.04818955 0.034562785 0.013891791 -0.20167625 0.16689631 -0.0038976946 0.100165285
-0.0045618 0.11792627 -0.10966568 0.13778953 -0.0018231384 0.008956047 0.0059974887 -0.016891886
